gatv2_fold_6.pt (torch, 10562 bytes, 8 tensors)

conv1.att f4 [1, 8, 8]
-2.37708e-40 6.17e-41 -1.73582e-40 -1.74223e-40 -9.0696e-41 -1.59108e-40 6.6947e-41 1.90355e-40
2.31644e-40 -9.7919e-41 6.6497e-41 1.89371e-40 -9.7871e-41 3.1081e-41 4.8122e-41 3.2008e-41
-1.8531e-40 2.4786e-41 -6.4285e-41 -1.97025e-40 -1.83751e-40 3.2946e-41 -1.99869e-40 -1.73664e-40
7.8462e-41 -1.9818e-40 4.0356e-41 1.6642e-40 -9.7428e-41 -1.6789e-40 -9.4237e-41 5.6234e-41
-1.00795e-40 -2.86776e-40 1.51067e-40 6.7775e-41 -1.0497e-41 2.70469e-40 2.15579e-40 -1.12114e-40
7.7352e-41 7.066e-41 1.23635e-40 3.9626e-41 1.1966e-41 -1.49289e-40 -1.11178e-40 -1.65077e-40
-1.45942e-40 6.6431e-41 -1.88905e-40 -2.65784e-40 -2.5419e-40 -2.8935e-41 -1.4576e-40 5.0796e-41
1.8304e-40 1.48138e-40 1.1652e-41 -1.64811e-40 -4.8767e-41 -1.55967e-40 2.63088e-40 -1.564e-40
00000000: a296 0280 ffab 0000 e0e3 0180 aae5 0180
00000010: d3fc 0080 87bb 0180 9fba 0000 a212 0200
00000020: bb85 0200 f510 0180 5eb9 0000 e40f 0200
00000030: d310 0180 a456 0000 2586 0000 3a59 0000
00000040: 9204 0280 1845 0000 33b3 0080 3a25 0280
00000050: 3900 0280 d75b 0000 272d 0280 1be4 0180
00000060: b8da 0000 7228 0280 7f70 0000 e9cf 0100
00000070: 970f 0180 02d4 0180 b206 0180 c29c 0000
00000080: fa18 0180 6a1f 0380 1da5 0100 eebc 0000
00000090: 431d 0080 f5f1 0200 f258 0200 8738 0180
000000a0: a0d7 0000 f9c4 0000 a558 0100 766e 0000
000000b0: 5b21 0000 28a0 0180 eb35 0180 2bcc 0180
000000c0: d496 0180 2fb9 0000 970e 0280 e6e4 0280
000000d0: 94c4 0280 a950 0080 5296 0180 998d 0000
000000e0: 3efe 0100 f39c 0100 7b20 0000 6dcb 0180
000000f0: f187 0080 c6b2 0180 62dd 0200 fbb3 0180

conv1.bias f4 [64]
1.48793e-40 1.13563e-40 2.46064e-40 1.00483e-40 6.0152e-41 1.51451e-40 8.4334e-41 4.9718e-41
5.3657e-41 1.82436e-40 -2.806e-40 2.33179e-40 1.16357e-40 -1.37247e-40 5.5947e-41 1.24881e-40
-1.17446e-40 2.2303e-41 5.4922e-41 1.03504e-40 -2.65926e-40 -2.1465e-41 -1.07711e-40 8.1749e-41
1.45742e-40 -1.78443e-40 1.9437e-41 -1.5633e-41 2.65402e-40 8.4353e-41 -1.71164e-40 2.3952e-41
7.7332e-41 1.14455e-40 -2.76741e-40 2.2964e-41 -7.2074e-41 3.3037e-41 -1.57914e-40 1.21956e-40
5.9439e-41 4.1476e-41 1.34034e-40 1.2034e-41 7.9371e-41 2.6511e-41 1.12287e-40 -2.38945e-40
-8.5586e-41 9.993e-41 2.32744e-40 -1.0107e-40 -2.2638e-41 -1.7225e-41 -1.8884e-41 -2.5153e-41
-2.75512e-40 -3.4724e-41 9.8785e-41 -4.1141e-41 -4.2703e-41 -6.848e-42 1.2692e-40 -1.50557e-40
00000000: c69e 0100 913c 0100 edad 0200 1b18 0100
00000010: aea7 0000 2fa6 0100 17eb 0000 988a 0000
00000020: 9395 0000 8ffc 0100 330e 0380 028a 0200
00000030: 5b44 0100 977e 0180 f59b 0000 1e5c 0100
00000040: 6447 0180 2c3e 0000 1a99 0000 8720 0100
00000050: 4be5 0280 d63b 0080 412c 0180 e2e3 0000
00000060: 4596 0100 6df1 0180 2f36 0000 942b 0080
00000070: d5e3 0200 24eb 0000 23dd 0180 c542 0000
00000080: 92d7 0000 0e3f 0100 7103 0380 0440 0000
00000090: eac8 0080 185c 0000 33b8 0180 f753 0100
000000a0: b1a5 0000 9e73 0000 a275 0100 8c21 0000
000000b0: 41dd 0000 e749 0000 0339 0100 159a 0280
000000c0: 94ee 0080 9016 0100 cc88 0200 be19 0180
000000d0: 1b3f 0080 0430 0080 a434 0080 1e46 0080
000000e0: 0400 0380 cc60 0080 5f13 0100 af72 0080
000000f0: 0a77 0080 1713 0080 cd61 0100 b1a3 0180

conv1.lin_l.weight f4 [64, 9]
3.7705e-41 -1.0702e-40 4.9841e-41 -8.997e-41 8.2371e-41 2.4226e-41 -2.43501e-40 8.8584e-41
-1.80704e-40 2.59574e-40 -3.8276e-41 3.7034e-41 4.4839e-41 3.5608e-41 -1.85637e-40 3.3392e-41
8.4483e-41 2.544e-41 -2.56299e-40 2.7472e-41 8.0984e-41 -4.04e-41 -3.6629e-41 5.9136e-41
3.3822e-41 -9.1613e-41 2.58978e-40 -4.403e-41 -1.434e-41 8.5314e-41 1.89576e-40 6.7491e-41
1.41332e-40 -9.5696e-41 -2.92434e-40 2.3e-41 -1.19258e-40 -1.779e-40 -5.3782e-41 -4.5233e-41
-4.6178e-41 1.04472e-40 2.91697e-40 6.3442e-41 -6.7236e-41 4.9453e-41 2.90524e-40 1.81753e-40
-7.4416e-41 1.12952e-40 2.0909e-40 -1.29515e-40 2.0536e-41 1.12273e-40 -1.94024e-40 -7.941e-42
4.4404e-41 -8.194e-41 3.5132e-41 -1.94675e-40 -1.41992e-40 7.068e-41 -5.03e-41 -1.6156e-41
-5.2334e-41 -5.4075e-41 1.8123e-41 6.1762e-41 5.0199e-41 -2.4988e-41 8.8785e-41 -2.8288e-40
4.0671e-41 -2.4314e-41 2.41624e-40 2.5232e-41 2.1172e-40 1.16239e-40 -1.70343e-40 -1.97621e-40
8.7924e-41 2.34528e-40 1.80505e-40 -2.2543e-41 1.0028e-40 7.0033e-41 6.6834e-41 -2.48096e-40
1.75045e-40 -1.31222e-40 6.024e-42 -2.841e-41 2.20046e-40 3.5393e-41 1.06668e-40 -1.51108e-40
1.59304e-40 -2.4544e-40 8.8855e-41 -8.6592e-41 9.4642e-41 2.39616e-40 -3.1172e-41 8.034e-42
8.3132e-41 1.816e-42 7.0712e-41 -8.3178e-41 2.77816e-40 -1.50442e-40 8.0938e-41 1.04044e-40
8.5296e-41 -1.80713e-40 1.39981e-40 2.15197e-40 4.7123e-41 2.9126e-41 -6.9231e-41 2.17448e-40
-6.6986e-41 3.146e-41 2.0563e-41 2.4224e-41 -9.3425e-41 2.4383e-41 6.7408e-41 1.27347e-40
5.363e-41 -2.55444e-40 5.1398e-41 4.8806e-41 3.1417e-41 5.2501e-41 9.4295e-41 8.1208e-41
3.4374e-41 5.3021e-41 -2.32873e-40 4.2574e-41 1.4033e-41 -5.7464e-41 3.4853e-41 1.97953e-40
-8.914e-41 -2.84073e-40 4.123e-42 1.26314e-40 -1.3762e-41 1.35017e-40 -1.8113e-41 -1.27026e-40
-1.44628e-40 1.6858e-40 4.211e-41 3.7398e-41 -2.15497e-40 8.6222e-41 2.16323e-40 -4.1229e-41
-1.712e-42 9.2836e-41 1.17472e-40 1.16367e-40 2.2143e-41 2.76972e-40 2.0931e-41 6.6298e-41
8.8439e-41 2.3462e-41 1.28565e-40 -8.9731e-41 -1.09457e-40 2.3939e-40 -1.81e-40 1.38405e-40
1.12422e-40 7.1577e-41 2.18698e-40 -2.63132e-40 -2.777e-42 -1.1299e-41 1.03421e-40 -4.768e-41
8.1637e-41 6.6787e-41 -6.7013e-41 -5.8242e-41 1.65213e-40 1.13648e-40 -3.4297e-41 1.2099e-41
-1.16615e-40 1.5734e-41 -1.16514e-40 -2.56977e-40 7.8687e-41 -7.374e-42 1.6062e-41 -2.08812e-40
8.702e-41 2.8643e-41 2.46732e-40 -2.0565e-41 -5.1344e-41 2.8221e-41 1.94999e-40 -8.2276e-41
3.7335e-41 2.39926e-40 8.3828e-41 2.66405e-40 2.30816e-40 -1.59664e-40 -7.4161e-41 -4.0484e-41
-2.15846e-40 -9.084e-41 3.936e-41 5.2172e-41 4.7119e-41 -2.38833e-40 7.7332e-41 8.3569e-41
-1.11727e-40 -8.3275e-41 1.60802e-40 2.17411e-40 2.3334e-41 2.4095e-41 -1.76222e-40 5.3151e-41
-2.11192e-40 3.2377e-41 4.67e-41 -9.4986e-41 7.4579e-41 2.6613e-41 6.9862e-41 -2.7492e-41
3.9919e-41 3.8806e-41 2.82311e-40 -1.052e-40 9.2512e-41 3.9667e-41 -5.2566e-41 7.2336e-41
1.79805e-40 -2.44663e-40 3.773e-41 2.4217e-41 -7.1473e-41 -1.19082e-40 1.0862e-40 2.73808e-40
00000000: 1b69 0000 542a 0180 f08a 0000 cdfa 0080
00000010: 9ee5 0000 8843 0000 c8a6 0280 f0f6 0000
00000020: bbf7 0180 96d3 0200 b36a 0080 3c67 0000
00000030: fe7c 0000 4363 0000 7b05 0280 155d 0000
00000040: 81eb 0000 eb46 0000 75ca 0280 954c 0000
00000050: c0e1 0000 9e70 0080 1b66 0080 d9a4 0000
00000060: 485e 0000 61ff 0080 edd1 0200 bd7a 0080
00000070: f927 0080 d2ed 0000 7610 0200 23bc 0000
00000080: fa89 0100 c30a 0180 302f 0380 1d40 0000
00000090: 714c 0180 eaef 0180 ec95 0080 177e 0080
000000a0: ba80 0080 3a23 0100 222d 0300 dab0 0000
000000b0: 6dbb 0080 db89 0000 dd29 0300 a7fa 0100
000000c0: 71cf 0080 dd3a 0100 dc46 0200 0969 0180
000000d0: 3f39 0000 f938 0100 dc1c 0280 2316 0080
000000e0: c87b 0000 6ae4 0080 ef61 0000 ad1e 0280
000000f0: d18b 0180 07c5 0000 378c 0080 092d 0080
00000100: e391 0080 bd96 0080 8532 0000 2bac 0000
00000110: ef8b 0000 a845 0080 7ff7 0000 8e14 0380
00000120: 6071 0000 c743 0080 8da1 0200 5646 0000
00000130: 304e 0200 0744 0100 d9da 0180 e326 0280
00000140: 19f5 0000 c58d 0200 2df7 0100 d73e 0080
00000150: 8a17 0100 39c3 0000 4eba 0000 97b3 0280
00000160: f4e7 0100 cb6d 0180 cb10 0000 324f 0080
00000170: 6665 0200 a962 0000 5929 0100 3aa5 0180
00000180: 13bc 0100 30ac 0280 b1f7 0000 62f1 0080
00000190: d307 0100 f49b 0200 e556 0080 6516 0000
000001a0: bde7 0000 1005 0000 1ec5 0000 dee7 0080
000001b0: 7006 0300 5fa3 0180 9fe1 0000 0822 0100
000001c0: c5ed 0000 c1f7 0180 3686 0100 e257 0200
000001d0: 5c83 0000 3151 0000 fdc0 0080 285e 0200
000001e0: bbba 0080 b357 0000 5239 0000 8743 0000
000001f0: 6e04 0180 f843 0000 e8bb 0000 fe62 0100
00000200: 8095 0000 13c8 0280 478f 0000 0d88 0000
00000210: 9457 0000 5a92 0000 db06 0100 60e2 0000
00000220: d25f 0000 cd93 0000 2889 0280 ae76 0000
00000230: 1e27 0000 30a0 0080 2861 0000 d027 0200
00000240: 7cf8 0080 e117 0380 7e0b 0000 1d60 0100
00000250: 5d26 0080 5f78 0100 7e32 0080 1962 0180
00000260: 2a93 0180 efd5 0100 6375 0000 4068 0000
00000270: b858 0280 5af0 0000 055b 0200 ee72 0080
00000280: c604 0080 ca02 0100 7747 0100 6244 0100
00000290: ba3d 0000 1604 0300 593a 0000 d0b8 0000
000002a0: 88f6 0000 6741 0000 6366 0100 22fa 0080
000002b0: 1f31 0180 529b 0200 8ef8 0180 d181 0100
000002c0: 6339 0100 87c7 0000 a461 0200 81dd 0280
000002d0: be07 0080 7f1f 0080 4c20 0100 ea84 0080
000002e0: 92e3 0000 2dba 0000 ceba 0080 5ba2 0080
000002f0: 8ccc 0100 ce3c 0100 9b5f 0080 ba21 0000
00000300: 1345 0180 dc2b 0000 cb44 0180 59cc 0280
00000310: 59db 0000 8e14 0080 c62c 0000 1546 0280
00000320: 94f2 0000 d84f 0000 caaf 0200 5439 0080
00000330: 208f 0080 ab4e 0000 941f 0200 5ae5 0080
00000340: 1368 0000 d19c 0200 aee9 0000 a1e6 0200
00000350: 6c83 0200 14bd 0180 bbce 0080 da70 0080
00000360: b159 0280 3afd 0080 b86d 0000 6f91 0000
00000370: 5983 0000 c599 0280 92d7 0000 f5e8 0000
00000380: 7337 0180 23e8 0080 40c0 0100 0e5e 0200
00000390: 0c41 0000 2b43 0000 3ceb 0180 2a94 0000
000003a0: b84c 0280 415a 0000 2e82 0000 c808 0180
000003b0: e5cf 0000 304a 0000 bfc2 0000 a34c 0080
000003c0: 476f 0000 2d6c 0000 f812 0300 4125 0180
000003d0: e301 0100 936e 0000 8892 0080 a5c9 0000
000003e0: 39f5 0100 05aa 0280 2d69 0000 8243 0000
000003f0: 3dc7 0080 f44b 0180 ca2e 0100 44fb 0200

conv1.lin_l.bias f4 [64]
-4.7643e-41 -1.24012e-40 -1.92611e-40 -5.8766e-41 1.62153e-40 -2.784e-41 8.1074e-41 4.1907e-41
1.9993e-40 1.90219e-40 -3.8414e-41 -1.43612e-40 6.5439e-41 6.87e-43 2.55368e-40 -1.60938e-40
2.7192e-40 2.7812e-41 -6.4852e-41 2.263e-41 -1.23599e-40 -8.8116e-41 3.1945e-41 -9.9964e-41
-1.7344e-41 2.23558e-40 -1.5257e-41 -1.7551e-41 -4.456e-41 -2.32735e-40 1.54695e-40 -1.08486e-40
4.274e-42 2.1027e-40 1.492e-41 9.1344e-41 8.5734e-41 -2.70303e-40 -1.50631e-40 -2.2791e-40
1.86849e-40 8.7793e-41 -1.88396e-40 -1.98913e-40 1.30214e-40 -8.081e-42 -1.59108e-40 -1.2637e-40
-7.1208e-41 -3.2313e-41 -4.3856e-41 -5.8423e-41 -9.7969e-41 -9.6299e-41 -2.27746e-40 4.6618e-41
-4.2656e-41 5.6394e-41 -9.6568e-41 1.76094e-40 -8.4221e-41 7.1294e-41 -5.802e-41 2.51092e-40
00000000: cf84 0080 b259 0180 ec18 0280 d1a3 0080
00000010: 04c4 0100 9b4d 0080 00e2 0000 d274 0000
00000020: 532d 0200 4112 0200 156b 0080 5590 0180
00000030: 6bb6 0000 ea01 0000 ddc7 0200 a1c0 0180
00000040: 01f6 0200 874d 0000 c8b4 0080 153f 0000
00000050: 8b58 0180 a2f5 0080 0d59 0000 a916 0180
00000060: 5930 0080 306f 0200 882a 0080 ed30 0080
00000070: 377c 0080 c588 0280 3aaf 0100 6a2e 0180
00000080: ea0b 0000 264a 0200 9729 0000 a1fe 0000
00000090: feee 0000 7ff1 0280 e6a3 0180 527b 0280
000000a0: dc08 0200 bbf4 0000 2c0d 0280 7d2a 0280
000000b0: fc6a 0100 8716 0080 87bb 0180 4560 0180
000000c0: 80c6 0080 135a 0080 417a 0080 dca2 0080
000000d0: 1911 0180 710c 0180 dd7a 0280 f481 0000
000000e0: e876 0080 349d 0000 310d 0180 e1ea 0100
000000f0: c6ea 0080 bdc6 0000 bca1 0080 f1bb 0200

conv1.lin_r.weight f4 [64, 9]
-1.66757e-40 2.28377e-40 -1.16395e-40 2.18301e-40 2.40017e-40 7.0342e-41 -7.3220535e-06 -1.29427e-40
1.4157528e-06 -2.08868e-40 -1.42278e-40 1.55139e-40 -1.5944e-40 -7.0768e-41 8.1167e-41 3.1557765e-09
1.52115e-40 -1.3146369e-11 6.6416e-41 1.13268e-40 7.6147e-41 5.2888e-41 2.26657e-40 -1.83207e-40
-1.02028816e-10 -1.54175e-40 1.0453495e-09 -1.684e-40 1.52763e-40 5.1841e-41 -2.155e-42 6.3709e-41
2.14975e-40 -2.3173019e-10 1.5402e-40 8.134328e-05 -9.4642e-41 -9.0391e-41 1.76674e-40 -3.111e-42
-1.72144e-40 -8.1345e-41 -2.72638e-40 7.8861e-41 -3.422085e-05 -1.58854e-40 6.4013e-41 -1.19398e-40
-2.40107e-40 -1.81285e-40 -1.0714e-40 1.99043e-40 -6.9806e-41 1.84875e-40 1.61574e-40 1.81496e-40
-1.77362e-40 2.11784e-40 -1.0983e-41 1.00964e-40 -6.9579e-41 -1.89502e-40 1.4773011e-06 1.32462e-40
8.3173e-41 1.82997e-40 6.7747e-41 3.4252e-41 -8.305e-42 1.9928606e-08 -1.0841e-40 6.2087335e-11
-1.39063e-40 -2.53266e-40 5.9416e-41 2.30057e-40 4.5359e-41 -8.9357e-41 3.9025e-41 -8.279e-41
1.8519737e-08 -7.7908e-41 1.4750259e-07 4.7033e-41 1.3356e-40 2.21143e-40 4.0108e-41 1.70724e-40
-7.6152e-41 3.2698445e-05 -1.22066e-40 -1.463e-41 -5.572e-41 -9.1126e-41 3.4099e-41 -2.6241e-40
-5.113e-42 -2.32767e-40 -1.80882e-40 -1.33792e-40 4.5016714e-06 -9.8304e-41 -1.6690494e-05 2.34719e-40
-5.1956e-41 -2.9630087e-11 9.92124e-11 -7.499071e-08 4.3705e-41 -2.4224e-40 1.48595e-40 -7.9769e-41
-1.4868e-41 1.8067e-41 8.254096e-09 -9.3919e-41 0.000415952 1.69078e-40 9.3457e-41 -3.4587e-41
-2.13301e-40 5.0794e-41 -5.2856e-41 -1.6939293e-07 6.4785e-41 -1.4208594e-05 -3.6226e-41 -5.040597e-10
-1.59018e-40 -2.73996e-40 -2.06507e-40 6.6756e-41 -4.95613e-11 -2.32309e-40 0.00029772456 -6.9045e-41
-2.070398e-09 1.38192e-40 -6.594e-41 2.176e-42 -3.2712e-41 -2.84499e-40 9.8297e-41 5.514966e-10
-2.35286e-40 -5.6006e-09 -6.897e-41 -1.34411e-40 3.3094e-41 -1.83175e-40 1.61453e-40 -8.8635e-41
-5.8705605e-12 2.83522e-40 9.2706e-41 1.45347e-40 -8.1211e-41 5.5781e-41 -1.08015e-40 1.69411e-40
-3.8544e-41 0.00014797098 2.8539e-41 4.476707e-12 2.27958e-40 -1.2486e-40 2.46959e-40 1.0922e-41
-2.44357e-40 8.1019e-41 -2.62626e-40 1.5816e-41 1.06877e-40 -6.323e-42 2.92043e-40 -1.9817e-40
-1.15117e-40 5.677699e-11 2.1756e-40 1.6396348e-10 -7.3907e-41 -9.897729e-13 2.04186e-40 -1.7829427e-14
-1.80323e-40 -2.83645e-40 -1.5960528e-11 4.8891e-41 -4.66606e-12 -2.6323e-41 -0.00073389476 -4.599e-41
-2.9693951e-12 -4.954e-42 1.4704e-40 3.6614133e-06 2.26738e-40 -1.40251265e-11 1.571e-41 2.4763853e-05
2.03656e-40 -7.8972e-41 1.06293e-40 -1.27056e-40 5.0755816e-08 -1.15966e-40 1.2137454e-07 6.9532e-41
1.08437e-40 -1.68992e-40 -1.23122e-40 -1.72363e-40 1.14897e-40 -1.71763e-40 2.26472e-40 -7.8773496e-07
-4.1006e-41 1.10875e-40 1.77982e-40 -1.34214e-40 3.4971e-41 2.00213e-40 1.1378362e-05 -1.12601e-40
-7.296875e-05 5.5302e-41 1.88473e-40 -1.5224e-40 -2.27672e-40 -1.27695e-40 -1.55164e-40 -1.1259e-40
-2.68084e-40 -3.8816026e-05 -2.26717e-40 2.00583e-40 1.46965e-40 -2.20398e-40 -1.71523e-40 -2.22679e-40
-3.9923703e-05 -5.8039e-41 -3.5083642e-10 1.04252e-40 9.7128e-41 1.751e-41 -5.9045e-41 -2.0704e-41
-1.01757e-40 7.4709e-41 1.91357e-40 -4.952624e-12 -1.4399e-40 2.02954e-40 -2.577e-42 2.88911e-40
00000000: dad0 0180 9f7c 0200 7644 0180 8960 0200
00000010: 129d 0200 16c4 0000 f6af f5b6 ca68 0180
00000020: e504 be35 3d46 0280 9d8c 0180 77b0 0100
00000030: 74bc 0180 46c5 0080 43e2 0000 02dd 5831
00000040: 09a8 0100 fc45 67ad 24b9 0000 bf3b 0100
00000050: 44d4 0000 6e93 0000 d477 0200 b5fe 0180
00000060: 1e5d e0ae c7ad 0180 f7ab 8f30 6ed5 0180
00000070: d7a9 0100 8390 0000 0206 0080 98b1 0000
00000080: 4357 0200 40ca 7eaf 58ad 0100 d796 aa38
00000090: d307 0180 f9fb 0080 7fec 0100 ac08 0080
000000a0: dedf 0180 c2e2 0080 01f8 0280 d5db 0000
000000b0: 5c88 0fb8 d2ba 0180 71b2 0000 d54c 0180
000000c0: 529d 0280 59f9 0180 aa2a 0180 da2a 0200
000000d0: 97c2 0080 5b03 0200 67c2 0100 f0f9 0100
000000e0: 6aee 0180 5e4e 0200 9e1e 0080 7219 0100
000000f0: f5c1 0080 4110 0280 ae47 c635 4071 0100
00000100: dae7 0000 1ffe 0100 dabc 0000 7b5f 0000
00000110: 2717 0080 782f ab32 342e 0180 1088 882e
00000120: a783 0180 01c2 0280 a1a5 0000 4e81 0200
00000130: 717e 0000 17f9 0080 c96c 0000 c9e6 0080
00000140: 5515 9f32 2dd9 0080 3461 1e34 1c83 0000
00000150: 5074 0100 7568 0200 ce6f 0000 e9db 0100
00000160: 48d4 0080 b025 0938 4554 0180 c828 0080
00000170: 539b 0080 06fe 0080 0e5f 0000 7edb 0280
00000180: 410e 0080 dc88 0280 3af8 0180 f574 0180
00000190: 100d 9736 0812 0180 9002 8cb7 4d8e 0200
000001a0: d590 0080 8350 02ae 9e2b da2e 940a a1b3
000001b0: d579 0000 44a3 0280 399e 0100 5dde 0080
000001c0: 7229 0080 5d32 0000 e6cd 0d32 cf05 0180
000001d0: 2214 da39 52d7 0100 8504 0100 6a60 0080
000001e0: 9952 0280 988d 0000 5793 0080 60e2 35b4
000001f0: 98b4 0000 7261 6eb7 fc64 0080 0c8e 0ab0
00000200: 47bb 0180 cafb 0280 a83f 0280 17ba 0000
00000210: 10f9 59ae 9587 0280 ea17 9c39 78c0 0080
00000220: d446 0eb1 3981 0100 d0b7 0080 1106 0000
00000230: 305b 0080 1119 0380 0312 0100 2098 1730
00000240: e28f 0280 666f c0b1 43c0 0080 af76 0180
00000250: 415c 0000 9efe 0180 11c2 0100 14f7 0080
00000260: 4f8d ceac 5816 0300 6d02 0100 2b95 0100
00000270: 62e2 0080 7f9b 0000 1a2d 0180 40d8 0100
00000280: 726b 0080 a828 1b39 8e4f 0000 9882 9d2c
00000290: 747b 0200 0f5c 0180 6cb0 0200 721e 0000
000002a0: 2ba9 0280 d9e1 0000 18dc 0280 172c 0000
000002b0: ee29 0100 a011 0080 192e 0300 6b28 0280
000002c0: e640 0180 35b5 792e 785e 0200 9e47 342f
000002d0: 06ce 0080 544c 8bab 3039 0200 dc97 a0a8
000002e0: abf6 0180 b016 0380 ea63 8cad 4a88 0000
000002f0: 222c a4ac 6149 0080 d862 40ba 3480 0080
00000300: def3 50ac cf0d 0080 e399 0100 9ab6 7536
00000310: 0e78 0200 8ebb 76ad cb2b 0000 f8bb cf37
00000320: b637 0200 24dc 0080 4d28 0100 2e62 0180
00000330: 9cfe 5933 4443 0180 2e53 0234 d4c1 0000
00000340: 472e 0100 15d7 0180 3757 0180 7ae0 0180
00000350: 4940 0100 cede 0180 5077 0200 bc74 53b5
00000360: 4f72 0080 1335 0100 24f0 0100 2276 0180
00000370: 7c61 0000 1d2e 0200 b1e5 3e37 e339 0180
00000380: cd06 99b8 299a 0000 630d 0200 62a8 0180
00000390: a87a 0280 f663 0180 89b0 0180 db39 0180
000003a0: 4feb 0280 64ce 22b8 ff77 0280 252f 0200
000003b0: ae99 0100 6166 0280 23de 0180 bd6c 0280
000003c0: c073 27b8 caa1 0080 d6df c0af 9d22 0100
000003d0: c10e 0100 d030 0000 98a4 0080 b739 0080
000003e0: a81b 0180 42d0 0000 6d15 0200 4541 aeac
000003f0: 6391 0180 c135 0200 2f07 0080 5e25 0300

conv1.lin_r.bias f4 [64]
1.65538e-40 -2.43899e-40 -1.03393e-40 -2.97e-41 -2.4082e-40 7.9285e-41 -1.3809e-40 -7.0062715e-06
2.732e-41 -2.67654e-40 1.8877e-41 1.5892094e-12 -5.0326e-41 1.2798e-41 -2.08875e-40 -1.06869e-40
-1.58354e-40 3.243e-42 9.7187e-41 2.58404e-40 2.4e-42 -1.00351e-40 -1.8074e-40 -3.6252e-41
-1.00805e-40 -1.222e-41 2.19258e-40 2.49082e-40 2.09581e-40 -1.77162e-40 1.86109e-40 -3.0023741e-06
8.7718e-41 -7.341521e-07 -7.021997e-11 -1.89952e-40 -2.1373e-41 -1.09925e-40 -6.902569e-12 -1.31663e-40
2.24707e-40 -1.94837e-40 1.2645402e-06 -3.8255963e-09 -2.08376e-40 2.1569964e-09 2.2138e-40 -2.4081001e-11
-1.3892e-41 2.9158e-41 4.8367e-41 -3.71e-43 -1.02754e-40 8.5514446e-05 5.9348e-41 2.77059e-40
-1.2914163e-09 -5.4822036e-11 2.87734e-40 2.86214e-40 1.01538e-40 -4.476e-41 1.23316e-40 -2.38032e-40
00000000: 74cd 0100 e4a7 0280 3820 0180 cb52 0080
00000010: 4f9f 0280 04dd 0000 f080 0180 6a17 ebb6
00000020: 284c 0000 1cea 0280 9f34 0000 4ea9 df2b
00000030: 4a8c 0080 ad23 0000 4246 0280 e829 0180
00000040: 6db9 0180 0a09 0000 eb0e 0100 53d0 0200
00000050: b106 0000 bd17 0180 d4f7 0180 0e65 0080
00000060: 0119 0180 1022 0080 3463 0200 57b6 0200
00000070: 3a48 0200 dbed 0180 cc06 0200 657c 49b6
00000080: 86f4 0000 8c12 45b5 546a 9aae 8211 0280
00000090: 943b 0080 6d32 0180 d0dc f2ac 066f 0180
000000a0: 6472 0200 201f 0280 45b9 a935 4d72 83b1
000000b0: de44 0280 483a 1431 1e69 0200 98d1 d3ad
000000c0: ba26 0080 4851 0000 d486 0000 0901 0080
000000d0: 701e 0180 3856 b338 70a5 0000 5404 0300
000000e0: ac7d b1b0 201c 71ae 1622 0300 d91d 0300
000000f0: 0c1b 0100 c67c 0080 c157 0100 8997 0280

conv2.lin_l.weight f4 [1, 64]
1.6e-43 3.6e-44 1.22e-43 -1.42e-43 -2.24e-43 -1.14e-43 -7.3e-44 -7.3e-44
3.59e-43 8.5e-43 -8.11e-43 -9.1e-44 3.91e-43 3.11e-43 2.4e-44 3e-44
-4.5e-44 3.2e-44 1e-45 -9.8e-44 -1.14e-43 -5.5e-44 -4.3e-44 9.5e-44
2.1e-44 2.5e-44 5.5e-44 3.4e-44 1.47e-43 -8.1e-44 -6.73e-43 -1.4915e-41
2.039e-42 1.197e-42 -2.98e-43 -2e-44 6.05e-43 1.4e-43 8.34e-43 2.4e-44
-4.8e-44 -1.29e-43 5.3e-44 -1.18e-43 2.5e-44 -1.54e-43 -4e-45 7e-45
-7.3e-44 -1.26e-43 -1.84e-43 -1.05e-43 -2.21e-43 2.05e-43 6.7e-44 -1.1e-44
2.91e-43 -9.5e-44 -1.3e-44 2.70327e-40 1.11e-43 -2.70348e-40 -5.07e-43 -2.7e-43
00000000: 7200 0000 1a00 0000 5700 0000 6500 0080
00000010: a000 0080 5100 0080 3400 0080 3400 0080
00000020: 0001 0000 5f02 0000 4302 0080 4100 0080
00000030: 1701 0000 de00 0000 1100 0000 1500 0000
00000040: 2000 0080 1700 0000 0100 0000 4600 0080
00000050: 5100 0080 2700 0080 1f00 0080 4400 0000
00000060: 0f00 0000 1200 0000 2700 0000 1800 0000
00000070: 6900 0000 3a00 0080 e001 0080 9429 0080
00000080: af05 0000 5603 0000 d500 0080 0e00 0080
00000090: b001 0000 6400 0000 5302 0000 1100 0000
000000a0: 2200 0080 5c00 0080 2600 0000 5400 0080
000000b0: 1200 0000 6e00 0080 0300 0080 0500 0000
000000c0: 3400 0080 5a00 0080 8300 0080 4b00 0080
000000d0: 9e00 0080 9200 0000 3000 0000 0800 0080
000000e0: d000 0000 4400 0080 0900 0080 90f1 0200
000000f0: 4f00 0000 9ff1 0280 6a01 0080 c100 0080

conv2.lin_r.weight f4 [1, 64]
-3.1435e-41 3.1888e-41 1.72895e-40 2.45206e-40 5.8235e-41 1.59276e-40 6.37e-42 -1.20338e-40
-4.5157e-41 -9.4938e-41 -4.2588e-41 2.5513e-41 -2.44563e-40 1.8989e-40 1.03019e-40 -6.6349e-41
-1.3535e-41 -2.63412e-40 -1.30069e-40 -9.2268e-41 -1.14974e-40 4.8936e-41 1.1341e-40 2.36483e-40
-3.0454e-41 -1.10773e-40 1.3732e-40 -1.23129e-40 7.3268e-41 7.683e-41 1.87309e-40 1.6241e-41
2.62558e-40 -1.8037e-40 2.468e-40 1.632e-41 -2.20234e-40 -1.5588e-41 5.6558e-41 -2.46462e-40
-3.2276e-41 -6.8546e-41 1.73158e-40 -2.09752e-40 -1.82606e-40 -1.65484e-40 2.29397e-40 -1.52705e-40
-1.911e-40 -2.09093e-40 -2.57689e-40 -1.50101e-40 -2.22347e-40 -2.4775e-40 1.61302e-40 -7.2531e-41
4.2811e-41 -2.44818e-40 7.6252e-41 2.02101e-40 8.2625e-41 -1.64608e-40 5.3205e-41 -2.6566e-40
00000000: a157 0080 e458 0000 f6e1 0100 89ab 0200
00000010: 56a2 0000 ffbb 0100 c211 0000 744f 0180
00000020: e17d 0080 a608 0180 b876 0080 1f47 0000
00000030: bea9 0280 5611 0200 2d1f 0100 f4b8 0080
00000040: bb25 0080 49de 0280 946a 0180 3501 0180
00000050: 8040 0180 6a88 0000 243c 0100 3893 0200
00000060: e554 0080 ca34 0180 cb7e 0100 3c57 0180
00000070: 3ecc 0000 2cd6 0000 240a 0200 462d 0000
00000080: e8db 0200 ccf6 0180 faaf 0200 7e2d 0000
00000090: ec65 0280 742b 0080 a99d 0000 09af 0280
000000a0: f959 0080 14bf 0080 b2e2 0100 b448 0280
000000b0: 08fd 0180 4dcd 0180 777f 0200 aea9 0180
000000c0: b614 0280 de46 0280 55ce 0280 6ca2 0180
000000d0: d06b 0280 a0b2 0280 a5c1 0100 30ca 0080
000000e0: 5777 0000 74aa 0280 8fd4 0000 6033 0200
000000f0: 53e6 0000 dcca 0180 5094 0000 8de4 0280
