gatv2_fold_1.pt (torch, 10562 bytes, 8 tensors)

conv1.att f4 [1, 8, 8]
000000 3b 09 01 00 f3 06 03 80 97 60 02 80 57 fc 01 80
       9.5147e-41 -2.78e-40 -2.18321e-40 -1.82358e-40
000010 bc 21 01 00 4b a9 00 00 8c a0 01 00 78 67 00 80
       1.03937e-40 6.0731e-41 1.49429e-40 -3.7118e-41
000020 d1 c5 00 00 6c 9f 00 00 0a 2f 01 00 7d 18 00 00
       7.0963e-41 5.719e-41 1.0871e-40 8.785e-42
000030 dc 32 01 00 7a 11 01 00 4a a7 00 80 4b f7 00 80
       1.1008e-40 9.8105e-41 -6.0012e-41 -8.8712e-41
000040 8e 22 00 80 1c ff 00 80 a8 93 01 80 12 4b 00 80
       -1.2396e-41 -9.1516e-41 -1.44805e-40 -2.693e-41
000050 3e 1b 01 00 29 6d 00 00 63 f1 00 80 d6 e3 00 80
       1.01608e-40 3.9159e-41 -8.6593e-41 -8.1732e-41
000060 62 07 02 80 39 9f 00 80 fc 48 01 80 71 56 00 80
       -1.8632e-40 -5.7118e-41 -1.18017e-40 -3.101e-41
000070 ba ed 00 80 ec 77 01 80 78 cc 01 80 de 5b 00 00
       -8.528e-41 -1.34855e-40 -1.65185e-40 3.2956e-41
000080 c5 23 01 80 d1 e6 00 00 67 bd 00 00 76 18 00 80
       -1.04667e-40 8.2801e-41 6.7945e-41 -8.775e-42
000090 7c 48 01 80 cd 3d 02 80 cc 64 01 80 6e 36 02 00
       -1.17838e-40 -2.05841e-40 -1.27995e-40 2.03197e-40
0000a0 2a f0 00 00 11 0f 01 00 0d 5e 00 00 9e de 00 00
       8.6155e-41 9.724e-41 3.3739e-41 7.986e-41
0000b0 d0 c2 00 00 7f 84 01 80 ef 88 01 00 77 d1 00 80
       6.9886e-41 -1.39366e-40 1.40958e-40 -7.5142e-41
0000c0 3e 65 00 00 67 3a 02 80 e8 7a 02 00 67 ff 02 80
       3.6319e-41 -2.04622e-40 2.27761e-40 -2.75292e-40
0000d0 98 20 02 00 5b 37 01 00 46 a2 02 80 3d dd 00 80
       1.95363e-40 1.11693e-40 -2.41884e-40 -7.9365e-41
0000e0 67 dc 00 80 db 42 01 00 df c0 00 00 31 f1 01 00
       -7.9065e-41 1.15819e-40 6.9189e-41 1.78359e-40
0000f0 ab 10 03 00 b5 b6 00 80 ea 01 00 00 e2 5e 00 80
       2.81486e-40 -6.5543e-41 6.87e-43 -3.4038e-41

conv1.bias f4 [64]
000000 a9 2f 01 80 41 16 02 00 7c 3a 00 80 b5 3d 01 00
       -1.08933e-40 1.91654e-40 -2.098e-41 1.13972e-40
000010 1f ec 00 00 48 cc 01 00 95 fe 01 80 0a c0 00 00
       8.4704e-41 1.65118e-40 -1.83162e-40 6.889e-41
000020 a3 89 01 80 37 b1 01 80 ac cd 00 00 fd fe 00 80
       -1.4121e-40 -1.55408e-40 7.3781e-41 -9.1473e-41
000030 b1 65 00 00 d5 27 00 80 29 79 00 80 08 f6 00 80
       3.648e-41 -1.4289e-41 -4.3464e-41 -8.826e-41
000040 ce 29 00 80 19 07 01 00 b3 1c 01 80 6f 60 01 00
       -1.4997e-41 9.4382e-41 -1.02131e-40 1.2643e-40
000050 06 34 00 00 5b 72 02 00 8c 6a 02 00 58 3d 00 00
       1.8662e-41 2.24694e-40 2.21893e-40 2.2006e-41
000060 fa e3 01 00 0f 48 00 80 9f 77 00 00 f5 f3 01 80
       1.73618e-40 -2.585e-41 4.2912e-41 -1.79351e-40
000070 2b a3 01 80 2c db 00 00 30 0d 02 00 f2 30 00 00
       -1.50369e-40 7.8624e-41 1.88402e-40 1.7558e-41
000080 e6 17 00 80 9c 08 01 80 68 1b 00 00 1f 4b 00 80
       -8.573e-42 -9.4924e-41 9.832e-42 -2.6948e-41
000090 69 1d 00 00 59 91 01 80 48 c5 01 80 21 94 00 00
       1.055e-41 -1.43976e-40 -1.62607e-40 5.3139e-41
0000a0 d2 72 01 00 c3 2c 01 80 fc 4f 01 00 68 44 00 00
       1.33025e-40 -1.07893e-40 1.20528e-40 2.454e-41
0000b0 21 c4 00 00 c9 d1 01 80 a9 1c 00 00 1c f6 02 80
       7.0358e-41 -1.67092e-40 1.0281e-41 -2.71958e-40
0000c0 b8 5c 01 80 bc 81 01 80 d7 6c 02 00 d0 1f 00 00
       -1.25097e-40 -1.38375e-40 2.22715e-40 1.1412e-41
0000d0 30 c4 00 80 e2 67 02 80 b3 97 00 80 2a 48 00 00
       -7.0379e-41 -2.20937e-40 -5.442e-41 2.5888e-41
0000e0 c9 08 03 00 ce b0 01 80 e7 54 00 00 ab 1c 00 00
       2.78658e-40 -1.55261e-40 3.0457e-41 1.0284e-41
0000f0 6c 7c 01 80 83 5d 00 00 4e 5a 00 00 bb d8 00 00
       -1.3647e-40 3.3546e-41 3.2395e-41 7.7748e-41

conv1.lin_l.weight f4 [64, 9]
000000 63 06 01 00 c1 c8 00 80 6b 77 00 00 af 67 00 00
       9.4127e-41 -7.2017e-41 4.2839e-41 3.7195e-41
000010 b6 9d 00 00 08 59 01 00 98 20 00 00 83 30 01 00
       5.6576e-41 1.23774e-40 1.1692e-41 1.09238e-40
000020 31 71 01 80 68 2d 01 00 63 6e 02 00 5a 4a 01 00
       -1.32441e-40 1.08124e-40 2.2327e-40 1.18508e-40
000030 b9 65 00 80 80 e4 00 00 03 3a 01 80 a1 6b 00 80
       -3.6491e-41 8.197e-41 -1.12646e-40 -3.861e-41
000040 73 a1 02 80 72 af 02 00 c9 0c 00 80 b5 06 02 00
       -2.41588e-40 2.46609e-40 -4.586e-42 1.86077e-40
000050 2f 84 01 00 41 27 01 00 84 fa 02 00 79 19 00 00
       1.39254e-40 1.05917e-40 2.73539e-40 9.138e-42
000060 bb 23 01 00 11 77 02 80 c9 b7 01 80 56 fb 00 80
       1.04653e-40 -2.26384e-40 -1.57765e-40 -9.0162e-41
000070 08 a3 00 80 ec 56 00 00 72 7a 01 80 4a 50 00 00
       -5.8485e-41 3.1182e-41 -1.3576e-40 2.8802e-41
000080 ba f6 00 00 97 c4 00 80 49 6b 00 00 24 99 01 80
       8.8509e-41 -7.0523e-41 3.8487e-41 -1.46772e-40
000090 cf 48 01 00 bb 52 00 00 35 2b 00 80 ba 55 00 80
       1.17954e-40 2.9678e-41 -1.55e-41 -3.0753e-41
0000a0 55 98 00 80 18 43 01 00 2d ee 00 80 6b 1e 00 80
       -5.4646e-41 1.15904e-40 -8.5441e-41 -1.0912e-41
0000b0 8a c5 01 00 3d 58 02 00 88 f7 00 00 d0 00 00 00
       1.62699e-40 2.15325e-40 8.8797e-41 2.91e-43
0000c0 a7 79 00 80 6e 32 00 00 fe ce 00 80 ca 59 02 00
       -4.364e-41 1.8091e-41 -7.4255e-41 2.15881e-40
0000d0 e6 c4 01 00 f5 17 00 00 7b 56 00 80 64 a6 00 80
       1.6247e-40 8.594e-42 -3.1023e-41 -5.969e-41
0000e0 93 17 00 80 62 8d 00 00 20 24 00 00 ff ed 00 00
       -8.457e-42 5.0719e-41 1.2959e-41 8.5377e-41
0000f0 80 d9 01 80 d1 76 00 00 f4 b2 02 80 c1 9b 00 80
       -1.6986e-40 4.2623e-41 -2.47867e-40 -5.5874e-41
000100 3d 1e 00 00 cd 38 00 00 31 ec 01 00 5c 1d 00 00
       1.0847e-41 2.0376e-41 1.76565e-40 1.0532e-41
000110 14 02 01 00 9e 87 02 80 e2 d6 01 00 66 11 01 00
       9.2581e-41 -2.32321e-40 1.68921e-40 9.8077e-41
000120 81 67 00 00 9e fb 00 00 71 d9 01 00 df f6 02 00
       3.713e-41 9.0263e-41 1.69839e-40 2.72232e-40
000130 de 4b 01 00 fb c5 00 00 1a b2 00 00 85 4e 00 80
       1.19052e-40 7.1022e-41 6.3891e-41 -2.8168e-41
000140 46 e8 01 80 1f 35 02 80 d5 4c 01 80 53 b7 00 00
       -1.7516e-40 -2.02727e-40 -1.19398e-40 6.5764e-41
000150 99 c7 00 00 4e f8 00 00 de 68 02 00 7d ba 00 80
       7.1602e-41 8.9075e-41 2.2129e-40 -6.69e-41
000160 1f 5b 02 80 8a e5 01 80 d5 55 00 80 e9 c9 01 80
       -2.16359e-40 -1.74179e-40 -3.0791e-41 -1.64267e-40
000170 58 41 00 00 4d d5 00 00 95 51 00 00 fa 9d 00 00
       2.3441e-41 7.6518e-41 2.9266e-41 5.6671e-41
000180 ea fe 00 80 2c 04 02 00 12 ef 00 00 86 a9 00 00
       -9.1446e-41 1.85168e-40 8.5762e-41 6.0814e-41
000190 64 fa 01 00 5e 4f 00 00 57 4d 02 00 65 86 00 00
       1.81659e-40 2.8472e-41 2.11415e-40 4.8212e-41
0001a0 7a aa 02 00 40 ec 00 00 a9 40 00 00 b8 e4 01 80
       2.44826e-40 8.475e-41 2.3196e-41 -1.73884e-40
0001b0 20 1b 03 80 81 11 00 00 c5 16 00 80 88 d8 02 80
       -2.85237e-40 6.279e-42 -8.168e-42 -2.61348e-40
0001c0 7d 1d 00 80 ca 98 00 80 1a 91 00 00 29 20 02 00
       -1.0578e-41 -5.481e-41 5.2053e-41 1.95208e-40
0001d0 c5 8f 01 00 fb 28 01 80 d7 b2 00 00 e2 1c 00 00
       1.4341e-40 -1.06537e-40 6.4156e-41 1.0361e-41
0001e0 c7 b9 00 80 99 4d 00 00 96 ad 00 00 58 2c 00 00
       -6.6644e-41 2.7837e-41 6.2271e-41 1.5908e-41
0001f0 3a 56 01 00 3a a1 02 00 e8 0e 02 80 6e 6a 00 00
       1.22768e-40 2.41508e-40 -1.89018e-40 3.818e-41
000200 09 28 00 80 f9 89 00 80 d3 d4 00 00 ad e3 00 00
       -1.4362e-41 -4.9495e-41 7.6347e-41 8.1675e-41
000210 cb 4e 01 80 c0 b7 00 00 92 4b 01 80 f4 5e 02 00
       -1.20101e-40 6.5917e-41 -1.18945e-40 2.17734e-40
000220 97 72 02 80 00 17 01 00 cb 9a 01 80 21 80 01 00
       -2.24778e-40 1.00086e-40 -1.47365e-40 1.378e-40
000230 8d b9 00 00 6a a7 00 80 71 79 00 80 d5 d8 02 00
       6.6563e-41 -6.0057e-41 -4.3565e-41 2.61456e-40
000240 91 45 01 00 ff 7c 02 00 d6 61 00 80 20 7a 00 00
       1.16791e-40 2.28511e-40 -3.5097e-41 4.381e-41
000250 44 6e 00 00 e6 7b 00 80 e2 26 02 00 f2 1a 01 80
       3.9556e-41 -4.4446e-41 1.9762e-40 -1.01502e-40
000260 0b 75 00 00 c4 87 02 80 4a 32 01 00 1d b1 00 00
       4.1987e-41 -2.32375e-40 1.09876e-40 6.3536e-41
000270 78 20 00 00 90 5c 00 00 cd f1 00 00 3b b4 02 00
       1.1648e-41 3.3205e-41 8.6742e-41 2.48326e-40
000280 01 7c 00 80 7a 3b 00 00 9f 72 02 80 df b9 00 80
       -4.4484e-41 2.1336e-41 -2.24789e-40 -6.6678e-41
000290 be cc 02 00 d3 80 02 80 f7 5e 01 00 ba 53 01 80
       2.57119e-40 -2.29884e-40 1.25902e-40 -1.21871e-40
0002a0 d6 94 01 00 40 01 00 00 79 b7 00 80 ad 47 01 80
       1.45228e-40 4.48e-43 -6.5818e-41 -1.17548e-40
0002b0 0a 80 00 80 b3 73 01 00 0a 3b 02 00 83 06 01 00
       -4.5932e-41 1.3334e-40 2.0485e-40 9.4171e-41
0002c0 01 db 00 80 65 3a 01 00 81 9f 00 80 54 48 00 80
       -7.8564e-41 1.12784e-40 -5.7219e-41 -2.5946e-41
0002d0 61 97 01 80 df 25 02 80 2d ae 00 00 77 d0 01 80
       -1.4614e-40 -1.97257e-40 6.2482e-41 -1.66619e-40
0002e0 d2 a8 00 00 72 ee 00 00 69 32 00 00 1d 30 00 80
       6.0561e-41 8.5538e-41 1.8084e-41 -1.726e-41
0002f0 cf 7e 02 00 31 5b 01 00 22 8a 00 80 8b 38 00 00
       2.29161e-40 1.24549e-40 -4.9553e-41 2.0284e-41
000300 94 19 00 00 f7 5b 00 00 5a 20 00 80 cd 17 01 80
       9.176e-42 3.2991e-41 -1.1606e-41 -1.00374e-40
000310 a2 3c 01 00 8c 18 00 80 4c 13 01 00 59 e3 01 80
       1.13586e-40 -8.806e-42 9.8758e-41 -1.73392e-40
000320 a5 87 01 00 ac ba 02 00 8c d8 02 00 87 ce 00 00
       1.40496e-40 2.50636e-40 2.61353e-40 7.4088e-41
000330 6c 90 01 00 b6 04 00 00 fa 5c 00 00 bb a3 01 80
       1.43644e-40 1.69e-42 3.3354e-41 -1.50571e-40
000340 87 1e 00 00 06 a1 00 00 83 c3 00 80 18 4a 01 00
       1.0951e-41 5.7764e-41 -7.0136e-41 1.18415e-40
000350 39 73 00 00 7f 82 02 80 6b bb 00 80 da ca 00 00
       4.1334e-41 -2.30484e-40 -6.7233e-41 7.277e-41
000360 dd 08 02 80 aa 17 02 00 ed f1 01 00 f8 ec 00 80
       -1.8685e-40 1.9216e-40 1.78622e-40 -8.5008e-41
000370 51 bf 01 00 9e 95 01 00 dc 78 02 80 6a cf 00 00
       1.60467e-40 1.45508e-40 -2.27027e-40 7.4406e-41
000380 9b 65 00 80 25 59 00 00 97 bc 00 80 2f 19 00 00
       -3.6449e-41 3.1979e-41 -6.7653e-41 9.034e-42
000390 20 04 00 00 23 4d 00 00 33 b5 00 00 2f 19 02 00
       1.48e-42 2.7671e-41 6.5002e-41 1.92705e-40
0003a0 88 e3 00 80 06 86 02 80 b4 0f 02 80 65 f8 01 00
       -8.1623e-41 -2.3175e-40 -1.89304e-40 1.80943e-40
0003b0 91 39 01 00 9f 90 00 00 f7 dc 00 00 85 85 00 00
       1.12486e-40 5.188e-41 7.9267e-41 4.7898e-41
0003c0 c7 56 01 00 e8 47 01 00 96 3d 01 00 cf f2 00 80
       1.22965e-40 1.1763e-40 1.13928e-40 -8.7103e-41
0003d0 76 4c 00 80 89 09 00 80 9a 07 00 00 d4 32 00 80
       -2.7429e-41 -3.42e-42 2.727e-42 -1.8234e-41
0003e0 b0 f6 01 80 0a c6 00 80 70 e5 00 80 1c 71 00 80
       -1.8033e-40 -7.1043e-41 -8.2307e-41 -4.0576e-41
0003f0 df 3d 00 00 aa 0a 01 00 c2 4f 00 00 7e cd 02 00
       2.2195e-41 9.5661e-41 2.8612e-41 2.57388e-40

conv1.lin_l.bias f4 [64]
000000 c9 39 00 80 65 54 01 80 09 66 02 00 28 13 01 00
       -2.073e-41 -1.2211e-40 2.20274e-40 9.8707e-41
000010 69 5c 00 00 6e 0a 02 00 d1 fa 01 80 6a 00 01 00
       3.315e-41 1.87412e-40 -1.81811e-40 9.1984e-41
000020 b4 60 00 80 6e 18 00 00 f8 90 01 00 34 15 01 00
       -3.469e-41 8.764e-42 1.4384e-40 9.9442e-41
000030 f8 e8 00 00 17 e7 00 00 6b a6 00 80 68 a5 00 00
       8.3573e-41 8.29e-41 -5.97e-41 5.9337e-41
000040 a0 7e 00 00 de f4 01 00 71 cb 00 00 a9 3c 01 00
       4.5424e-41 1.79677e-40 7.2981e-41 1.13596e-40
000050 b9 97 02 80 53 51 00 00 dd 0c 01 00 64 ec 02 00
       -2.38099e-40 2.9174e-41 9.645e-41 2.68472e-40
000060 e8 dc 01 80 9b e9 01 00 48 56 01 80 95 17 00 00
       -1.71082e-40 1.75637e-40 -1.22787e-40 8.46e-42
000070 8a ca 02 00 ba ac 01 00 a2 25 00 00 43 44 00 00
       2.56328e-40 1.53798e-40 1.35e-41 2.4488e-41
000080 16 38 01 00 c0 07 00 80 3d 4d 00 00 05 68 00 80
       1.11955e-40 -2.78e-42 2.7708e-41 -3.7315e-41
000090 9c 99 00 80 32 2c 01 80 21 22 00 80 01 d8 00 80
       -5.5105e-41 -1.0769e-40 -1.2243e-41 -7.7488e-41
0000a0 05 b1 00 80 90 6e 00 80 f2 3d 02 00 1b c6 01 00
       -6.3503e-41 -3.9662e-41 2.05893e-40 1.62902e-40
0000b0 b7 07 01 80 ac 52 01 00 82 67 00 80 6e 2d 03 00
       -9.4603e-41 1.21493e-40 -3.7132e-41 2.91804e-40
0000c0 43 6d 00 00 87 ec 02 80 aa 43 00 80 0f 80 00 00
       3.9196e-41 -2.68521e-40 -2.4273e-41 4.5939e-41
0000d0 e6 be 00 00 46 71 01 00 f7 57 00 80 d5 af 00 80
       6.8481e-41 1.3247e-40 -3.1556e-41 -6.3077e-41
0000e0 6f c1 00 00 48 51 01 80 e7 f2 00 00 13 ea 00 00
       6.9391e-41 -1.20994e-40 8.7137e-41 8.397e-41
0000f0 90 1f 03 80 88 94 02 00 a7 d2 00 80 35 da 00 00
       -2.86829e-40 2.36954e-40 -7.5568e-41 7.8278e-41

conv1.lin_r.weight f4 [64, 9]
000000 ae af 00 00 da 23 02 80 8c de 00 00 94 38 f4 2f
       6.3022e-41 -1.96532e-40 7.9835e-41 4.4423543e-10
000010 90 da 00 00 3c 8d 01 80 ef 1d 02 80 58 fe 01 00
       7.8405e-41 -1.42501e-40 -1.94409e-40 1.83077e-40
000020 f0 6f 00 00 5c 5b 00 00 9f 89 01 00 29 9a 02 80
       4.0156e-41 3.2774e-41 1.41205e-40 -2.38973e-40
000030 07 58 00 80 f3 f8 01 80 2d b0 00 80 59 57 01 80
       -3.1578e-41 -1.81142e-40 -6.32e-41 -1.2317e-40
000040 d7 3f 02 00 9c 14 44 b1 09 ea 01 80 41 a3 ba 2d
       2.06572e-40 -2.853347e-09 -1.75791e-40 2.1218251e-11
000050 f7 e5 00 80 73 28 01 80 c6 80 00 00 ee 74 01 00
       -8.2496e-41 -1.06346e-40 4.6195e-41 1.33782e-40
000060 ee 21 0f b6 e2 e3 02 80 3a a5 24 b6 e1 35 00 80
       -2.132841e-06 -2.6542e-40 -2.453408e-06 -1.9328e-41
000070 ba d5 13 b3 4d f9 01 00 de e8 00 00 81 66 00 80
       -3.4420488e-08 1.81268e-40 8.3537e-41 -3.6771e-41
000080 33 75 00 80 d1 4d 1f 32 53 32 00 80 fe 12 dd b9
       -4.2043e-41 9.2727115e-09 -1.8053e-41 -0.00042166555
000090 62 b3 01 00 6d d1 02 00 ab a5 00 00 33 29 02 80
       1.56186e-40 2.58799e-40 5.943e-41 -1.9845e-40
0000a0 df 7c 00 00 66 db 02 80 5c b6 4e b7 75 47 00 80
       4.4795e-41 -2.62376e-40 -1.2321016e-05 -2.5634e-41
0000b0 8c 9c c6 34 aa fa 01 00 8a db 72 b2 25 d5 00 80
       3.6994277e-07 1.81757e-40 -1.4136171e-08 -7.6462e-41
0000c0 c3 e8 00 80 fb 7b 00 80 73 ce 02 00 cb 89 01 00
       -8.3499e-41 -4.4476e-41 2.57731e-40 1.41266e-40
0000d0 a4 0b 00 80 e2 3c 01 80 47 bf 02 80 32 34 e1 a9
       -4.176e-42 -1.13676e-40 -2.52288e-40 -1.0001062e-13
0000e0 d3 d6 00 00 17 83 00 00 25 88 01 00 9b 68 02 80
       7.7064e-41 4.7026e-41 1.40675e-40 -2.21196e-40
0000f0 01 b9 8b b2 4c 96 00 80 99 47 01 80 d1 07 03 80
       -1.626586e-08 -5.3916e-41 -1.1752e-40 -2.7831e-40
000100 92 d1 ce b3 ea b8 01 00 ca 75 35 33 73 6e 00 00
       -9.630743e-08 1.5817e-40 4.2249475e-08 3.9622e-41
000110 be 6b 00 00 14 2e ed b1 af 51 01 00 dc 24 9f 33
       3.865e-41 -6.9028463e-09 1.21138e-40 7.410719e-08
000120 25 7c 02 80 14 24 0b 38 9b 3c 00 00 a0 83 89 b4
       -2.28206e-40 3.3173783e-05 2.1741e-41 -2.5614008e-07
000130 fe 19 01 80 4f 18 00 00 94 27 ea 34 43 f8 02 80
       -1.0116e-40 8.72e-42 4.3614693e-07 -2.7273e-40
000140 c5 7e a4 39 8a 92 02 00 16 b5 02 80 b0 20 00 80
       0.00031374968 2.3624e-40 -2.48632e-40 -1.1726e-41
000150 88 74 02 80 56 d3 01 00 7f 46 02 00 c5 64 49 b6
       -2.25475e-40 1.67649e-40 2.0896e-40 -3.000999e-06
000160 2c bd 02 00 bc 61 16 35 0b ab 00 80 9a b8 02 00
       2.51533e-40 5.6021577e-07 -6.1359e-41 2.49894e-40
000170 a3 ae 00 80 31 63 01 80 3b 65 01 00 b4 f9 01 00
       -6.2648e-41 -1.27419e-40 1.2815e-40 1.81412e-40
000180 49 75 00 00 94 ee 01 00 94 62 0d 35 58 1f 01 00
       4.2074e-41 1.77421e-40 5.2670043e-07 1.0308e-40
000190 fc ba 01 00 ca 26 00 80 a0 ef a5 37 03 0e 01 00
       1.58913e-40 -1.3915e-41 1.9781117e-05 9.6862e-41
0001a0 23 a5 00 80 c1 60 01 80 61 77 01 00 22 d3 97 31
       -5.924e-41 -1.26544e-40 1.3466e-40 4.4186814e-09
0001b0 1a 23 00 00 08 11 4c af ad 73 00 00 54 04 00 80
       1.2592e-41 -1.8559743e-10 4.1497e-41 -1.553e-42
0001c0 12 6e 00 80 8d 94 02 80 be 15 e9 33 49 3c 00 00
       -3.9486e-41 -2.36961e-40 1.0853863e-07 2.1626e-41
0001d0 73 29 2e b8 f7 44 00 00 31 79 02 80 cb 16 01 00
       -4.1523435e-05 2.474e-41 -2.27146e-40 1.00012e-40
0001e0 52 eb 01 80 1b 54 02 80 36 5a 01 00 62 0c 0c 32
       -1.76253e-40 -2.13842e-40 1.24197e-40 8.151888e-09
0001f0 c4 79 00 80 9c f1 d3 34 2e c9 01 00 83 7d 00 80
       -4.3681e-41 3.9477607e-07 1.64005e-40 -4.5025e-41
000200 73 f3 00 00 10 02 00 00 7d e2 01 00 5f c8 00 80
       8.7333e-41 7.4e-43 1.73084e-40 -7.188e-41
000210 80 32 94 ab 91 fe 01 80 c6 26 9a 34 31 bc 00 80
       -1.0530049e-12 -1.83157e-40 2.8712947e-07 -6.751e-41
000220 54 d2 18 33 e6 a5 00 80 2c 3f 00 00 19 6f 00 00
       3.558155e-08 -5.9513e-41 2.2662e-41 3.9854e-41
000230 2f 73 01 80 af 3b 01 00 36 d9 01 00 02 b9 38 39
       -1.33156e-40 1.13246e-40 1.69756e-40 0.00017616528
000240 61 fc 00 00 e5 20 02 80 ce e6 00 00 7d 33 02 00
       9.0536e-41 -1.95471e-40 8.2797e-41 2.02142e-40
000250 11 e2 00 00 8a 46 01 80 00 23 00 00 d9 fb 00 00
       8.1097e-41 -1.1714e-40 1.2556e-41 9.0346e-41
000260 2c 85 16 b6 2f d8 01 80 b0 a2 2c 2a cb 1b 00 00
       -2.2429258e-06 -1.69388e-40 1.5333112e-13 9.97e-42
000270 00 51 c6 ac cf ff 00 80 91 ac 01 80 d5 2e 00 80
       -5.6364913e-12 -9.1767e-41 -1.5374e-40 -1.68e-41
000280 fa 9c 00 00 6c da c7 b8 36 a8 01 00 95 d2 02 00
       5.6313e-41 -9.529744e-05 1.52178e-40 2.59214e-40
000290 aa 92 00 00 d0 57 01 80 d4 b3 01 00 7e 91 00 80
       5.2613e-41 -1.23337e-40 1.56346e-40 -5.2193e-41
0002a0 08 98 24 b9 85 0a 01 80 a0 a6 c1 31 09 5e 01 00
       -0.00015696895 -9.5609e-41 5.6359823e-09 1.25569e-40
0002b0 d4 c4 5a ae 7d 08 00 80 56 6d 02 80 fd 11 01 00
       -4.974228e-11 -3.045e-42 -2.22893e-40 9.8288e-41
0002c0 46 5c 00 80 ac db 9f 31 18 2c 01 80 9c 0a 6d af
       -3.3101e-41 4.652483e-09 -1.07653e-40 -2.1558794e-10
0002d0 91 12 00 80 bd b4 4b 2c 5d 50 00 00 d0 e0 57 ad
       -6.66e-42 2.8948365e-12 2.8829e-41 -1.22712535e-11
0002e0 eb c9 00 00 27 37 00 80 1e b6 9d ac 17 c1 01 00
       7.2435e-41 -1.9785e-41 -4.4824275e-12 1.61103e-40
0002f0 40 3b 34 af a6 47 00 00 42 5a 48 35 79 ba 01 00
       -1.6391954e-10 2.5703e-41 7.463715e-07 1.58729e-40
000300 2d 8e 23 b8 bc 3c 01 00 32 1f 00 80 de ea 3b 35
       -3.899464e-05 1.13623e-40 -1.1191e-41 7.0004705e-07
000310 a9 cc de 33 20 04 09 37 76 3b 00 00 4e b8 02 80
       1.0374908e-07 8.166797e-06 2.133e-41 -2.49787e-40
000320 3a e4 00 00 94 f9 00 80 aa 50 01 80 df 8b 01 00
       8.1872e-41 -8.9532e-41 -1.20772e-40 1.42012e-40
000330 40 1d 34 b7 b6 3a 01 00 9c a2 c5 33 29 38 01 80
       -1.0735646e-05 1.12897e-40 9.203106e-08 -1.11982e-40
000340 9f b7 5c ad 96 3f 02 00 c5 f4 01 80 de 0e 03 00
       -1.2546324e-11 2.06481e-40 -1.79642e-40 2.8084e-40
000350 c1 9e 00 80 5e 25 58 b2 f4 65 02 00 8c 00 02 36
       -5.695e-41 -1.2581351e-08 2.20245e-40 1.9371828e-06
000360 8f 43 00 00 d2 4f 48 37 e5 cd 01 80 82 fe 02 00
       2.4235e-41 1.1939514e-05 -1.65697e-40 2.74971e-40
000370 2d 71 02 80 78 45 00 00 0e 01 e9 30 8c 33 02 80
       -2.24271e-40 2.492e-41 1.6953281e-09 -2.02163e-40
000380 a3 f1 11 ad 15 3a 00 00 74 b4 02 00 22 48 00 00
       -8.29595e-12 2.0836e-41 2.48405e-40 2.5876e-41
000390 df 33 0d b3 9e 97 01 00 7c ae 01 80 ed 15 8b ba
       -3.2876297e-08 1.46225e-40 -1.54429e-40 -0.0010611393
0003a0 f5 9d 02 80 67 ba c4 31 7a 28 02 80 04 84 01 80
       -2.40335e-40 5.7255423e-09 -1.98191e-40 -1.39194e-40
0003b0 56 e7 00 80 b4 15 02 00 f0 2d 01 00 1b b9 01 00
       -8.2988e-41 1.91457e-40 1.08315e-40 1.58239e-40
0003c0 b6 b1 cb ad 9e 9a 02 80 0e 92 08 b5 f8 3b 00 00
       -2.3157348e-11 -2.39137e-40 -5.0876486e-07 2.1513e-41
0003d0 49 e9 00 00 23 31 02 80 58 ec 02 00 9f e5 01 00
       8.3687e-41 -2.01298e-40 2.68455e-40 1.74208e-40
0003e0 ae 83 02 00 d0 66 8e b4 4d 50 02 80 3a c2 16 2d
       2.30909e-40 -2.6524367e-07 -2.12477e-40 8.56964e-12
0003f0 5c 4d 00 00 11 d1 00 00 96 99 02 80 95 57 00 00
       2.7751e-41 7.4999e-41 -2.38767e-40 3.1419e-41

conv1.lin_r.bias f4 [64]
000000 4d 29 01 00 af a3 02 00 71 61 00 80 8b ae 00 00
       1.06651e-40 2.4239e-40 -3.4955e-41 6.2614e-41
000010 27 ac 01 80 e1 3f 02 00 f8 9b 00 00 be 72 00 00
       -1.53592e-40 2.06586e-40 5.5951e-41 4.1162e-41
000020 21 19 00 00 e2 10 00 80 5f fd 00 80 98 10 03 00
       9.015e-42 -6.056e-42 -9.0892e-41 2.81459e-40
000030 7a c0 00 80 ca 9c 01 80 28 27 01 00 c6 99 01 80
       -6.9048e-41 -1.48081e-40 1.05882e-40 -1.46999e-40
000040 fa bc 02 80 51 88 01 00 cb 0b 01 00 0c 0e 01 80
       -2.51463e-40 1.40737e-40 9.6066e-41 -9.6875e-41
000050 8b 14 01 80 11 aa 00 00 3e b0 02 00 12 26 00 00
       -9.9205e-41 6.1008e-41 2.46895e-40 1.3657e-41
000060 dc a6 00 80 71 89 01 00 dd c2 02 80 01 ca 01 80
       -5.9858e-41 1.4114e-40 -2.53575e-40 -1.64301e-40
000070 1e b1 00 00 74 c0 02 80 83 ae 00 00 3f 02 52 af
       6.3538e-41 -2.5271e-40 6.2603e-41 -1.9100187e-10
000080 c7 15 00 00 ed 00 00 00 44 96 ac 2b 6e 2e 01 00
       7.812e-42 3.32e-43 1.2263042e-12 1.08491e-40
000090 77 88 00 80 01 f2 00 80 5d b1 00 80 49 93 00 80
       -4.8954e-41 -8.6815e-41 -6.3626e-41 -5.2836e-41
0000a0 42 f3 00 80 16 1f 03 80 24 74 01 80 0d 46 d9 2b
       -8.7264e-41 -2.86658e-40 -1.33499e-40 1.543822e-12
0000b0 8c a0 01 00 96 a9 00 00 5a 94 01 00 2b 92 01 00
       1.49429e-40 6.0836e-41 1.45054e-40 1.4427e-40
0000c0 1b 77 00 80 ad 4c 00 00 58 c5 01 00 f9 2f 02 80
       -4.2727e-41 2.7506e-41 1.62629e-40 -2.0088e-40
0000d0 29 e2 01 00 07 f3 02 80 f3 10 03 80 01 d7 01 00
       1.72966e-40 -2.70853e-40 -2.81587e-40 1.68964e-40
0000e0 3e 70 aa 35 25 e5 a4 ab 1a de 00 00 a1 43 00 80
       1.2698654e-06 -1.1716501e-12 7.9675e-41 -2.426e-41
0000f0 8f ee 00 80 06 a0 02 80 ba 0d 02 00 ba 9d 00 80
       -8.5579e-41 -2.41077e-40 1.88595e-40 -5.6582e-41

conv2.lin_l.weight f4 [1, 64]
000000 22 00 00 80 7f cc 02 00 97 ee 02 80 24 00 00 80
       -4.8e-44 2.5703e-40 -2.69261e-40 -5e-44
000010 19 00 00 80 04 00 00 80 0a 00 00 80 20 00 00 80
       -3.5e-44 -6e-45 -1.4e-44 -4.5e-44
000020 eb 29 00 80 7e 00 00 80 11 00 00 00 16 00 00 80
       -1.5037e-41 -1.77e-43 2.4e-44 -3.1e-44
000030 41 00 00 00 0b 00 00 00 6c 00 00 00 e7 ee 02 00
       9.1e-44 1.5e-44 1.51e-43 2.69373e-40
000040 5a 00 00 80 25 00 00 00 0b ef 02 00 bb 2d 01 00
       -1.26e-43 5.2e-44 2.69423e-40 1.0824e-40
000050 5a 00 00 80 57 00 00 80 6b a6 02 80 e3 ef 02 00
       -1.26e-43 -1.22e-43 -2.4337e-40 2.69726e-40
000060 a7 0d 00 80 69 00 00 00 bc 8a 02 00 b4 00 00 00
       -4.898e-42 1.47e-43 2.3344e-40 2.52e-43
000070 1a 11 00 80 4f 00 00 80 ad 00 00 00 06 00 00 80
       -6.135e-42 -1.11e-43 2.42e-43 -8e-45
000080 0f 00 00 80 2d 00 00 80 42 00 00 00 06 00 00 00
       -2.1e-44 -6.3e-44 9.2e-44 8e-45
000090 59 00 00 80 35 00 00 80 4c 00 00 00 4a 00 00 00
       -1.25e-43 -7.4e-44 1.06e-43 1.04e-43
0000a0 2e 00 00 80 1a 00 00 80 02 00 00 00 0b 00 00 00
       -6.4e-44 -3.6e-44 3e-45 1.5e-44
0000b0 00 00 00 00 4c 00 00 00 42 00 00 80 49 0c 00 00
       0.0 1.06e-43 -9.2e-44 4.407e-42
0000c0 0b 00 00 80 ec b7 02 80 16 00 00 00 2d 00 00 00
       -1.5e-44 -2.4965e-40 3.1e-44 6.3e-44
0000d0 0e 00 00 00 19 00 00 00 13 00 00 80 15 00 00 80
       2e-44 3.5e-44 -2.7e-44 -3e-44
0000e0 91 00 00 00 1b 00 00 00 0f 00 00 80 08 00 00 00
       2.03e-43 3.8e-44 -2.1e-44 1.1e-44
0000f0 8d 08 00 80 79 f0 02 80 36 00 00 80 0f 00 00 00
       -3.067e-42 -2.69936e-40 -7.6e-44 2.1e-44

conv2.lin_r.weight f4 [1, 64]
000000 7e 05 00 80 05 7a 00 80 cf bc 00 80 4a c4 00 00
       -1.97e-42 -4.3772e-41 -6.7732e-41 7.0415e-41
000010 9b e3 01 00 0c 0d 01 00 1d 1c 02 80 c7 e0 00 80
       1.73485e-40 9.6516e-41 -1.93756e-40 -8.0635e-41
000020 f4 c4 02 00 96 9f 01 00 52 8b 00 00 0d 35 00 80
       2.54324e-40 1.49084e-40 4.9979e-41 -1.9031e-41
000030 2e 32 01 00 36 c6 00 00 8e 00 00 00 8c a2 00 80
       1.09837e-40 7.1105e-41 1.99e-43 -5.8311e-41
000040 71 4d 00 80 89 3e 01 80 b5 9a 00 80 44 6a 00 00
       -2.7781e-41 -1.14269e-40 -5.5498e-41 3.8121e-41
000050 3a 1b 00 80 71 af 00 00 ce fa 01 00 10 05 00 80
       -9.767e-42 6.2937e-41 1.81807e-40 -1.816e-42
000060 c0 6c 00 80 84 a2 00 80 d8 51 00 80 db c5 00 80
       -3.9012e-41 -5.83e-41 -2.936e-41 -7.0977e-41
000070 b7 bf 00 80 9c 61 00 80 09 a2 00 80 d9 e5 00 00
       -6.8774e-41 -3.5016e-41 -5.8127e-41 8.2454e-41
000080 ed 6f 02 00 eb 77 01 00 c2 35 00 00 53 3d 01 00
       2.23822e-40 1.34854e-40 1.9285e-41 1.13834e-40
000090 97 1b 02 00 a0 b8 00 80 d1 d0 00 80 9a 43 00 00
       1.93568e-40 -6.6231e-41 -7.4909e-41 2.4251e-41
0000a0 28 ee 02 00 ff 42 01 00 33 9e 00 00 82 5c 00 80
       2.69105e-40 1.15869e-40 5.6751e-41 -3.3186e-41
0000b0 69 cc 01 00 fb 7a 00 80 63 1d 00 80 ef 28 00 00
       1.65164e-40 -4.4117e-41 -1.0542e-41 1.4684e-41
0000c0 b8 17 01 80 e7 ce 00 80 83 7e 00 00 0d 65 00 00
       -1.00344e-40 -7.4223e-41 4.5384e-41 3.625e-41
0000d0 ec 06 02 00 e7 17 01 00 55 25 01 80 48 58 01 80
       1.86154e-40 1.0041e-40 -1.05228e-40 -1.23505e-40
0000e0 29 d0 00 80 77 ce 02 00 62 30 01 80 c9 cd 00 00
       -7.4674e-41 2.57737e-40 -1.09192e-40 7.3822e-41
0000f0 da d7 00 80 ad 83 00 80 d8 1e 01 00 30 77 01 00
       -7.7433e-41 -4.7236e-41 1.029e-40 1.34592e-40
