gatv2_fold_2.pt (torch, 10562 bytes, 8 tensors)

conv1.att f4 [1, 8, 8]
00000000: 5126 763d aece db3d ff11 813e d51b fd3e
00000010: 6150 293e 63ef ba3d f235 d83e d097 ae3d
00000020: 105d 92bd 934d 3f3e 26a6 243e 9d80 a23e
00000030: 3f87 4c3d 22d1 9abc e65a 2f3e 579c 583e
00000040: 8aad 853e 90f7 1c3e 4571 7d3e fab3 343e
00000050: ed74 823e 4f28 ac3c fb37 723e b196 3bbe
00000060: 9d73 2b3e a3c9 d53e b7cd 143e ceb3 243e
00000070: a4c2 36bd cd81 2d3e 7121 873e bd31 f9bb
00000080: e5d3 f63e 2885 703d c667 153b 5622 cdbd
00000090: 6b75 243e ad49 153e ebea c93e c408 c4bb
000000a0: c7b6 e43e 044f d7bd 132e bc3e af00 9d3e
000000b0: 64df 873e 68fd a7bd 9c6a e03e 5356 febd
000000c0: dc8d 473e 6a70 0d3e 7037 12be 1f02 0fbd
000000d0: b770 9e3e 6f27 7b3a af8d f43e 3f9f 633e
000000e0: 8dae 703e 53cb 06be 27ee 0c3e 6184 873e
000000f0: 8e4f 123f 0f78 8d3e 09c6 4b3e a7b6 4a3e
0.060095135 0.107327804 0.25209042 0.49435297 0.16534568 0.09127691 0.42228657 0.0852505
-0.071466565 0.18681936 0.16079006 0.3173875 0.04993367 -0.01889855 0.17124519 0.21153389
0.26108962 0.15328813 0.2475024 0.1764678 0.25479832 0.021015314 0.23654167 -0.18319203
0.16743322 0.417554 0.14531599 0.16084215 -0.044619218 0.16944046 0.263927 -0.007604806
0.48208538 0.058720738 0.002279745 -0.10016315 0.16060416 0.14578886 0.3943704 -0.0059824903
0.44670698 -0.10513118 0.36753902 0.30664584 0.2653762 -0.0820263 0.43831336 -0.12418809
0.19487709 0.13812414 -0.1427896 -0.034914132 0.3094537 0.0009580766 0.47764346 0.22228716
0.23504086 -0.131635 0.13762723 0.26468185 0.5715264 0.2763066 0.19899763 0.19796239

conv1.bias f4 [64]
00000000: 0db8 193d 9d48 c8bd bad1 dfbc d23b 14bd
00000010: e436 92bc 0b70 f4bc db6e a63d 5707 52bd
00000020: ed86 6e3d ba02 3e3c e8aa 94bc cab7 a7bc
00000030: c34b 293c 36ff a1bd aa80 a5bc bc95 423a
00000040: a3d6 01be aa05 b4bd ce3a bbbb 34c3 35bc
00000050: c375 f43c fa7b 3ebd 4d37 753c 9f81 29bd
00000060: a640 0f3d 3804 cabc 9dbc 823d 3ea4 01bd
00000070: a07a 023d df13 13bd fe94 ab3d d228 92bd
00000080: 2125 89bc 4d35 513b 22be c63c e4b3 f3bd
00000090: 7640 083d 3bbd a93c 163c 7dbd d1d0 ea3a
000000a0: 1f42 813e 3b69 02be e1ed ce3d 38b6 3cbe
000000b0: 1205 483e 8817 09be 09a2 ff3c 5c6f e0bd
000000c0: 4acb e03b 6c4d 18bb 249f d4b9 eead 0cbd
000000d0: 0242 353c 4ec5 74bb b2a7 0fbd 651a 093a
000000e0: 20b8 cb3d 538c d9bc 57c8 e2bd 05fb 113e
000000f0: 9d5b 093e dff9 9c3d e94f 803e bcd0 073c
0.03752904 -0.09779475 -0.027321685 -0.03618986 -0.01784844 -0.029838583 0.08126613 -0.05127653
0.058234144 0.01159733 -0.0181479 -0.02047338 0.010333004 -0.07910006 -0.020202953 0.0007422825
-0.12679534 -0.08790143 -0.005713797 -0.011093903 0.02984131 -0.046504952 0.014966798 -0.041383382
0.034973763 -0.024660215 0.063836314 -0.031650774 0.031855226 -0.035907622 0.083780274 -0.07136692
-0.016741337 0.003192264 0.024260584 -0.11899546 0.0332646 0.020720115 -0.06182488 0.0017915015
0.2524576 -0.12735455 0.101039656 -0.18428886 0.19533184 -0.13387883 0.031205194 -0.1095874
0.0068601714 -0.0023239506 -0.0004055436 -0.03434556 0.011063101 -0.0037349048 -0.035072036 0.00052300683
0.099472284 -0.02655617 -0.11073368 0.14255913 0.13413854 0.07664847 0.25060967 0.008289512

conv1.lin_l.weight f4 [64, 9]
00000000: f314 773c c4cb 82bc 2b1a f0bd d6c9 1c3a
00000010: c12a e6bd 863f 84bd 8807 d2bb 1669 97bb
00000020: a18e 14bb 0d47 49bc 5515 563c 2982 1cbe
00000030: a7e9 d639 c51b 18be a980 963c e9bb 9abb
00000040: 5a4a 1fbd c1fa 7dbb 2955 43bd eb04 adbc
00000050: c785 1abe d7ac 173c c996 19be 7e21 e6bd
00000060: cda6 29bc ba7e 16bd 70a8 4ab9 2510 543d
00000070: 1c40 413c 851d 50be 3aeb 9dbc 3c4f 35be
00000080: 35ca 20be 1223 03bb 4358 d2bd 7cd6 12bb
00000090: a48d c53b ef73 bd3c cb10 1abe 69c7 013d
000000a0: 1b83 f1bd e3ee 34be bc8c ed3b 4beb 7e3b
000000b0: 73ae dfb9 fdbb 0a3c 0e3f 903c a773 1dbe
000000c0: fe9a ed3c 1e24 b8bd b1a3 33bd 568e a63b
000000d0: 907b 56bd 00b0 4038 aea7 dabc dbf9 8e3c
000000e0: 11b8 8cbe 4324 b23c 2340 41be 0b18 d2bd
000000f0: 3f1e a03b d32a 76bd 7628 57bb cb1c a63c
00000100: 17c3 0dbd 01a0 54bd aa54 cd3c 72ac 13bd
00000110: da1b d3bc 04de f039 058a 16bd 2e0f 82bb
00000120: 5695 1f3d 23d2 9e3a a355 05be 4b3f fa3c
00000130: e230 ecbd 7fae 16bd 68bc 593c 2e6c 0f3d
00000140: 74d5 fdb9 1de8 08bd 15fe b8bc d2f3 12be
00000150: 455c 153c f094 18be 2812 17be 6e5b 1dbb
00000160: f5b3 08bd 2bbb 21bb a0f7 863b 6421 263a
00000170: c81b c5bd c491 563a 43a8 e1bd 9355 02bd
00000180: 8180 0f3c fcf8 afbc aae0 2639 f257 41bc
00000190: 039d 3c3b e366 21be ca5c 77bc 72a1 24be
000001a0: af19 04be 6205 493c fad4 cebd 673a ac3a
000001b0: 7cc9 153d ee32 b2bb 53f5 1abe 53fd 483c
000001c0: cfcb d2bd 7132 a2bd 046c 12bd 6cb2 c03c
000001d0: af5b b13b 9ad9 7abc 31f0 c13a 0873 46be
000001e0: 4205 1abc 3102 29be d1ae 9dbd bc81 58bb
000001f0: 4739 0b3d a8f4 963a 2c72 14bd 09c8 06bc
00000200: 41e3 abbd 02d1 aabb fd8a bebd 180d 94bd
00000210: c81b c73b 5bcd 1ebc 3636 213a 42f7 37bd
00000220: 74bf 62bb f0f2 cabd 55d2 833d c41e cebd
00000230: f88e d3b9 5ed9 e43b 4e5e 1cbd cc7e 3aba
00000240: 52e7 5a3c 4eb8 713c 6b4f 2dbe 7e38 0a3d
00000250: 1532 e6bc 53f2 3bba 125c 1abc d995 303d
00000260: a0e9 78bb 4de6 4e3b 993b a8ba 99e3 18be
00000270: 575b 70bc 45af 19be c761 50bd 61fa afba
00000280: 5470 3cbd b0be 48ba e96a debb ec2a 1c3c
00000290: cc4f 1fbe 6389 0fbc 220a 16be 5670 51bd
000002a0: b491 283b 8e01 1fbd cb9a 5fbb fcdf 993b
000002b0: 230f b6bb 9a83 0dbe 1544 93bb 3cfb 0ebe
000002c0: a701 aebd c3d1 623b 30b9 89bc e64a ecb9
000002d0: 8910 efbc c8e0 0fbc ea3b 19be ebbc 11bb
000002e0: 9f4e ddbd 2035 ea38 22c1 8abb 0e4b db3b
000002f0: f597 283b 34dc 3abd d0a4 abbb 6633 18be
00000300: 85e3 bfbb e309 07be 7093 51bd 75e9 a6bb
00000310: a1ea e83c 36f4 083c bcac 1b3c e49b 24bc
00000320: d1c1 fbbd dbd1 1bbd d0b1 cbbd 4255 45bd
00000330: 6cc6 54bb ca65 9bbc 84c8 b639 d3f7 8fba
00000340: 2524 6b3c 7af8 26be 08f9 44b9 ea77 2dbe
00000350: e743 10be 0c36 be3b 53a1 afbd 8a94 fcb9
00000360: 2462 cdbb 2935 80bb 9910 f3bd 42d5 413c
00000370: 7530 9dbd 17e1 e13b b80f cdba 44fb 2d3d
00000380: 524c a7b9 8037 cf3b ca68 89bd 9a80 8ebe
00000390: 5de6 7dbc afd4 84be 60fd e4bd dabb c0bb
000003a0: 1b92 c9bc 582b 70ba 6826 7d3b 8084 cfbb
000003b0: c93c 15be 2ad0 eb3b a85e 08be 54e4 92bd
000003c0: 835b ddbb 2f0a 093d ac20 fdba a17d 95bc
000003d0: 5fb5 f23b 36bf 10be c727 f63c 11f5 14be
000003e0: aa19 dabd 1a12 003c c4e1 93bd 6e1f 3dbb
000003f0: c1da 91bd 2ba1 e7bc e32b 02be 61d4 173d
0.015080678 -0.015966304 -0.11723741 0.00059810036 -0.112386234 -0.06457429 -0.006409589 -0.0046206815
-0.0022668021 -0.012285006 0.013066609 -0.15284027 0.00040991345 -0.14854343 0.018371897 -0.0047221077
-0.038889267 -0.0038754197 -0.047688637 -0.02112051 -0.15090095 0.009257517 -0.14998926 -0.11236857
-0.01035471 -0.03674195 -0.00019326969 0.05177321 0.01179507 -0.20323761 -0.019277204 -0.17706007
-0.15702136 -0.0020009917 -0.10270741 -0.0022405675 0.006028848 0.02312657 -0.15045469 0.031684313
-0.117925845 -0.17669253 0.007249443 0.003889757 -0.0004266385 0.008467671 0.017608192 -0.15376149
0.02900457 -0.08991264 -0.04385728 0.0050828857 -0.052363932 4.594028e-05 -0.026691284 0.017453125
-0.27484182 0.021745807 -0.18872122 -0.10258492 0.004886418 -0.060099434 -0.0032830513 0.020277401
-0.03460988 -0.051910404 0.025064785 -0.03605313 -0.025770117 0.00045941782 -0.03675272 -0.0039690947
0.038960777 0.0012117069 -0.13020949 0.030547759 -0.11532761 -0.036787506 0.013289548 0.035015278
-0.00048414955 -0.033424485 -0.022582093 -0.14350823 0.009116237 -0.14900565 -0.1475302 -0.0024010795
-0.033374745 -0.0024678211 0.0041188747 0.0006337373 -0.096244395 0.0008185173 -0.110184215 -0.03181989
0.008758665 -0.02148103 0.00015914688 -0.011800753 0.002878011 -0.15761904 -0.015097806 -0.16077211
-0.12900423 0.01226935 -0.10099216 0.0013139964 0.036569104 -0.0054382 -0.15132646 0.012267428
-0.1029278 -0.07919777 -0.035747543 0.023522578 0.005412541 -0.015310669 0.0014796314 -0.19379818
-0.009400668 -0.16504742 -0.07699359 -0.0033036312 0.03399017 0.0011517005 -0.036241695 -0.008226403
-0.083929546 -0.005212904 -0.09303854 -0.0722906 0.00607631 -0.009692515 0.00061497407 -0.044913538
-0.0034598978 -0.09909618 0.06436602 -0.10064462 -0.00040351576 0.00698392 -0.038175873 -0.0007114231
0.013360815 0.014753414 -0.16924827 0.03374528 -0.028100053 -0.0007169593 -0.009421365 0.043111656
-0.0037981048 0.0031570375 -0.0012835144 -0.14930572 -0.014670215 -0.15008266 -0.050874498 -0.0013426059
-0.046005562 -0.0007657809 -0.006787647 0.009531718 -0.15557784 -0.008760783 -0.14652303 -0.051132523
0.0025721611 -0.038819842 -0.0034119363 0.0046958905 -0.0055560037 -0.13819733 -0.0044942 -0.13963026
-0.08496409 0.003460989 -0.016811937 -0.0004506923 -0.02918269 -0.008781619 -0.14964262 -0.0022237848
-0.108060114 0.00011167885 -0.004234449 0.006692297 0.002572534 -0.04562016 -0.005238153 -0.14863357
-0.00585598 -0.13187365 -0.051165998 -0.005093748 0.028432192 0.008359006 0.009501632 -0.010046933
-0.12292827 -0.03804193 -0.099460244 -0.04817701 -0.0032466901 -0.018969435 0.0003486314 -0.0010983892
0.014351879 -0.16305724 -0.00018784788 -0.16940275 -0.14088403 0.0058047827 -0.08575692 -0.00048175856
-0.006267803 -0.003912587 -0.118684 0.01183063 -0.07675258 0.006893288 -0.0015644943 0.042475954
-0.00031909585 0.006323755 -0.0670944 -0.2783249 -0.015496817 -0.25943515 -0.1118114 -0.0058817687
-0.024605801 -0.0009161732 0.0038627628 -0.006332934 -0.14573969 0.007196446 -0.13317358 -0.071724564
-0.006755294 0.033456977 -0.0019312105 -0.018248381 0.007406875 -0.14135441 0.030048264 -0.1454661
-0.10649426 0.007816816 -0.07220796 -0.0028857845 -0.07121802 -0.028275093 -0.12712054 0.037067775

conv1.lin_l.bias f4 [64]
00000000: 5909 cf3c 0ab9 59bd adda 61bd 20aa 6abc
00000010: ddd2 52bd a0ef 9cbc f0ba 053d 6b7b 3ebd
00000020: a838 2f3d 2a6b c4bb b799 50bc b7cd 76bd
00000030: 8d68 85bc 5c95 233d 6b1a f83b 3e72 d5bc
00000040: 3d2e 3ebd cc8f 5abc c4da dc39 8919 28bc
00000050: 93f3 0a3d b700 fcbc 8f3c 2cbc 945c 91bd
00000060: 5224 1abb 3782 44bd c2ac 653c 8763 d93c
00000070: b238 033d a3c8 d3bc 1264 48bc 45ff 53bd
00000080: 8b86 15bd ba93 a1bc 1302 623b e271 d2bd
00000090: e6e7 f13b 15a4 203c f4c9 56bd e7fb 133c
000000a0: 7a0d 813c 6c78 793c fceb 0a3d 1269 09bd
000000b0: 09d8 673d 1860 09bd 7985 25bc 6fbe 0c3c
000000c0: b433 0fbd 99dd 65bd 9d97 123c 5bd9 ebbd
000000d0: 0635 a4bb 5a54 8d3c 2439 cabc a61a 173c
000000e0: 44dc a93c 45ae 803c 94de 28bd 9884 4dbb
000000f0: 1358 2e3d d7e4 3e3c 4ed2 9a3d 2a83 703d
0.025273012 -0.053154983 -0.055140186 -0.0143227875 -0.051470626 -0.01915723 0.03264898 -0.04650442
0.04277864 -0.0059942203 -0.012731961 -0.06025478 -0.016285205 0.039937362 0.0075715086 -0.026055451
-0.046430815 -0.013339948 0.00042124663 -0.010259994 0.033923697 -0.03076206 -0.010512485 -0.07097736
-0.0023520184 -0.047975745 0.014018239 0.026536716 0.03203649 -0.025852507 -0.01223089 -0.051757116
-0.036505263 -0.019723762 0.00344861 -0.10275628 0.007382381 0.009804745 -0.05243869 0.009032226
0.015753496 0.015226465 0.03391646 -0.03354747 0.05660251 -0.033538908 -0.010102623 0.008590325
-0.034961417 -0.056119535 0.00894728 -0.11516067 -0.0050112037 0.017252136 -0.02468545 0.009222662
0.020734914 0.015708098 -0.041227892 -0.003135955 0.042564463 0.011651239 0.07559644 0.058718838

conv1.lin_r.weight f4 [64, 9]
00000000: a6b0 9f39 764f 11b9 468f acbb 18a8 8eb8
00000010: ede2 6f3b ad8e d33b db3b 1dba 4696 f83a
00000020: f352 f239 ce0d 793b 34dc d6b9 fd30 0d3c
00000030: 891e 02bb 6a38 0f3c 5e36 09bb d976 0b3a
00000040: a613 f7ba 86d2 a0b9 a959 36bb 4646 83bb
00000050: e884 4bbb 6d63 763b 4871 d63b 4406 903b
00000060: a0c5 773a a0f3 fcb9 b677 a5b8 5f7c 33bb
00000070: 70a2 63bb 426e 753d e5b2 553b 81bd 303c
00000080: 5020 dc3b 8874 2ab9 9e5c 283c beee b0ba
00000090: ef94 1b3b 72e7 d9ba ea1c f83c 0238 18bb
000000a0: 7465 2d3c 4894 393b 007d ff36 5b08 413b
000000b0: 50e4 b0b9 676f b53a 8600 663a ca5e 39bc
000000c0: 5291 adba 7891 6fb8 62bf f2bb c14e 21b9
000000d0: de31 f6ba 5ddf 15b9 00fc 94b7 3cac 26bb
000000e0: 0d3d 583c 5a2b b7bb be3c ca3b 90fc 6dbc
000000f0: e09b 65b9 f1a2 0d3c c02b 4f3a 3646 d83a
00000100: 42fd 743a 5d63 98ba f371 a5ba f036 afb8
00000110: aaac 393c ba68 43ba 6e3b 7f3b f4a7 a3b9
00000120: 0c5e 62ba 300a 23ba e8ef b6bd 5932 2cba
00000130: 17b1 46bd 69ab 7abb d628 5d39 27fc eeba
00000140: 85c1 ef39 f0ff d33b da35 a9ba 8e7f a4bc
00000150: fc35 0bbb db8e 443c 22ff 5dbb 921b 493a
00000160: a0b4 9d38 1345 413a dcad 93bb 793f f9b9
00000170: 2292 cfbc fdfd 3d3b ec5c 88bc c646 0a3c
00000180: b8e8 01b9 5853 b3bb 2588 ccb8 1e48 97bc
00000190: 480f 10b8 56f9 bc3d 4807 8f3b 95f5 953d
000001a0: 9246 98bc ed0b da39 7ab5 063c a5d8 8a39
000001b0: 5049 ccb9 8f36 ccba 2852 633c 21e7 213b
000001c0: 68bf 103c 80eb 09b9 7240 4d3a 346a 9fb9
000001d0: 1642 29ba 7274 573b 8b65 c93a 342b 21bb
000001e0: 4531 cfb9 66a1 57b9 4601 8539 7660 52b9
000001f0: c40e 28ba 4e53 2a39 73f6 a93b aeae 30ba
00000200: 9fef a33b b63c 78ba 5817 583c 9553 1a3c
00000210: 8ed7 013a aecb 9a3b 766a 76ba 72b3 ebbb
00000220: d9b1 5f3a 299d b13c 48fa 7439 5523 0c3c
00000230: c4dc b9bb 4be1 083a 8a01 553b 0feb b439
00000240: 4abb 5d3b a0c5 a3b7 40b2 213b 3e38 01bb
00000250: 7190 45bc eacc 463a 22af 5f39 1353 a13b
00000260: de34 0239 f4ca 7c3b 8ee9 633a b40d 89bc
00000270: ee31 10bb 2d8a 89bc 0153 89bb a416 9a38
00000280: 7ee4 bdba 8b61 b5b9 1212 7cbb e7d5 c6ba
00000290: 10b7 143e 26a7 793b 44a4 143e 1858 28bc
000002a0: 6fdc 20b9 f6c6 b739 0816 b3b9 3bbc e03b
000002b0: 84ac 41b9 3872 dcbc 182b 853a 3c79 9c3c
000002c0: 5c6e 9e3b 4a60 6eb9 e244 203b 1089 a339
000002d0: e9e7 0dbb e6a8 16ba 2b00 3c3e dc66 88b9
000002e0: 5f89 0c3e 914f 91bc cede d23a ee58 1d3b
000002f0: 1dac 8a39 10b0 00ba c8fa 353a 8c4e e13b
00000300: 6759 54b9 0b20 8d3b 2a91 463b 9a72 b738
00000310: 965f 8eb9 b1fa a5b8 2d7f 943b f211 72ba
00000320: 6f6b e03d 9ae5 04b9 6bcb c23d 078d 91bb
00000330: ad86 abba dab8 623b 4796 b139 1913 31bb
00000340: c055 6e38 2ae6 debb dcf2 5fb9 361f c039
00000350: 4909 013b a19f ecb9 8366 87ba 7e3b 42b9
00000360: 4b0b c4bb 5a0e e1ba f37d a9bd 83b7 e7ba
00000370: 5c45 06bc 4edd a8bb 5a47 19ba 9c0a e1b9
00000380: f047 8bb9 c69b 6cbb 10c7 34ba 8faf b63d
00000390: c493 553b 17dd 633e 61c8 c83b fc4c 9839
000003a0: ee81 dd3a 0728 9fb9 5697 9fbb 7a3e 8b3a
000003b0: 7fba e9bd f64a 843a 71cb c4bc 9c3e 11b8
000003c0: 0e4c 4e3a 9684 323a 904d e1b7 b8b0 d13b
000003d0: 83c1 683a 84a9 3a3d 04ab a0ba 5e80 b03b
000003e0: d2d9 943b 60cb bcb8 2abb 94bb 6f6a a6b9
000003f0: b47f eb3a 82d9 e339 8e18 293d adcd 39ba
0.00030458457 -0.00013857879 -0.005266103 -6.8023975e-05 0.0036603764 0.0064562173 -0.0005997994 0.0018965683
0.0004621964 0.0038002613 -0.00040981325 0.008617637 -0.0019854626 0.0087414775 -0.0020936946 0.0005320139
-0.001885046 -0.0003067443 -0.0027824438 -0.00400618 -0.003105456 0.0037595883 0.006544266 0.004395278
0.00094517507 -0.000482467 -7.890111e-05 -0.0027387363 -0.0034734271 0.059919603 0.003260785 0.010787369
0.006717719 -0.00016255875 0.010275988 -0.0013498885 0.0023739894 -0.0016624762 0.030287225 -0.0023226743
0.01058327 0.0028317142 7.614144e-06 0.0029454443 -0.00033739442 0.0013842405 0.0008773882 -0.011314103
-0.0013242161 -5.711752e-05 -0.0074080685 -0.00015383495 -0.0018783172 -0.00014292957 -1.7760321e-05 -0.002543225
0.013198149 -0.0055898847 0.006171792 -0.014525548 -0.0002189721 0.008644805 0.00079029426 0.0016500417
0.00093455997 -0.0011626292 -0.001262246 -8.354883e-05 0.01133267 -0.0007454265 0.0038945335 -0.00031214918
-0.000863523 -0.00062194746 -0.08932477 -0.00065687817 -0.04850873 -0.003824914 0.00021091415 -0.0018233106
0.00045729816 0.006469719 -0.0012909726 -0.020080354 -0.0021241894 0.01199695 -0.0033873995 0.000767165
7.5199874e-05 0.00073726586 -0.0045068096 -0.00047540272 -0.025338236 0.00289905 -0.016645871 0.008439725
-0.00012389093 -0.005472582 -9.752837e-05 -0.018467005 -3.4346507e-05 0.092272446 0.0043648817 0.07322232
-0.018588338 0.00041589086 0.008221978 0.00026482824 -0.00038964534 -0.0015580225 0.013874568 0.0024704414
0.008834697 -0.00013153069 0.00078297325 -0.0003040597 -0.0006456686 0.0032875803 0.0015365345 -0.0024592401
-0.00039518825 -0.00020564123 0.00025368686 -0.00020063095 -0.00064108917 0.00016243497 0.0051868497 -0.00067398965
0.0050029303 -0.0009469496 0.013189159 0.009419342 0.00049530796 0.0047239875 -0.0009400019 -0.0071930224
0.0008533276 0.021681385 0.0002336289 0.008553346 -0.0056720693 0.00052215595 0.0032502138 0.00034507408
0.0033833557 -1.952314e-05 0.0024672896 -0.001971736 -0.012058363 0.0007583635 0.0002133218 0.0049232333
0.0001241746 0.0038573118 0.0008694165 -0.016730167 -0.0022002417 -0.01678952 -0.004190803 7.3475094e-05
-0.0014487652 -0.00034595685 -0.003846292 -0.0015169949 0.14522958 0.0038094013 0.14515787 -0.010274909
-0.00015340907 0.00035052717 -0.00034157955 0.0068583763 -0.00018470181 -0.026909932 0.0010159938 0.019100778
0.004834933 -0.00022733319 0.002445512 0.00031191902 -0.0021653122 -0.0005747214 0.18359439 -0.00026016578
0.13724278 -0.017738136 0.001608813 0.0024009305 0.00026449646 -0.0004909048 0.00069419714 0.0068758186
-0.000202512 0.0043067983 0.0030298927 8.747466e-05 -0.00027155568 -7.914508e-05 0.004531762 -0.00092342414
0.10957991 -0.00012674034 0.09511455 -0.0044418606 -0.0013086401 0.0034595043 0.00033872036 -0.002701944
5.6823483e-05 -0.00680234 -0.0002135741 0.00036644348 0.0019689372 -0.0004513236 -0.0010330233 -0.00018523444
-0.0059827915 -0.0017170415 -0.08275976 -0.0017678592 -0.0081952475 -0.0051533347 -0.0005847119 -0.0004292325
-0.00026565744 -0.003610359 -0.00068961177 0.08920204 0.0032589296 0.22252308 0.0061274027 0.00029049057
0.0016899684 -0.00030356666 -0.0048703356 0.0010623478 -0.114125244 0.0010093141 -0.02402279 -3.4629003e-05
0.00078696094 0.0006809918 -2.6858208e-05 0.0063992403 0.0008878933 0.04557182 -0.0012257998 0.0053863963
0.004542568 -9.00242e-05 -0.0045389133 -0.00031741287 0.0017967136 0.0004345887 0.041283183 -0.0007087838

conv1.lin_r.bias f4 [64]
00000000: e0f9 9339 5121 853a 3e44 f4ba 5c4a d3bb
00000010: e0cc 7939 7e9e 20bb ebbf eabb 5281 2bba
00000020: 0cda 80ba 2eaa 38bb 5032 1aba 507b da3a
00000030: 3cb4 41ba 888e f7b9 08e8 a8ba 6d8f 3e3b
00000040: 8bb6 183a b385 82ba b058 15bb e447 54ba
00000050: b092 49bb 4f9a 233a 2488 ef3a 350f 93ba
00000060: 6bd6 91b9 3785 c73a 72ef 033b 5c5b 8aba
00000070: 942f e53a cf20 6a3a f880 46b9 4818 db3a
00000080: 48fa ba3b 4f27 1f3b fc7a b638 95ba 633a
00000090: 0d6d 6a3a e514 cf3a 98a4 83ba c066 4d3a
000000a0: eb24 f2bb bf50 33bb f301 f23b b5c8 153c
000000b0: 7b95 86bb e105 773a 2f38 81bb 96f4 6b3b
000000c0: 0c4c 38bb b048 503a fc82 f23a a4a7 a8ba
000000d0: 3613 1d3c bbe3 193b 0578 453c 3cb4 c03a
000000e0: ebe5 32bb 9ceb ccba 73b1 263a 27ac a93b
000000f0: 4a42 1e3c 9283 1a3a 5431 183b 45ec 3d3b
0.00028224196 0.0010157024 -0.001863606 -0.0064480733 0.00023822812 -0.0024508531 -0.0071639917 -0.00065424026
-0.0009830608 -0.0028177607 -0.0005882131 0.001666883 -0.0007389223 -0.00047217705 -0.0012886534 0.0029077188
0.0005825541 -0.0009958058 -0.0022788458 -0.0008097871 -0.0030757599 0.00062409503 0.0018274826 -0.0011219742
-0.0002781631 0.0015222196 0.0020131734 -0.0010555792 0.0017485493 0.00089312805 -0.00018930796 0.001671561
0.0057061054 0.0024284904 8.701344e-05 0.00086871657 0.00089426414 0.0015799074 -0.001004356 0.00078354403
-0.007389655 -0.002736136 0.0073854863 0.009142091 -0.004107175 0.0009423178 -0.003943465 0.003600394
-0.00281215 0.00079454016 0.0018502171 -0.0012867344 0.0095871 0.0023481685 0.012052541 0.0014702152
-0.0027297686 -0.0015634182 0.00063588395 0.005177993 0.009659359 0.00058942393 0.0023222761 0.002897994

conv2.lin_l.weight f4 [1, 64]
00000000: 807f 96bb 43bb 74ba 56ba c83b 1291 673a
00000010: deb2 e93b 1884 6539 0c73 70bb cdb2 d1bb
00000020: 94aa e0b8 9fc5 f239 df10 043b 1d80 27bb
00000030: 5428 dbba ac72 84ba 9c4c c9b9 54ef 993b
00000040: ece8 5dba 4453 e9ba 6426 ca3a 6a75 9d3a
00000050: 1762 023b 4c12 8fb9 a0b3 e93a bc1e dcb9
00000060: a4f1 e5ba e4c6 c5ba 5601 903a b236 69bb
00000070: 20c2 a23b 43d6 6b3b 9930 55bb 9936 b7ba
00000080: be38 e7ba e2d6 cbba 80f1 663a 3b24 563a
00000090: 6c8b 3e3b 2e49 f83a 139a aebb 72e2 093b
000000a0: 88b3 1c3c d443 85bc c181 b93b ac78 c53b
000000b0: 2da5 be3b 4c4f 11bc c148 b8bb 959e a2bc
000000c0: 137c fdbb 0e1b 793a 43db 3a3d e9e9 33bb
000000d0: 4040 d6b9 9d11 c43c 3de6 adbb d722 8abb
000000e0: 21f5 1e3b 9399 9ebd e6f3 5c3b 2e36 ff3a
000000f0: 33cb 733b 3405 213b ee02 023c fd72 ba3a
-0.004592836 -0.00093357655 0.0061257286 0.0008833568 0.0071319183 0.0002188835 -0.0036689667 -0.0063994885
-0.00010712925 0.00046305076 0.0020151658 -0.002555854 -0.0016720393 -0.0010104976 -0.00038394786 0.0046977196
-0.0008465189 -0.0017801304 0.0015422818 0.0012013142 0.0019894892 -0.00027288718 0.0017830022 -0.0004198457
-0.0017543328 -0.0015089181 0.0010986726 -0.003558558 0.004966989 0.0035985864 -0.0032530187 -0.0013978063
-0.0017640812 -0.0015551711 0.000880979 0.0008168851 0.00290748 0.0018942708 -0.0053284257 0.0021039513
0.009564288 -0.016267695 0.00566122 0.006026348 0.0058180303 -0.0088690035 -0.0056239073 -0.019851008
-0.007735738 0.00095026277 0.04561926 -0.0027452654 -0.0004086513 0.02393418 -0.0053069876 -0.004215579
0.0024254995 -0.07744136 0.003371471 0.0019471103 0.0037199974 0.0024569752 0.007935269 0.0014224943

conv2.lin_r.weight f4 [1, 64]
00000000: 808f 0e3c e2d9 e3bb b99f afbc b611 17ba
00000010: 3f85 3dbc b532 bebc 7d65 d1bb 7030 f6bb
00000020: 54bd 143c 9e21 13ba c23b 6cba f6f0 a9ba
00000030: 2b2d 6dbb 7845 6abc f1a7 d2ba c34b 30bb
00000040: 07dd 9f3b 9693 69bb 6b0f d9bb 92cb 10bc
00000050: ee8d 10bc 1a81 92bb 85cb 01bc 7bd1 e83c
00000060: 7395 2f3b a787 753b fde9 553b 01e1 18bc
00000070: 2240 c73b 149b e1bb 16a7 9f3b 8c9a 56bc
00000080: 020e 4abc f62e fbbb f8e5 b2bb 4a8d 21b9
00000090: bee1 8a3b 00b5 30bb e939 1cbc f7b6 1abc
000000a0: 214e d5bb d2e9 e2bc 10ea d9bb 26c4 8dbc
000000b0: 1a17 d03b 6cfd 7bbd e56c 86b8 a029 0a3c
000000c0: 9f4b 4abc d111 0ebc 365d 45bc 1b1d 70bb
000000d0: 9f8e 43bb c813 0a3d 9097 1dbb 3eae 8b3b
000000e0: 02d6 d8bb a6e7 853d fda6 1e3c b9ad eebb
000000f0: 860a b7b9 f8a9 0f3b c74e 23bc 369a dfbb
0.008701205 -0.006953464 -0.021438466 -0.0005762832 -0.011567413 -0.023217538 -0.006390272 -0.0075130984
0.0090783425 -0.00056126143 -0.000901159 -0.0012965489 -0.0036190252 -0.014298789 -0.0016071779 -0.0026900626
0.0048786434 -0.0035640947 -0.0066241524 -0.008837597 -0.008822901 -0.0044709565 -0.007922058 0.0284202
0.002679196 0.0037464888 0.0032640689 -0.009330989 0.0060806433 -0.006884942 0.004872213 -0.01309837
-0.012332441 -0.0076655103 -0.0054595433 -0.00015406791 0.0042383363 -0.0026963353 -0.009535291 -0.009443036
-0.006509558 -0.027699385 -0.006650217 -0.017305445 0.00635041 -0.06152098 -6.409901e-05 0.008432776
-0.012347131 -0.00867124 -0.012046149 -0.0036638442 -0.0029839647 0.03371027 -0.0024046637 0.0042627146
-0.0066173086 0.06538324 0.009683368 -0.007283893 -0.0003491232 0.0021921378 -0.009967512 -0.0068238033
