gatv2_fold_7.pt (torch, 10562 bytes, 8 tensors)

conv1.att f4 [1, 8, 8]
000000 7b 9b 00 00 44 0b 00 00 89 ba 00 00 cc 37 01 80
       5.5776e-41 4.041e-42 6.6916e-41 -1.11852e-40
000010 af 6e 00 00 84 9a 00 80 7d 65 01 80 11 dd 00 00
       3.9706e-41 -5.543e-41 -1.28243e-40 7.9304e-41
000020 37 45 01 80 1f 9d 00 00 63 7d 02 80 d7 43 00 80
       -1.16665e-40 5.6364e-41 -2.28651e-40 -2.4336e-41
000030 48 78 01 80 3b 06 01 00 ce f4 00 00 c4 48 01 80
       -1.34984e-40 9.407e-41 8.782e-41 -1.17939e-40
000040 e4 42 01 80 5d e9 01 80 16 01 02 80 04 2c 01 00
       -1.15831e-40 -1.7555e-40 -1.8406e-40 1.07625e-40
000050 7d a1 02 80 94 d9 00 00 de a3 00 00 33 8a 00 00
       -2.41602e-40 7.8052e-41 5.8784e-41 4.9577e-41
000060 c3 5b 00 00 dc 68 00 80 82 af 02 80 df d3 02 80
       3.2918e-41 -3.7616e-41 -2.46631e-40 -2.59676e-40
000070 e3 dc 01 80 62 21 01 80 d9 d6 00 80 6a 65 02 00
       -1.71075e-40 -1.03811e-40 -7.7073e-41 2.20052e-40
000080 9a 07 01 00 94 5f 00 00 9a b7 02 80 2f b5 02 80
       9.4562e-41 3.4287e-41 -2.49535e-40 -2.48667e-40
000090 1e 43 02 00 33 e7 00 00 dd 15 00 00 13 72 00 00
       2.07748e-40 8.2939e-41 7.843e-42 4.0922e-41
0000a0 f3 4c 01 80 77 16 02 80 88 02 01 00 18 35 01 00
       -1.1944e-40 -1.9173e-40 9.2744e-41 1.10882e-40
0000b0 b4 20 00 00 b5 ae 01 80 9e 41 00 00 c7 17 01 80
       1.1732e-41 -1.54509e-40 2.3539e-41 -1.00365e-40
0000c0 a5 b9 00 00 d8 a0 01 80 9d 62 02 00 96 11 02 80
       6.6597e-41 -1.49535e-40 2.19047e-40 -1.8998e-40
0000d0 7e cb 00 00 72 72 02 80 69 aa 01 00 70 65 01 80
       7.2999e-41 -2.24726e-40 1.52967e-40 -1.28224e-40
0000e0 51 b2 01 80 21 fc 02 80 76 85 01 00 7d 3f 01 80
       -1.55803e-40 -2.74118e-40 1.39712e-40 -1.14611e-40
0000f0 b4 de 00 80 7f 09 00 00 b7 00 02 80 c5 41 00 80
       -7.9891e-41 3.407e-42 -1.83927e-40 -2.3594e-41

conv1.bias f4 [64]
000000 53 80 00 80 7b fb 00 80 07 97 02 80 7d 8d 00 80
       -4.6034e-41 -9.0214e-41 -2.3785e-40 -5.0756e-41
000010 26 d7 00 00 a5 ed 00 80 f9 2e 00 00 d5 d1 00 80
       7.7181e-41 -8.5251e-41 1.685e-41 -7.5274e-41
000020 95 a0 02 00 38 d5 00 80 3a 88 00 80 7e 4d 02 00
       2.41277e-40 -7.6488e-41 -4.8869e-41 2.1147e-40
000030 0a c0 01 80 1b 1d 02 80 8e 9f 00 80 b6 f1 01 00
       -1.60726e-40 -1.94112e-40 -5.7237e-41 1.78545e-40
000040 22 16 02 80 4e ba 00 00 d2 55 01 00 f1 c0 00 00
       -1.91611e-40 6.6834e-41 1.22622e-40 6.9214e-41
000050 40 9b 00 00 aa e0 00 00 2c 35 00 00 51 75 00 80
       5.5693e-41 8.0594e-41 1.9074e-41 -4.2085e-41
000060 10 92 00 00 ff ae 00 00 c3 81 02 80 8c 06 00 00
       5.2397e-41 6.2777e-41 -2.30221e-40 2.349e-42
000070 94 3a 02 80 d4 25 00 80 31 8f 01 80 18 ce 00 00
       -2.04685e-40 -1.357e-41 -1.43203e-40 7.3933e-41
000080 fe 04 01 00 38 36 00 00 5c 6f 00 80 a6 38 00 00
       9.3626e-41 1.945e-41 -3.9948e-41 2.0322e-41
000090 31 25 01 80 bc 55 00 80 90 18 00 00 db 84 00 80
       -1.05177e-40 -3.0756e-41 8.811e-42 -4.766e-41
0000a0 a8 bd 02 00 b3 9d 00 00 2e ec 00 80 69 f6 00 00
       2.51707e-40 5.6572e-41 -8.4725e-41 8.8395e-41
0000b0 18 4b 01 80 32 66 00 80 1b ab 01 80 93 e4 01 80
       -1.18774e-40 -3.6661e-41 -1.53217e-40 -1.73832e-40
0000c0 bb fa 00 00 1e 1a 00 00 52 25 01 80 c8 f3 02 80
       8.9945e-41 9.369e-42 -1.05224e-40 -2.71123e-40
0000d0 af 86 00 00 45 1c 02 80 8c dc 00 80 2a cf 00 00
       4.8315e-41 -1.93812e-40 -7.9117e-41 7.4316e-41
0000e0 6a 02 01 00 59 71 01 80 a6 e0 00 00 60 53 00 00
       9.2701e-41 -1.32497e-40 8.0589e-41 2.991e-41
0000f0 3e e8 00 00 4e f8 00 00 e8 60 00 80 07 70 00 00
       8.3313e-41 8.9075e-41 -3.4763e-41 4.0188e-41

conv1.lin_l.weight f4 [64, 9]
000000 0c 21 00 00 bb 04 01 00 22 80 00 00 f1 4e 01 00
       1.1855e-41 9.3532e-41 4.5965e-41 1.20154e-40
000010 53 76 00 00 ef 15 03 00 68 95 02 00 1c 05 01 00
       4.2447e-41 2.83375e-40 2.37268e-40 9.3668e-41
000020 40 ac 01 80 1f db 01 00 70 c9 00 80 2a 8e 00 00
       -1.53627e-40 1.70441e-40 -7.2262e-41 5.0999e-41
000030 a1 a0 01 80 2f 74 00 00 ad cb 01 00 13 26 00 00
       -1.49458e-40 4.1679e-41 1.649e-40 1.3658e-41
000040 73 24 01 00 b3 ef 00 80 8b 16 01 00 be 29 01 00
       1.04911e-40 -8.5988e-41 9.9922e-41 1.0681e-40
000050 1e aa 00 00 9c ad 00 00 da 7a 00 00 b3 a3 01 00
       6.1027e-41 6.228e-41 4.4071e-41 1.5056e-40
000060 b9 3e 00 80 c1 99 00 00 ba 39 02 80 4f f4 00 00
       -2.25e-41 5.5157e-41 -2.0438e-40 8.7641e-41
000070 20 04 03 80 64 d6 02 00 4b 8d 02 00 3f 17 01 00
       -2.76986e-40 2.6058e-40 2.34357e-40 1.00175e-40
000080 9a 84 01 00 0c f5 01 80 ea 5a 00 80 9f cb 31 b8
       1.39404e-40 -1.79742e-40 -3.2614e-41 -4.2389725e-05
000090 c9 b2 00 80 a5 79 00 80 d4 59 00 00 4a b1 02 80
       -6.4136e-41 -4.3638e-41 3.2224e-41 -2.4727e-40
0000a0 97 50 00 00 54 9f 00 00 86 26 00 80 97 61 02 00
       2.891e-41 5.7156e-41 -1.382e-41 2.1868e-40
0000b0 bd 61 00 00 84 b8 00 00 df 33 00 00 22 10 02 00
       3.5062e-41 6.6192e-41 1.8608e-41 1.89458e-40
0000c0 86 f3 00 00 72 3a 01 00 87 1b 01 00 14 b4 00 00
       8.736e-41 1.12802e-40 1.0171e-40 6.46e-41
0000d0 b3 84 02 00 22 af b7 ac c3 32 01 00 2e 6e 02 80
       2.31275e-40 -5.2206165e-12 1.10045e-40 -2.23196e-40
0000e0 28 34 00 00 fc a0 00 00 83 21 01 00 75 20 00 00
       1.871e-41 5.775e-41 1.03857e-40 1.1643e-41
0000f0 58 03 01 80 01 91 00 00 c0 94 f6 34 5f 0e 00 00
       -9.3035e-41 5.2018e-41 4.59293e-07 5.155e-42
000100 dd fd 00 00 f4 8a 00 00 32 4d 00 80 03 8e 00 00
       9.1069e-41 4.9847e-41 -2.7692e-41 5.0944e-41
000110 cf 68 01 00 f8 5b 00 00 88 61 01 00 09 23 02 80
       1.29434e-40 3.2992e-41 1.26823e-40 -1.96239e-40
000120 56 b2 01 00 3f f7 00 80 95 42 02 00 6b bc 01 80
       1.5581e-40 -8.8695e-41 2.07556e-40 -1.59427e-40
000130 6b 32 01 00 07 34 01 80 7c 7f 00 80 21 d7 02 00
       1.09922e-40 -1.105e-40 -4.5733e-41 2.60845e-40
000140 7c 02 00 80 00 74 00 00 cf cd 02 00 64 77 00 00
       -8.91e-43 4.1613e-41 2.57501e-40 4.2829e-41
000150 01 92 01 80 83 7b 00 00 7a d8 01 00 b0 45 02 80
       -1.44212e-40 4.4308e-41 1.69493e-40 -2.0867e-40
000160 d0 5f 01 80 94 cb 00 00 0c 95 00 80 ea 2e 03 80
       -1.26207e-40 7.303e-41 -5.3468e-41 -2.92336e-40
000170 57 37 02 00 17 12 02 00 35 ca 00 00 b2 a6 00 00
       2.03523e-40 1.9016e-40 7.2538e-41 5.9799e-41
000180 91 cc 02 00 a2 17 00 80 83 cf d2 2f 1b 2c 01 00
       2.57056e-40 -8.478e-42 3.8346223e-10 1.07658e-40
000190 4a 27 02 80 8e 48 01 00 68 fd 01 80 bd c5 00 00
       -1.97765e-40 1.17863e-40 -1.8274e-40 7.0935e-41
0001a0 08 10 02 00 a7 ba 02 00 04 12 00 00 2f 25 00 80
       1.89422e-40 2.50629e-40 6.463e-42 -1.3339e-41
0001b0 e2 06 00 80 88 57 00 00 69 ce 02 00 ad 0c 01 80
       -2.469e-42 3.14e-41 2.57717e-40 -9.6383e-41
0001c0 a0 fe 00 00 b0 34 00 80 42 98 01 00 d8 36 02 80
       9.1342e-41 -1.8901e-41 1.46455e-40 -2.03345e-40
0001d0 90 03 3e 2a ae a0 00 80 b8 24 02 00 5e 09 00 80
       1.6876626e-13 -5.7641e-41 1.96843e-40 -3.36e-42
0001e0 8d 11 00 80 dc 24 00 80 c5 60 00 80 e5 a9 00 00
       -6.296e-42 -1.3223e-41 -3.4714e-41 6.0947e-41
0001f0 1d 9a 02 00 bb 26 00 00 04 18 02 00 d5 d2 02 80
       2.38956e-40 1.3894e-41 1.92286e-40 -2.59303e-40
000200 f1 12 00 80 67 c7 00 80 1e 26 00 00 b5 df 00 00
       -6.795e-42 -7.1532e-41 1.3674e-41 8.0251e-41
000210 b0 7c 00 80 87 ef 00 00 ad 1d 02 00 fc 55 02 80
       -4.473e-41 8.5926e-41 1.94317e-40 -2.14516e-40
000220 21 ac 01 00 a4 f1 02 00 f8 a3 00 00 b0 aa 00 00
       1.53584e-40 2.70355e-40 5.8821e-41 6.1231e-41
000230 fc 15 01 80 78 7f 01 00 4d 2e 00 00 48 ff 01 80
       -9.9722e-41 1.37563e-40 1.661e-41 -1.83413e-40
000240 e0 17 00 80 20 26 01 00 61 c5 00 00 15 e2 02 00
       -8.565e-42 1.05512e-40 7.0806e-41 2.64774e-40
000250 e9 6e 00 00 b5 38 01 00 84 5e 00 80 4c 13 01 00
       3.9787e-41 1.12178e-40 -3.3906e-41 9.8758e-41
000260 67 03 01 00 ca 2a 00 80 22 6f 01 00 e2 2a 01 00
       9.3056e-41 -1.535e-41 1.31702e-40 1.07219e-40
000270 f9 ea 02 80 3f 8a 02 00 6e 15 02 00 ff b7 02 80
       -2.67963e-40 2.33264e-40 1.91359e-40 -2.49676e-40
000280 16 23 01 00 66 45 01 00 0c 64 00 00 f0 cb 02 00
       1.04422e-40 1.16731e-40 3.589e-41 2.5683e-40
000290 8f 5d 01 00 65 e6 00 80 46 5f 00 00 58 4f 01 80
       1.25398e-40 -8.265e-41 3.4178e-41 -1.20299e-40
0002a0 a4 b2 00 80 78 92 00 00 3f 26 00 00 77 fa 00 00
       -6.4084e-41 5.2543e-41 1.372e-41 8.985e-41
0002b0 d3 3f 00 80 9c 2c 00 80 d3 16 01 00 57 28 00 80
       -2.2896e-41 -1.6003e-41 1.00023e-40 -1.4471e-41
0002c0 85 78 01 00 3e ad 00 80 cc 2b 00 00 10 40 02 80
       1.3507e-40 -6.2148e-41 1.5711e-41 -2.06652e-40
0002d0 f4 d3 02 00 ab de 00 00 82 a7 00 00 f3 5a 00 80
       2.59705e-40 7.9878e-41 6.009e-41 -3.2626e-41
0002e0 a9 cc 00 00 30 13 01 00 a6 5a 01 00 ee e2 00 00
       7.3418e-41 9.8719e-41 1.24354e-40 8.1407e-41
0002f0 7b e3 01 80 b2 56 00 00 85 31 00 80 11 45 00 00
       -1.7344e-40 3.11e-41 -1.7764e-41 2.4776e-41
000300 8d 95 00 00 7d 4b 00 00 66 65 00 00 86 eb 00 80
       5.3649e-41 2.708e-41 3.6375e-41 -8.449e-41
000310 78 ed 00 00 91 43 02 80 ca 80 01 80 eb 09 02 80
       8.5188e-41 -2.07909e-40 -1.38036e-40 -1.87229e-40
000320 d3 22 00 00 98 3b 01 00 8d 69 00 00 b9 a8 01 80
       1.2493e-41 1.13214e-40 3.7864e-41 -1.52362e-40
000330 f7 89 01 00 47 cb 01 00 0a aa 00 00 b8 63 02 80
       1.41328e-40 1.64758e-40 6.0999e-41 -2.19443e-40
000340 c3 d4 00 00 27 62 00 00 58 88 00 80 68 83 00 00
       7.6325e-41 3.521e-41 -4.8911e-41 4.714e-41
000350 9b 4d 01 80 78 11 01 00 65 01 01 80 08 f7 00 80
       -1.19675e-40 9.8102e-41 -9.2336e-41 -8.8618e-41
000360 3d 7e 00 00 05 c2 01 80 2d a5 00 00 84 a2 01 00
       4.5286e-41 -1.61437e-40 5.9254e-41 1.50135e-40
000370 63 35 00 80 f0 66 00 00 d9 5d 02 00 23 f0 00 00
       -1.9152e-41 3.6927e-41 2.17337e-40 8.6145e-41
000380 ca 10 01 80 01 82 00 00 d4 86 00 00 a7 c7 00 00
       -9.7858e-41 4.6637e-41 4.8367e-41 7.1622e-41
000390 d5 80 00 80 53 1a 00 00 d3 af 01 80 4f f9 00 80
       -4.6216e-41 9.443e-42 -1.5491e-40 -8.9435e-41
0003a0 f7 c8 02 80 2d 1a 00 80 60 47 02 00 de 47 01 00
       -2.55764e-40 -9.39e-42 2.09276e-40 1.17617e-40
0003b0 c0 9c 01 00 86 33 01 80 65 a8 00 00 a2 c1 02 00
       1.48067e-40 -1.10319e-40 6.0409e-41 2.53133e-40
0003c0 38 39 00 80 f3 bf 01 80 37 db 01 00 88 73 01 00
       -2.0526e-41 -1.60694e-40 1.70475e-40 1.3328e-40
0003d0 66 c3 00 80 23 86 00 00 ea dc 00 00 31 f2 01 00
       -7.0096e-41 4.8119e-41 7.9249e-41 1.78717e-40
0003e0 4d d3 00 00 f0 a1 02 00 30 37 00 00 03 c6 00 00
       7.58e-41 2.41763e-40 1.9798e-41 7.1033e-41
0003f0 a3 69 00 00 6c 71 01 80 dd bb 00 00 75 32 01 80
       3.7895e-41 -1.32524e-40 6.7393e-41 -1.09936e-40

conv1.lin_l.bias f4 [64]
000000 88 99 00 80 b4 b5 01 80 26 27 00 00 96 13 00 80
       -5.5077e-41 -1.57018e-40 1.4044e-41 -7.026e-42
000010 c4 6d 01 00 e0 e4 02 80 c2 98 02 00 16 9a 00 80
       1.31212e-40 -2.65776e-40 2.3847e-40 -5.5276e-41
000020 1e 27 02 00 6d 79 00 80 bc 43 00 00 35 d6 01 00
       1.97704e-40 -4.356e-41 2.4299e-41 1.68679e-40
000030 a0 d2 00 80 bb 1d 01 00 66 34 02 80 c2 29 02 00
       -7.5558e-41 1.02501e-40 -2.02468e-40 1.98651e-40
000040 92 51 00 80 f9 d5 01 80 ec 36 00 00 df 22 00 00
       -2.9262e-41 -1.68594e-40 1.9702e-41 1.251e-41
000050 f1 c6 00 80 c4 b4 00 80 36 36 02 80 98 f2 01 00
       -7.1367e-41 -6.4846e-41 -2.03118e-40 1.78862e-40
000060 95 5d 02 80 03 22 01 00 8b 3c 00 00 0c 9a 00 00
       -2.17242e-40 1.04037e-40 2.1719e-41 5.5262e-41
000070 d0 d9 01 80 97 73 00 00 47 2e 01 00 3e 7a 01 80
       -1.69972e-40 4.1466e-41 1.08437e-40 -1.35688e-40
000080 77 90 02 80 30 3c 02 80 db 03 00 00 b7 0f 02 80
       -2.35495e-40 -2.05262e-40 1.383e-42 -1.89308e-40
000090 34 cd 02 80 35 35 01 00 d2 92 00 80 68 91 00 00
       -2.57284e-40 1.10923e-40 -5.2669e-41 5.2162e-41
0000a0 00 0d 00 00 11 f8 00 00 f1 f4 01 80 03 e2 00 00
       4.664e-42 8.899e-41 -1.79704e-40 8.1078e-41
0000b0 08 5b 00 00 bd 3b 02 80 2a a7 00 80 72 53 00 80
       3.2656e-41 -2.05101e-40 -5.9967e-41 -2.9935e-41
0000c0 e0 1f 02 00 e4 3f 01 00 12 0b 01 00 02 dd 01 80
       1.95106e-40 1.14755e-40 9.5807e-41 -1.71118e-40
0000d0 dd 77 00 00 34 67 00 00 d4 23 01 00 d2 d8 00 00
       4.2999e-41 3.7022e-41 1.04688e-40 7.778e-41
0000e0 f8 35 00 00 b2 9c 01 80 d3 2d 03 00 a7 20 02 80
       1.936e-41 -1.48047e-40 2.91945e-40 -1.95384e-40
0000f0 c2 04 01 80 21 9b 00 80 78 1a 00 00 16 40 01 00
       -9.3542e-41 -5.565e-41 9.495e-42 1.14825e-40

conv1.lin_r.weight f4 [64, 9]
000000 71 15 01 00 38 2d c7 b4 09 14 02 00 86 8e 9c 2c
       9.9527e-41 -3.709954e-07 1.90858e-40 4.44961e-12
000010 2a e2 00 80 46 2d 02 00 bd 60 00 00 f1 57 01 00
       -8.1132e-41 1.99912e-40 3.4703e-41 1.23383e-40
000020 e4 1b 02 00 ca f9 1a 37 42 d5 6c b5 40 4c 02 00
       1.93676e-40 9.237274e-06 -8.822718e-07 2.11024e-40
000030 a4 b0 00 80 3e de 00 00 c9 05 00 80 c5 29 84 b1
       -6.3367e-41 7.9725e-41 -2.075e-42 -3.8464543e-09
000040 d5 5c 01 80 d7 0d 03 80 64 36 01 00 fc c8 01 80
       -1.25137e-40 -2.80471e-40 1.11347e-40 -1.63935e-40
000050 8e 94 01 80 ad ef 01 80 38 83 02 80 45 f1 00 00
       -1.45127e-40 -1.77815e-40 -2.30743e-40 8.6551e-41
000060 94 fb 3c 2e cb 2c 01 00 cb 28 a7 b4 64 f8 01 80
       4.2969697e-11 1.07904e-40 -3.1135855e-07 -1.80941e-40
000070 29 38 01 80 b7 dc 01 00 7b ae 01 00 a0 3e 00 00
       -1.11982e-40 1.71013e-40 1.54427e-40 2.2466e-41
000080 13 54 00 00 f6 b1 03 b9 0e 27 01 00 b1 da 3f ab
       3.016e-41 -0.00012559429 1.05846e-40 -6.8160327e-13
000090 43 c7 00 00 94 bc 06 b3 d5 cf 01 00 28 f6 ca 32
       7.1482e-41 -3.1370817e-08 1.66392e-40 2.3627834e-08
0000a0 1c e8 00 80 5b f8 02 00 e2 d1 85 2b bd 47 02 80
       -8.3265e-41 2.72764e-40 9.508473e-13 -2.09406e-40
0000b0 52 e1 f1 32 cf 0a 02 80 46 ec 0f 2b 51 4f 02 80
       2.8158556e-08 -1.87548e-40 5.11317e-13 -2.12124e-40
0000c0 52 37 00 80 bc 6b 02 80 1a 7f 00 00 b7 c4 03 36
       -1.9845e-41 -2.22319e-40 4.5595e-41 1.9635024e-06
0000d0 9f b0 01 80 40 41 66 b9 9d 1d 02 00 9a ea 00 00
       -1.55195e-40 -0.00021958817 1.94294e-40 8.4159e-41
0000e0 ed 54 01 00 6d 85 eb ae 3d 9c 02 00 45 96 00 00
       1.22301e-40 -1.0710264e-10 2.39719e-40 5.3907e-41
0000f0 5a 59 fc 39 cd 76 02 00 18 37 14 2b 90 aa 00 00
       0.00048131758 2.26289e-40 5.265662e-13 6.1186e-41
000100 96 06 14 3a e5 01 03 00 72 e4 ef b4 90 74 01 80
       0.00056467333 2.76186e-40 -4.4683435e-07 -1.3365e-40
000110 62 1b 03 00 a7 b5 c8 2e 55 2c 02 00 96 9d 14 b6
       2.8533e-40 9.127215e-11 1.99574e-40 -2.2145446e-06
000120 f7 ca 01 00 a6 86 86 b5 b8 be 01 80 42 9f 87 30
       1.64646e-40 -1.0022966e-06 -1.60252e-40 9.867807e-10
000130 ea 55 01 80 5b 4a 00 80 fc 9d 94 2f 4a 58 00 80
       -1.22656e-40 -2.6674e-41 2.7033298e-10 -3.1672e-41
000140 78 dd 28 b5 6b d2 01 80 78 2b 57 b6 b0 0d 02 00
       -6.2907156e-07 -1.67319e-40 -3.2062799e-06 1.88581e-40
000150 3c f0 e6 2b 7c 30 00 00 30 e6 02 00 60 e3 73 b7
       1.6409161e-12 1.7393e-41 2.66247e-40 -1.4536869e-05
000160 b5 27 02 80 d4 fe c3 2c ee 0f 0e b6 cf 7f fe b9
       -1.97915e-40 5.570525e-12 -2.1168921e-06 -0.0004854188
000170 3d 07 00 00 20 d9 93 2e 7d 39 00 00 de 0b 00 00
       2.597e-42 6.723355e-11 2.0623e-41 4.257e-42
000180 fa 32 25 b2 97 9d 02 80 9e 92 06 31 7e d3 00 80
       -9.615855e-09 -2.40204e-40 1.9582909e-09 -7.5869e-41
000190 36 6a 91 37 90 f4 01 00 34 60 b5 b8 3d 47 01 00
       1.7334805e-05 1.79568e-40 -8.648672e-05 1.17391e-40
0001a0 3e ec 00 80 b6 84 02 80 2c 49 00 80 57 82 11 b6
       -8.4748e-41 -2.31279e-40 -2.6249e-41 -2.1682552e-06
0001b0 63 28 00 00 28 4c 26 ad 60 91 00 00 26 d2 7a af
       1.4488e-41 -9.452918e-12 5.2151e-41 -2.2812027e-10
0001c0 f6 79 01 80 a4 c8 00 00 28 44 fa 37 fe 71 02 00
       -1.35587e-40 7.1976e-41 2.983406e-05 2.24564e-40
0001d0 9d dd 78 36 f2 33 02 00 56 b8 00 80 3c b7 00 00
       3.7083876e-06 2.02305e-40 -6.6127e-41 6.5732e-41
0001e0 86 0a 03 80 e5 c1 02 80 e6 38 01 80 3e 54 0d af
       -2.79282e-40 -2.53227e-40 -1.12247e-40 -1.2853804e-10
0001f0 0a 26 01 00 83 3f e8 b8 ac 36 02 80 13 4f 92 37
       1.05481e-40 -0.00011074452 -2.03284e-40 1.7441378e-05
000200 55 b8 00 80 9e 30 02 00 3e 92 00 00 e5 ae 00 00
       -6.6126e-41 2.01112e-40 5.2462e-41 6.274e-41
000210 82 b7 35 b0 c6 05 02 80 b8 bc 8e b5 07 88 00 80
       -6.6108197e-10 -1.85742e-40 -1.0634749e-06 -4.8797e-41
000220 f4 2f f1 2b 81 2d 00 80 06 40 69 2b d3 d1 00 00
       1.713739e-12 -1.6324e-41 8.286708e-13 7.5271e-41
000230 ba 7a 01 00 c4 fa c3 b4 72 f2 5e ac 76 b1 32 ae
       1.35861e-40 -3.6504036e-07 -3.1682682e-12 -4.063013e-11
000240 44 a7 00 80 0a 84 00 80 a3 3e 01 00 1c 79 01 80
       -6.0004e-41 -4.7367e-41 1.14305e-40 -1.35281e-40
000250 66 43 01 00 f9 fe 00 80 44 aa 00 00 49 5a 02 80
       1.16013e-40 -9.1467e-41 6.108e-41 -2.16059e-40
000260 d3 61 15 37 39 06 02 00 f4 a0 01 00 ac 34 01 80
       8.903869e-06 1.85903e-40 1.49575e-40 -1.1073e-40
000270 cd 99 01 80 f6 6e 01 80 7f cc 02 00 f1 97 01 80
       -1.47009e-40 -1.31641e-40 2.5703e-40 -1.46342e-40
000280 6d ad 00 00 8c cb 2d b5 21 8b 00 00 67 78 01 80
       6.2213e-41 -6.474372e-07 4.991e-41 -1.35028e-40
000290 c2 8d 00 80 91 a5 02 80 b4 f1 00 00 bd ce 01 80
       -5.0853e-41 -2.43065e-40 8.6707e-41 -1.65999e-40
0002a0 ba e0 00 00 b5 1f 01 80 d0 18 b0 b3 97 91 02 00
       8.0617e-41 -1.0321e-40 -8.200152e-08 2.35899e-40
0002b0 24 ec 00 00 65 1b 02 80 e2 73 02 00 5a 95 02 00
       8.4711e-41 -1.93498e-40 2.25242e-40 2.37248e-40
0002c0 73 f7 01 00 73 e6 02 00 4a cc 00 00 28 3e 93 af
       1.80604e-40 2.6634e-40 7.3285e-41 -2.678331e-10
0002d0 5e 68 01 80 9d c0 00 00 48 de 02 80 c1 52 01 00
       -1.29275e-40 6.9097e-41 -2.6341e-40 1.21522e-40
0002e0 2b e8 00 80 3a 37 01 80 9e cb 02 80 e4 eb 01 00
       -8.3286e-41 -1.11647e-40 -2.56715e-40 1.76457e-40
0002f0 e0 f4 f1 b6 2c 48 01 00 f3 c0 ce b7 f1 9a 01 80
       -7.210867e-06 1.17726e-40 -2.4646963e-05 -1.47418e-40
000300 9d 7f 00 00 89 59 01 80 1d 50 00 00 f5 81 00 80
       4.5779e-41 -1.23955e-40 2.8739e-41 -4.662e-41
000310 3a 15 03 00 8d c7 08 af fd c6 02 00 db 6c 02 00
       2.83121e-40 -1.2440023e-10 2.55055e-40 2.22721e-40
000320 e9 0c 00 80 39 09 01 00 e0 01 01 00 bc e6 00 00
       -4.631e-42 9.5144e-41 9.2508e-41 8.2772e-41
000330 09 be 01 00 d5 3c 01 80 88 38 34 37 b7 82 01 80
       1.60007e-40 -1.13658e-40 1.0741998e-05 -1.38727e-40
000340 40 dd 00 80 a4 d8 01 00 76 8b a8 b5 fd d4 00 00
       -7.937e-41 1.69552e-40 -1.2557564e-06 7.6406e-41
000350 b5 60 00 00 fb 41 0a 35 36 64 00 00 c4 e9 01 80
       3.4692e-41 5.150502e-07 3.5949e-41 -1.75695e-40
000360 05 f2 02 00 0a 39 3f b9 25 7e 00 00 c0 43 00 80
       2.70491e-40 -0.00018236428 4.5252e-41 -2.4304e-41
000370 e1 eb 01 80 73 90 02 00 e8 35 86 2f 42 72 01 80
       -1.76453e-40 2.3549e-40 2.441276e-10 -1.32823e-40
000380 e4 7f 01 80 5c 20 00 80 6a e6 01 00 72 67 00 00
       -1.37714e-40 -1.1608e-41 1.74492e-40 3.7109e-41
000390 2e 39 02 00 82 cf 00 00 57 60 00 00 00 b8 9b 2c
       2.04183e-40 7.444e-41 3.456e-41 4.425793e-12
0003a0 70 56 02 80 30 15 9c b6 3a e9 00 00 18 6d bc 35
       -2.14679e-40 -4.651629e-06 8.3666e-41 1.4038842e-06
0003b0 6a cc 00 00 48 50 90 ae 9e 41 02 00 e8 41 02 80
       7.333e-41 -6.562623e-11 2.0721e-40 -2.07314e-40
0003c0 48 10 1b 31 a8 17 02 80 91 2b ab 31 d2 18 02 80
       2.2564723e-09 -1.92157e-40 4.981708e-09 -1.92575e-40
0003d0 77 4e 02 00 da 37 02 80 f6 c5 01 00 34 38 02 80
       2.11819e-40 -2.03707e-40 1.6285e-40 -2.03833e-40
0003e0 54 dd 01 80 19 67 00 00 a7 2b 01 00 e6 d6 01 00
       -1.71233e-40 3.6984e-41 1.07495e-40 1.68927e-40
0003f0 ea 43 01 00 8f c3 01 00 9b 81 00 00 32 10 00 80
       1.16198e-40 1.61989e-40 4.6494e-41 -5.81e-42

conv1.lin_r.bias f4 [64]
000000 d3 46 01 00 70 e4 01 00 20 18 01 80 6a 5e 02 80
       1.17242e-40 1.73783e-40 -1.0049e-40 -2.1754e-40
000010 b9 ff e3 2d d4 ad 01 80 23 29 03 80 aa 0d 03 00
       2.5920476e-11 -1.54193e-40 -2.90264e-40 2.80408e-40
000020 20 fa 41 30 1a df 00 00 6e 41 02 00 42 bd e4 2e
       7.056844e-10 8.0034e-41 2.07143e-40 1.04018585e-10
000030 36 62 01 80 b6 ee 52 af ee 95 0d 30 14 e6 9a b8
       -1.27067e-40 -1.9184196e-10 5.1508564e-10 -7.3861476e-05
000040 ab bd 01 80 11 0f 00 00 7b 05 02 00 c4 2b 01 80
       -1.59876e-40 5.405e-42 1.85637e-40 -1.07536e-40
000050 66 3f 00 00 c4 49 01 00 6c c6 02 80 55 b0 02 80
       2.2743e-41 1.18298e-40 -2.54851e-40 -2.46927e-40
000060 b6 51 00 80 12 e9 01 00 e6 61 00 00 35 3b 01 00
       -2.9312e-41 1.75445e-40 3.512e-41 1.13075e-40
000070 3c c0 01 80 d0 47 00 80 d8 91 00 80 4d a0 00 00
       -1.60796e-40 -2.5761e-41 -5.2319e-41 5.7505e-41
000080 99 1d 01 00 35 8c 02 00 34 1e 03 00 26 1f 02 80
       1.02453e-40 2.33968e-40 2.86341e-40 -1.94845e-40
000090 88 c6 02 80 68 01 27 b0 75 15 02 00 58 a7 02 80
       -2.5489e-40 -6.0756244e-10 1.91368e-40 -2.43703e-40
0000a0 b7 ed 01 00 e3 25 00 80 85 8a 01 80 39 2d 8d 2c
       1.77112e-40 -1.3591e-41 -1.41527e-40 4.0124818e-12
0000b0 69 c2 01 80 8c 15 03 80 e4 33 00 00 52 58 02 80
       -1.61577e-40 -2.83236e-40 1.8615e-41 -2.15354e-40
0000c0 9e d6 c7 ab c1 53 01 00 5f 46 00 80 6a f3 01 00
       -1.4199369e-12 1.21881e-40 -2.5244e-41 1.79156e-40
0000d0 61 af 01 00 de 7d 00 00 2e d6 01 80 6c 5f 00 80
       1.5475e-40 4.5153e-41 -1.68669e-40 -3.4231e-41
0000e0 81 aa 00 00 d1 f2 01 80 e6 9c 02 00 31 16 00 00
       6.1165e-41 -1.78942e-40 2.39956e-40 7.961e-42
0000f0 58 48 25 b4 0e e1 02 80 d2 99 02 00 d3 07 00 00
       -1.5393141e-07 -2.64405e-40 2.38851e-40 2.807e-42

conv2.lin_l.weight f4 [1, 64]
000000 5d 00 00 00 14 00 00 00 2a 00 00 80 0a 08 00 80
       1.3e-43 2.8e-44 -5.9e-44 -2.884e-42
000010 4e 00 00 80 bd 91 02 00 62 00 00 80 05 00 00 80
       -1.1e-43 2.35952e-40 -1.37e-43 -7e-45
000020 51 a3 02 80 76 00 00 80 26 aa 02 80 a2 a1 02 00
       -2.42258e-40 -1.65e-43 -2.44709e-40 2.41654e-40
000030 d4 ef 02 80 26 00 00 00 02 00 00 80 5d a0 02 80
       -2.69705e-40 5.3e-44 -3e-45 -2.41198e-40
000040 18 00 00 00 2e 00 00 00 62 ec 02 00 0b 00 00 00
       3.4e-44 6.4e-44 2.68469e-40 1.5e-44
000050 43 00 00 80 0b 00 00 80 3f 00 00 80 19 00 00 80
       -9.4e-44 -1.5e-44 -8.8e-44 -3.5e-44
000060 64 00 00 80 0b 00 00 80 53 00 00 80 1c 00 00 00
       -1.4e-43 -1.5e-44 -1.16e-43 3.9e-44
000070 1a 06 00 80 73 00 00 00 41 00 00 00 2b 00 00 80
       -2.189e-42 1.61e-43 9.1e-44 -6e-44
000080 0d 00 00 80 1d 00 00 00 a9 6c 02 00 01 01 00 80
       -1.8e-44 4e-44 2.22651e-40 -3.6e-43
000090 0f 00 00 80 18 00 00 00 08 00 00 80 27 00 00 80
       -2.1e-44 3.4e-44 -1.1e-44 -5.5e-44
0000a0 7f ed 02 00 f6 1e 00 80 63 00 00 80 34 00 00 80
       2.68869e-40 -1.1107e-41 -1.39e-43 -7.3e-44
0000b0 24 00 00 80 54 46 00 00 08 00 00 00 1c f1 02 00
       -5e-44 2.5229e-41 1.1e-44 2.70165e-40
0000c0 04 00 00 00 88 f1 02 80 0f b8 02 00 21 b8 02 80
       6e-45 -2.70316e-40 2.49699e-40 -2.49724e-40
0000d0 12 00 00 00 c8 00 00 00 33 00 00 80 35 00 00 00
       2.5e-44 2.8e-43 -7.1e-44 7.4e-44
0000e0 54 00 00 80 25 00 00 80 22 00 00 00 98 2b 00 00
       -1.18e-43 -5.2e-44 4.8e-44 1.5638e-41
0000f0 06 00 00 80 34 00 00 00 6d 01 00 80 60 00 00 80
       -8e-45 7.3e-44 -5.11e-43 -1.35e-43

conv2.lin_r.weight f4 [1, 64]
000000 48 16 01 00 ac df 00 80 d4 1f 02 00 3f 91 02 80
       9.9829e-41 -8.0238e-41 1.95089e-40 -2.35775e-40
000010 7b 4f 01 00 12 89 02 80 c9 55 02 80 47 0b 01 00
       1.20348e-40 -2.32843e-40 -2.14445e-40 9.5881e-41
000020 0b 8c 02 00 e0 aa 02 80 03 4a 01 00 72 83 01 00
       2.33909e-40 -2.4497e-40 1.18386e-40 1.38989e-40
000030 1d 99 00 00 14 20 00 80 5e 2d 00 00 8d dd 00 00
       5.4927e-41 -1.1507e-41 1.6275e-41 7.9477e-41
000040 a6 ce 01 80 e8 c7 01 80 52 f0 02 00 20 eb 00 00
       -1.65967e-40 -1.63548e-40 2.69882e-40 8.4347e-41
000050 52 ca 00 80 75 0b 03 80 3f f3 00 00 7b 09 03 80
       -7.2579e-41 -2.79616e-40 8.726e-41 -2.78907e-40
000060 d6 29 01 00 f0 86 02 00 47 c3 00 80 f5 9e 00 00
       1.06843e-40 2.32077e-40 -7.0052e-41 5.7023e-41
000070 10 23 00 80 11 7b 02 80 74 fa 01 80 a0 3e 01 00
       -1.2578e-41 -2.27819e-40 -1.81681e-40 1.14301e-40
000080 f1 bd 00 80 cf e5 01 00 e8 29 02 00 63 bc 02 00
       -6.8138e-41 1.74275e-40 1.98704e-40 2.51251e-40
000090 10 d6 00 80 88 37 02 80 5e 33 01 80 d7 b5 00 00
       -7.6791e-41 -2.03592e-40 -1.10263e-40 6.5232e-41
0000a0 b6 25 00 00 7a f0 00 00 43 36 01 00 75 94 01 80
       1.3528e-41 8.6267e-41 1.11301e-40 -1.45092e-40
0000b0 4c c7 00 00 3a ac 00 80 9e a5 00 80 7d 37 02 00
       7.1494e-41 -6.1783e-41 -5.9412e-41 2.03576e-40
0000c0 70 d1 02 80 ca 7a 00 80 e9 fc 02 00 bf a2 00 80
       -2.58803e-40 -4.4048e-41 2.74398e-40 -5.8382e-41
0000d0 43 96 02 00 20 6a 02 00 3a 44 02 00 75 18 01 80
       2.37575e-40 2.21741e-40 2.08146e-40 -1.00609e-40
0000e0 a1 94 00 00 96 3f 00 80 1d a1 01 00 c4 e7 00 80
       5.3318e-41 -2.281e-41 1.49632e-40 -8.3142e-41
0000f0 99 2c 02 80 36 62 01 00 3a 13 02 80 23 4f 00 00
       -1.9967e-40 1.27067e-40 -1.90568e-40 2.8389e-41
