gatv2_fold_3.pt (torch, 10562 bytes, 8 tensors)

conv1.att f4 [1, 8, 8]
0	0x0000fb64	9.0182e-41
1	0x800219d1	-1.92932e-40
2	0x800238e3	-2.04078e-40
3	0x80006f25	-3.9871e-41
4	0x000156be	1.22953e-40
5	0x80009a99	-5.5459e-41
6	0x8001a9ee	-1.52795e-40
7	0x8000ac84	-6.1887e-41
8	0x80001a4e	-9.436e-42
9	0x800084a8	-4.7588e-41
10	0x80009d28	-5.6377e-41
11	0x000139cc	1.12569e-40
12	0x00011ed2	1.02892e-40
13	0x8000993d	-5.4972e-41
14	0x8002cba1	-2.56719e-40
15	0x8001de08	-1.71485e-40
16	0x8000c8d5	-7.2045e-41
17	0x0001025b	9.268e-41
18	0x8002a478	-2.42671e-40
19	0x8001d9fe	-1.70036e-40
20	0x8000142e	-7.239e-42
21	0x000033d8	1.8598e-41
22	0x00007ea9	4.5437e-41
23	0x00000860	3.004e-42
24	0x0000d201	7.5335e-41
25	0x0000709d	4.0398e-41
26	0x00006472	3.6033e-41
27	0x000176ef	1.34501e-40
28	0x8000feee	-9.1452e-41
29	0x800178ed	-1.35215e-40
30	0x00005aae	3.253e-41
31	0x00004214	2.3704e-41
32	0x80014ed4	-1.20114e-40
33	0x80009708	-5.418e-41
34	0x80005690	-3.1053e-41
35	0x0000a66d	5.9702e-41
36	0x8000131f	-6.86e-42
37	0x8002f1d9	-2.7043e-40
38	0x80010844	-9.48e-41
39	0x0000d4e9	7.6378e-41
40	0x00008d50	5.0693e-41
41	0x80006e59	-3.9585e-41
42	0x00007f93	4.5765e-41
43	0x800170a6	-1.32246e-40
44	0x800131fb	-1.09765e-40
45	0x00006223	3.5205e-41
46	0x000296a0	2.37705e-40
47	0x800067c7	-3.7228e-41
48	0x8001bdc1	-1.59906e-40
49	0x80013980	-1.12463e-40
50	0x8002373e	-2.03488e-40
51	0x80020a3b	-1.87341e-40
52	0x00008bf8	5.0211e-41
53	0x8002316f	-2.01404e-40
54	0x800061d4	-3.5094e-41
55	0x80029fb2	-2.40959e-40
56	0x80008701	-4.843e-41
57	0x00007654	4.2448e-41
58	0x80032556	-2.889e-40
59	0x0000765b	4.2458e-41
60	0x800010d5	-6.038e-42
61	0x00000ab3	3.838e-42
62	0x800069fd	-3.8021e-41
63	0x800246c3	-2.09056e-40

conv1.bias f4 [64]
0	0x00016fee	1.31988e-40
1	0x00015624	1.22737e-40
2	0x8000f8f6	-8.931e-41
3	0x00010cc8	9.642e-41
4	0x000063e8	3.584e-41
5	0x80007266	-4.1038e-41
6	0x000093dc	5.3042e-41
7	0x0000c6be	7.1295e-41
8	0x0001afa7	1.54848e-40
9	0x00007d9e	4.5063e-41
10	0x8001b3c6	-1.56326e-40
11	0x8000e4bf	-8.2059e-41
12	0x0001454a	1.16692e-40
13	0x800135d3	-1.11144e-40
14	0x00001ad1	9.62e-42
15	0x800006d0	-2.444e-42
16	0x80013eab	-1.14317e-40
17	0x80011efa	-1.02948e-40
18	0x8000bb10	-6.7105e-41
19	0x8000e029	-8.0414e-41
20	0x8000ec6a	-8.481e-41
21	0x000235f4	2.03026e-40
22	0x80029722	-2.37887e-40
23	0x80027ae3	-2.27754e-40
24	0x800249d9	-2.10163e-40
25	0x800096c9	-5.4092e-41
26	0x000160c5	1.2655e-40
27	0x0000792b	4.3467e-41
28	0x800088ce	-4.9076e-41
29	0x80005a1c	-3.2325e-41
30	0x8000b704	-6.5654e-41
31	0x80008447	-4.7452e-41
32	0x8002907e	-2.35505e-40
33	0x80010baa	-9.602e-41
34	0x0001a370	1.50466e-40
35	0x0000b2e8	6.418e-41
36	0x00025357	2.13568e-40
37	0x0001895d	1.41112e-40
38	0x800177c5	-1.34801e-40
39	0x00001a27	9.382e-42
40	0x0000a1a4	5.7986e-41
41	0x8000c8b5	-7.2e-41
42	0x8001cb05	-1.64665e-40
43	0x8000d4fa	-7.6402e-41
44	0x00001945	9.065e-42
45	0x80014c5b	-1.19227e-40
46	0x00007cf1	4.482e-41
47	0x00030b38	2.79531e-40
48	0x8001f0a6	-1.78164e-40
49	0x000193f4	1.44911e-40
50	0x00003a94	2.1014e-41
51	0x80022c73	-1.99616e-40
52	0x00014215	1.15541e-40
53	0x8000f0ad	-8.6338e-41
54	0x0001d168	1.66956e-40
55	0x00000127	4.13e-43
56	0x0000ea01	8.3945e-41
57	0x80001d97	-1.0615e-41
58	0x000144c1	1.165e-40
59	0x80017710	-1.34547e-40
60	0x000055fa	3.0843e-41
61	0x8001491e	-1.18065e-40
62	0x00007c4b	4.4588e-41
63	0x80006a91	-3.8229e-41

conv1.lin_l.weight f4 [64, 9]
0	0x8001550a	-1.22342e-40
1	0x0000b73e	6.5735e-41
2	0x00003b99	2.138e-41
3	0x000107ae	9.459e-41
4	0x00003aa0	2.103e-41
5	0x80029106	-2.35696e-40
6	0x000195b5	1.4554e-40
7	0x00006259	3.528e-41
8	0x000215d2	1.91499e-40
9	0x00027f20	2.29275e-40
10	0x80005277	-2.9583e-41
11	0x0000e458	8.1914e-41
12	0x000241c8	2.07269e-40
13	0x0000d081	7.4797e-41
14	0x80026a03	-2.21701e-40
15	0x8000020d	-7.36e-43
16	0x800020c6	-1.1757e-41
17	0x800177fe	-1.3488e-40
18	0x0000a56e	5.9345e-41
19	0x0000eedf	8.5691e-41
20	0x0002aa39	2.44735e-40
21	0x00018ae5	1.41661e-40
22	0x0001f469	1.79513e-40
23	0x0000ee35	8.5453e-41
24	0x0001a883	1.52286e-40
25	0x8001feaa	-1.83192e-40
26	0x0001a5d3	1.51322e-40
27	0x80012da7	-1.08212e-40
28	0x8000cbf3	-7.3163e-41
29	0x00011975	1.00968e-40
30	0x00009fbe	5.7305e-41
31	0x00016d18	1.30971e-40
32	0x00014076	1.1496e-40
33	0x00012e9b	1.08554e-40
34	0x000039ef	2.0783e-41
35	0x00003877	2.0256e-41
36	0x00024ede	2.11963e-40
37	0x0001ea52	1.75894e-40
38	0x80003a7f	-2.0984e-41
39	0x00006ccb	3.9028e-41
40	0x80004829	-2.5886e-41
41	0x0000228c	1.2393e-41
42	0x8000838c	-4.719e-41
43	0x800181d6	-1.38412e-40
44	0x000236c6	2.0332e-40
45	0x00022113	1.95536e-40
46	0x800196ac	-1.45886e-40
47	0x00006204	3.5161e-41
48	0x8000f2aa	-8.7051e-41
49	0x0000dbb8	7.882e-41
50	0x00018d1c	1.42456e-40
51	0x0000d9ab	7.8085e-41
52	0x80019304	-1.44575e-40
53	0x800276ca	-2.26284e-40
54	0x8000677c	-3.7123e-41
55	0x0000260a	1.3646e-41
56	0x00009f8e	5.7237e-41
57	0x8000b1e2	-6.3812e-41
58	0x0000a1e0	5.807e-41
59	0x0000726a	4.1044e-41
60	0x800318a6	-2.84349e-40
61	0x8001706c	-1.32165e-40
62	0x00013a19	1.12677e-40
63	0x80002524	-1.3324e-41
64	0x8000802c	-4.598e-41
65	0x000015a7	7.767e-42
66	0x80004bd4	-2.7202e-41
67	0x00003389	1.8487e-41
68	0x0000a035	5.7471e-41
69	0x80001585	-7.72e-42
70	0x80002b10	-1.5448e-41
71	0x000114ba	9.9271e-41
72	0x0000ee02	8.5381e-41
73	0x0001518a	1.21086e-40
74	0x0000855e	4.7843e-41
75	0x800179de	-1.35553e-40
76	0x0000652d	3.6295e-41
77	0x8000b658	-6.5413e-41
78	0x00019e29	1.48573e-40
79	0x00003e06	2.225e-41
80	0x80020552	-1.8558e-40
81	0x0001c88b	1.63777e-40
82	0x800039e1	-2.0763e-41
83	0x000285de	2.31693e-40
84	0x8002bd1c	-2.5151e-40
85	0x0001476a	1.17454e-40
86	0x0000a496	5.9042e-41
87	0x0000e122	8.0762e-41
88	0x000320e5	2.87307e-40
89	0x0000fff6	9.1821e-41
90	0x8000039a	-1.292e-42
91	0x8002161b	-1.91601e-40
92	0x0000b48a	6.4765e-41
93	0x0000fd42	9.0852e-41
94	0x0000eb46	8.44e-41
95	0x00029cb6	2.39888e-40
96	0x80015640	-1.22776e-40
97	0x00014895	1.17873e-40
98	0x00002670	1.3789e-41
99	0x800141e9	-1.1548e-40
100	0x0001b2e6	1.56012e-40
101	0x00007a58	4.3889e-41
102	0x8001fe4c	-1.8306e-40
103	0x00009f71	5.7197e-41
104	0x00011d13	1.02265e-40
105	0x0000fd64	9.09e-41
106	0x00004053	2.3075e-41
107	0x800036c7	-1.965e-41
108	0x0000f5a8	8.8125e-41
109	0x80003aae	-2.105e-41
110	0x80000fc2	-5.653e-42
111	0x00003b9c	2.1384e-41
112	0x0000537a	2.9946e-41
113	0x0000fb70	9.0199e-41
114	0x800071b1	-4.0785e-41
115	0x800155c9	-1.2261e-40
116	0x800248dc	-2.09808e-40
117	0x80003aae	-2.105e-41
118	0x8001ff9d	-1.83532e-40
119	0x0000f19a	8.667e-41
120	0x0000346d	1.8807e-41
121	0x00012f8f	1.08896e-40
122	0x000007b1	2.759e-42
123	0x800243bb	-2.07968e-40
124	0x00012278	1.042e-40
125	0x00020a4c	1.87365e-40
126	0x0002d9eb	2.61845e-40
127	0x00006559	3.6357e-41
128	0x0001bb30	1.58986e-40
129	0x000277f3	2.267e-40
130	0x00029a6a	2.39064e-40
131	0x0000b24d	6.3962e-41
132	0x8002297e	-1.98556e-40
133	0x8000456b	-2.4902e-41
134	0x8001493d	-1.18108e-40
135	0x000123bc	1.04655e-40
136	0x80006adb	-3.8333e-41
137	0x00008123	4.6326e-41
138	0x0000a398	5.8686e-41
139	0x0000d375	7.5856e-41
140	0x000299f2	2.38896e-40
141	0x000282e3	2.30624e-40
142	0x8000725a	-4.1022e-41
143	0x8002d462	-2.5986e-40
144	0x8000fc33	-9.0472e-41
145	0x00029855	2.38317e-40
146	0x000053ff	3.0132e-41
147	0x80000546	-1.892e-42
148	0x00004485	2.458e-41
149	0x0000bf32	6.8588e-41
150	0x80022da9	-2.00051e-40
151	0x0000e348	8.1533e-41
152	0x8000977c	-5.4342e-41
153	0x8000148c	-7.371e-42
154	0x80029296	-2.36256e-40
155	0x80000677	-2.319e-42
156	0x80002163	-1.1977e-41
157	0x00005e72	3.388e-41
158	0x00008442	4.7445e-41
159	0x8002a732	-2.4365e-40
160	0x80007a72	-4.3925e-41
161	0x8000f587	-8.8079e-41
162	0x0000b3a5	6.4444e-41
163	0x00025ff1	2.18088e-40
164	0x00012265	1.04174e-40
165	0x80029f54	-2.40827e-40
166	0x0000c57f	7.0848e-41
167	0x0000f0a8	8.6331e-41
168	0x8001154c	-9.9475e-41
169	0x80007d67	-4.4986e-41
170	0x8002b29e	-2.47747e-40
171	0x8001212c	-1.03735e-40
172	0x0000d1b5	7.5229e-41
173	0x000080f3	4.6258e-41
174	0x0002c1de	2.53217e-40
175	0x0000b641	6.538e-41
176	0x0002de5b	2.63437e-40
177	0x0002e3a6	2.65336e-40
178	0x800031d1	-1.7871e-41
179	0x80025b20	-2.1636e-40
180	0x800171cb	-1.32657e-40
181	0x8001bcb7	-1.59534e-40
182	0x00008792	4.8633e-41
183	0x00006135	3.4871e-41
184	0x00005a20	3.2331e-41
185	0x0002db53	2.6235e-40
186	0x000043b1	2.4283e-41
187	0x0000c451	7.0425e-41
188	0x0001bb80	1.59098e-40
189	0x8002d9c3	-2.61789e-40
190	0x00013cee	1.13693e-40
191	0x00008f53	5.1415e-41
192	0x8002a91b	-2.44335e-40
193	0x00008f5d	5.1429e-41
194	0x00005652	3.0966e-41
195	0x800228ef	-1.98355e-40
196	0x00012dc3	1.08252e-40
197	0x80002732	-1.406e-41
198	0x800118d1	-1.00738e-40
199	0x0000a1bf	5.8024e-41
200	0x00005f57	3.4201e-41
201	0x80014ba2	-1.18967e-40
202	0x0000790f	4.3428e-41
203	0x0001644f	1.2782e-40
204	0x80024d1f	-2.11337e-40
205	0x80006fa7	-4.0053e-41
206	0x8001373f	-1.11654e-40
207	0x0000e32d	8.1495e-41
208	0x800179b9	-1.35501e-40
209	0x000048a6	2.6061e-41
210	0x0000bbf2	6.7422e-41
211	0x00004773	2.5631e-41
212	0x80004fa5	-2.8571e-41
213	0x0000b293	6.406e-41
214	0x00025bb3	2.16566e-40
215	0x0001b6e7	1.57448e-40
216	0x8000d55e	-7.6542e-41
217	0x0000a3cc	5.8759e-41
218	0x00008a96	4.9715e-41
219	0x8001d900	-1.6968e-40
220	0x0000f0cb	8.638e-41
221	0x00014349	1.15973e-40
222	0x000141b5	1.15407e-40
223	0x0001d600	1.68604e-40
224	0x00012887	1.06374e-40
225	0x8002acc8	-2.45653e-40
226	0x8001ee8d	-1.77411e-40
227	0x00006b82	3.8567e-41
228	0x800165ca	-1.2835e-40
229	0x00008cb8	5.048e-41
230	0x0000d665	7.691e-41
231	0x800111d1	-9.8227e-41
232	0x0002cbf8	2.56841e-40
233	0x80025f46	-2.17849e-40
234	0x80028886	-2.32646e-40
235	0x0001693c	1.29586e-40
236	0x00005dc0	3.3631e-41
237	0x00007097	4.039e-41
238	0x800158b4	-1.23656e-40
239	0x000288bf	2.32726e-40
240	0x00013ddf	1.1403e-40
241	0x0001973e	1.46091e-40
242	0x8001f3be	-1.79274e-40
243	0x00004199	2.3532e-41
244	0x00007d63	4.498e-41
245	0x00000d62	4.801e-42
246	0x800093c2	-5.3006e-41
247	0x00004938	2.6266e-41
248	0x000169ef	1.29837e-40
249	0x00005c22	3.3051e-41
250	0x80004892	-2.6033e-41
251	0x80004dac	-2.7863e-41
252	0x00002ae5	1.5388e-41
253	0x0001ad85	1.54083e-40
254	0x000013c2	7.088e-42
255	0x00012499	1.04964e-40

conv1.lin_l.bias f4 [64]
0	0x00022852	1.98135e-40
1	0x8001f943	-1.81254e-40
2	0x8002a457	-2.42625e-40
3	0x8000281a	-1.4386e-41
4	0x80030d52	-2.80285e-40
5	0x00002ad7	1.5368e-41
6	0x80006b06	-3.8393e-41
7	0x8001fbb9	-1.82137e-40
8	0x000041fc	2.3671e-41
9	0x800217ad	-1.92164e-40
10	0x80008db4	-5.0834e-41
11	0x0000d13f	7.5063e-41
12	0x0000e667	8.2653e-41
13	0x80005a98	-3.2499e-41
14	0x000135f4	1.1119e-40
15	0x80002d89	-1.6335e-41
16	0x80019322	-1.44617e-40
17	0x00015179	1.21062e-40
18	0x00009d1f	5.6364e-41
19	0x80024db9	-2.11553e-40
20	0x80017e4f	-1.37146e-40
21	0x80015e49	-1.25659e-40
22	0x000072aa	4.1134e-41
23	0x00015b64	1.2462e-40
24	0x80012746	-1.05924e-40
25	0x0000e562	8.2287e-41
26	0x00001633	7.964e-42
27	0x8001280e	-1.06204e-40
28	0x80028349	-2.30767e-40
29	0x800094ee	-5.3426e-41
30	0x80008a9f	-4.9728e-41
31	0x8001e47f	-1.73804e-40
32	0x80005749	-3.1312e-41
33	0x8001b8c1	-1.58113e-40
34	0x8001a242	-1.50043e-40
35	0x00015aa6	1.24354e-40
36	0x0000beb3	6.841e-41
37	0x800141be	-1.1542e-40
38	0x800057a2	-3.1437e-41
39	0x00008924	4.9197e-41
40	0x80009134	-5.2089e-41
41	0x00005b9b	3.2862e-41
42	0x8001b75a	-1.5761e-40
43	0x80000b36	-4.022e-42
44	0x800193ff	-1.44926e-40
45	0x00029a60	2.3905e-40
46	0x0001d9d0	1.69972e-40
47	0x0001b5bb	1.57028e-40
48	0x00008d3d	5.0667e-41
49	0x8000d1f9	-7.5324e-41
50	0x00019333	1.4464e-40
51	0x80018294	-1.38678e-40
52	0x00016fa8	1.3189e-40
53	0x0000d511	7.6434e-41
54	0x0001fe26	1.83007e-40
55	0x000079b0	4.3653e-41
56	0x0001460b	1.16962e-40
57	0x8001837b	-1.39002e-40
58	0x0002abf3	2.45355e-40
59	0x80007a59	-4.389e-41
60	0x8000b256	-6.3975e-41
61	0x8002069d	-1.86043e-40
62	0x8000a359	-5.8598e-41
63	0x0000b746	6.5746e-41

conv1.lin_r.weight f4 [64, 9]
0	0x8000a200	-5.8115e-41
1	0xabf4b6a8	-1.738794e-12
2	0x80015347	-1.2171e-40
3	0x00006752	3.7064e-41
4	0x80011852	-1.0056e-40
5	0x8001d3cd	-1.67815e-40
6	0x2cc8f79c	5.711832e-12
7	0x80029945	-2.38654e-40
8	0x3100a5d8	1.8720723e-09
9	0x0000648e	3.6072e-41
10	0xb0d97809	-1.5822944e-09
11	0x00006544	3.6327e-41
12	0x00005ae2	3.2603e-41
13	0x8002c9ff	-2.56134e-40
14	0x0002265b	1.9743e-40
15	0x800033de	-1.8606e-41
16	0x80004bad	-2.7147e-41
17	0x34109408	1.3464899e-07
18	0x000170f3	1.32354e-40
19	0x31949a88	4.324935e-09
20	0x00024166	2.07132e-40
21	0x0000c300	6.9953e-41
22	0x8000e455	-8.191e-41
23	0x8001eab9	-1.76038e-40
24	0x00008c15	5.0252e-41
25	0x800073f1	-4.1592e-41
26	0x2c34c7c5	2.5690433e-12
27	0x00009bd8	5.5906e-41
28	0x328ed0e0	1.6625961e-08
29	0x00015e50	1.25668e-40
30	0x80007126	-4.059e-41
31	0x80007270	-4.1052e-41
32	0x00012e9f	1.0856e-40
33	0x000057c1	3.148e-41
34	0x80000f5f	-5.514e-42
35	0x800321d0	-2.87636e-40
36	0x00015710	1.23068e-40
37	0x80023ca3	-2.05423e-40
38	0x000000d8	3.03e-43
39	0x80008dd3	-5.0877e-41
40	0x80005f88	-3.427e-41
41	0x00013157	1.09535e-40
42	0xaf953d1d	-2.7146366e-10
43	0x80017ad6	-1.35901e-40
44	0xb0a86ddc	-1.2254833e-09
45	0x80011e6e	-1.02752e-40
46	0x3255b576	1.2439491e-08
47	0x0002b597	2.48813e-40
48	0x8000102d	-5.803e-42
49	0x00027250	2.24679e-40
50	0x80025ef7	-2.17738e-40
51	0x2d8f1e6c	1.6270728e-11
52	0x325ddada	1.2913654e-08
53	0x35b5b2f8	1.3537638e-06
54	0x000142ac	1.15753e-40
55	0x00023554	2.02802e-40
56	0x000066cb	3.6875e-41
57	0x0002ea79	2.67784e-40
58	0x8000494d	-2.6295e-41
59	0x0001f2ff	1.79006e-40
60	0x0002ff2e	2.75212e-40
61	0x000060fb	3.479e-41
62	0xadd0a8aa	-2.3721764e-11
63	0x00021583	1.91388e-40
64	0x8001ff9b	-1.8353e-40
65	0x0000e72d	8.293e-41
66	0x80015a8f	-1.24322e-40
67	0x0000c9f0	7.2442e-41
68	0x00024250	2.0746e-40
69	0xb603de46	-1.9649901e-06
70	0x0000eb02	8.4305e-41
71	0x30511ce4	7.6074813e-10
72	0x00009ee1	5.6995e-41
73	0xb16335f2	-3.3063512e-09
74	0x000211ee	1.90103e-40
75	0x800067aa	-3.7188e-41
76	0x80003ac2	-2.1078e-41
77	0x0000b102	6.3498e-41
78	0xad93d289	-1.6805462e-11
79	0x00031a70	2.8499e-40
80	0x34810220	2.4029669e-07
81	0x0001bf95	1.60562e-40
82	0x8000e9ee	-8.3918e-41
83	0x0000ee78	8.5546e-41
84	0x0000cbf5	7.3166e-41
85	0x80017833	-1.34955e-40
86	0x0000e7d6	8.3167e-41
87	0x00020e5d	1.88824e-40
88	0x8000a9b8	-6.0884e-41
89	0x00030de9	2.80497e-40
90	0x80012b5a	-1.07387e-40
91	0x2dca84c8	2.3023708e-11
92	0x80000873	-3.031e-42
93	0xac736d58	-3.4593075e-12
94	0x00025094	2.12577e-40
95	0x0000e9cc	8.387e-41
96	0xb5c95df4	-1.5003011e-06
97	0x390de823	0.00013533286
98	0x39f8fb22	0.00047489355
99	0x0000145a	7.301e-42
100	0xada247d8	-1.8449173e-11
101	0x0001d218	1.67203e-40
102	0x000200f7	1.84017e-40
103	0x80007f7f	-4.5737e-41
104	0x8000cc24	-7.3232e-41
105	0xb6832553	-3.9084493e-06
106	0x8001c4c5	-1.62423e-40
107	0x35027ff7	4.861499e-07
108	0x80004e39	-2.8061e-41
109	0x3105dfab	1.9481188e-09
110	0x80031e65	-2.8641e-40
111	0x8000e684	-8.2693e-41
112	0x00004556	2.4873e-41
113	0x800257d2	-2.15175e-40
114	0x31da2d10	6.349758e-09
115	0x80021831	-1.92349e-40
116	0xac03279c	-1.8638207e-12
117	0x800192a5	-1.44442e-40
118	0x80005b6b	-3.2795e-41
119	0x00014af0	1.18718e-40
120	0xaeef65d2	-1.08865486e-10
121	0x00006ad4	3.8323e-41
122	0x00028940	2.32907e-40
123	0x374df52d	1.2276037e-05
124	0x80009a7c	-5.5419e-41
125	0x3488bb10	2.546808e-07
126	0x8000cd7e	-7.3717e-41
127	0x8000304b	-1.7324e-41
128	0x8001cbff	-1.65016e-40
129	0x00014d8f	1.19658e-40
130	0x80010738	-9.4425e-41
131	0x800128b6	-1.0644e-40
132	0x00012b7a	1.07432e-40
133	0x000133a7	1.10365e-40
134	0x2a4335f6	1.73382e-13
135	0x0000596c	3.2079e-41
136	0x80015148	-1.20994e-40
137	0x0002d614	2.60468e-40
138	0x000028e1	1.4665e-41
139	0x00013acf	1.12932e-40
140	0x00014577	1.16755e-40
141	0x3959cfb9	0.00020772115
142	0x0001d982	1.69863e-40
143	0x38036fb8	3.133688e-05
144	0x0001db0f	1.70419e-40
145	0x36f10749	7.183208e-06
146	0x8002b373	-2.48045e-40
147	0x39c3c918	0.00037343125
148	0x80001e1c	-1.0801e-41
149	0x80024501	-2.08425e-40
150	0xad7438d9	-1.3882417e-11
151	0x8002ef62	-2.69545e-40
152	0xb2aa2b9c	-1.9810436e-08
153	0x8000f124	-8.6505e-41
154	0xafe5198a	-4.1673004e-10
155	0x00001ae3	9.645e-42
156	0xaa4719ba	-1.7683676e-13
157	0x0002a2d8	2.42088e-40
158	0x00019e03	1.4852e-40
159	0x3a0ab08b	0.0005290589
160	0x0001c538	1.62584e-40
161	0xb7d3f516	-2.5267287e-05
162	0x00000633	2.224e-42
163	0xb14152f0	-2.813234e-09
164	0x8001f511	-1.79749e-40
165	0x0002518d	2.12926e-40
166	0x80017727	-1.3458e-40
167	0x80025d1b	-2.17071e-40
168	0x00012237	1.0411e-40
169	0x0001d21e	1.67211e-40
170	0x2f1c1d8c	1.4198615e-10
171	0x800211be	-1.90036e-40
172	0x2c206e68	2.2798655e-12
173	0x00013954	1.12401e-40
174	0x2d164957	8.5427975e-12
175	0x0000d4b0	7.6298e-41
176	0x00019f65	1.49015e-40
177	0x2c0aa4e8	1.970252e-12
178	0x000203c9	1.85029e-40
179	0xacab0a36	-4.861246e-12
180	0x8000bb5f	-6.7216e-41
181	0xb7a9b1b4	-2.022912e-05
182	0x00001b3b	9.768e-42
183	0x0000196d	9.121e-42
184	0x0000f33f	8.726e-41
185	0x00008e47	5.104e-41
186	0x000323cc	2.88348e-40
187	0x00006aef	3.836e-41
188	0xb77d6770	-1.5104059e-05
189	0x00017071	1.32172e-40
190	0x000254aa	2.14043e-40
191	0x00014353	1.15987e-40
192	0x80020542	-1.85557e-40
193	0x0000c2d1	6.9887e-41
194	0x00016406	1.27717e-40
195	0x8001bec3	-1.60268e-40
196	0x80009947	-5.4986e-41
197	0xb7d86a86	-2.579881e-05
198	0x800140f5	-1.15138e-40
199	0x80008e3f	-5.1028e-41
200	0x000034ff	1.9011e-41
201	0x35e30620	1.69146e-06
202	0x800223a0	-1.96451e-40
203	0x00007d09	4.4854e-41
204	0x8000fea9	-9.1355e-41
205	0x80025392	-2.1365e-40
206	0xad517372	-1.19059086e-11
207	0x800113d9	-9.8955e-41
208	0xb83b77d4	-4.4695873e-05
209	0x80000524	-1.844e-42
210	0xb0ac111e	-1.2519512e-09
211	0x00019d88	1.48347e-40
212	0x0001d2be	1.67436e-40
213	0xb353cc0a	-4.931284e-08
214	0x80022640	-1.97393e-40
215	0xb597b21f	-1.1302217e-06
216	0x00017f95	1.37603e-40
217	0x000278f5	2.27062e-40
218	0x0001bf6c	1.60505e-40
219	0xb770bcae	-1.4349045e-05
220	0x800009a8	-3.464e-42
221	0x00020ba7	1.87851e-40
222	0xb882fd03	-6.24601e-05
223	0x00005f63	3.4218e-41
224	0xb38160ca	-6.0246364e-08
225	0x800198dc	-1.46671e-40
226	0x80025400	-2.13805e-40
227	0x80028990	-2.33019e-40
228	0x34c1dae8	3.6108327e-07
229	0x800046f3	-2.5452e-41
230	0x8001cb06	-1.64667e-40
231	0x3152b7a7	3.0663416e-09
232	0x8000747d	-4.1788e-41
233	0x3037e6b4	6.690286e-10
234	0x8000dd04	-7.9285e-41
235	0xb098fa24	-1.113055e-09
236	0x0001e802	1.75064e-40
237	0x8000b969	-6.6513e-41
238	0x8001d877	-1.69488e-40
239	0x80011b0e	-1.01541e-40
240	0xad50ad62	-1.186193e-11
241	0x0002a80e	2.43958e-40
242	0x8002114b	-1.89875e-40
243	0x00016f67	1.31799e-40
244	0x00006002	3.4441e-41
245	0x8000fda5	-9.099e-41
246	0x80009c73	-5.6123e-41
247	0x800103e2	-9.3228e-41
248	0x8001db46	-1.70496e-40
249	0x3208c7b4	7.961649e-09
250	0x800322f9	-2.88052e-40
251	0x2c2bba2a	2.4403903e-12
252	0x80007750	-4.2801e-41
253	0x0000252e	1.3338e-41
254	0x00023a96	2.04688e-40
255	0xb5dd98b4	-1.6510226e-06

conv1.lin_r.bias f4 [64]
0	0xacc1a9a6	-5.5042247e-12
1	0x80009793	-5.4375e-41
2	0x800076a9	-4.2567e-41
3	0x00001ea5	1.0993e-41
4	0x80015478	-1.22137e-40
5	0x00017118	1.32406e-40
6	0xb4d34640	-3.9352926e-07
7	0x80027e76	-2.29037e-40
8	0x33d20da5	9.781369e-08
9	0x80027424	-2.25334e-40
10	0x00032b8d	2.9113e-40
11	0xb47f2e20	-2.3765506e-07
12	0x0002f25f	2.70617e-40
13	0x0000182b	8.67e-42
14	0x0003110a	2.81619e-40
15	0x00009455	5.3212e-41
16	0x80019c8f	-1.47998e-40
17	0xb505e6c4	-4.988217e-07
18	0x000124fb	1.05102e-40
19	0x8001a0ca	-1.49516e-40
20	0x0001696b	1.29652e-40
21	0x00021a10	1.9302e-40
22	0x80002a35	-1.5141e-41
23	0x34263930	1.548076e-07
24	0x00020c4e	1.88085e-40
25	0xabb58dca	-1.2900178e-12
26	0x80018b52	-1.41814e-40
27	0x80029186	-2.35875e-40
28	0x8002f46d	-2.71354e-40
29	0x0000fc27	9.0455e-41
30	0x000104fc	9.3624e-41
31	0x2ca0669e	4.5588663e-12
32	0x2bfaac3a	1.7811371e-12
33	0x0000e9d8	8.3887e-41
34	0x80028031	-2.29657e-40
35	0x80004a71	-2.6705e-41
36	0xb7da406f	-2.601763e-05
37	0x8001ced7	-1.66036e-40
38	0x8002d7a8	-2.61034e-40
39	0xb6604706	-3.3419942e-06
40	0x00004832	2.5899e-41
41	0xaacf1d74	-3.6791024e-13
42	0x000159ba	1.24023e-40
43	0x8001dca0	-1.70981e-40
44	0x2d7895b0	1.4130405e-11
45	0x800192a3	-1.44439e-40
46	0x0001a93c	1.52545e-40
47	0x800017ee	-8.584e-42
48	0x80005075	-2.8863e-41
49	0x80004138	-2.3396e-41
50	0x80017d80	-1.36856e-40
51	0x0002caae	2.56379e-40
52	0x00016f0d	1.31673e-40
53	0x0002a18f	2.41627e-40
54	0x2c5d8b97	3.1483477e-12
55	0x80004b37	-2.6982e-41
56	0x8000395c	-2.0577e-41
57	0x8000d3f4	-7.6034e-41
58	0x800038db	-2.0396e-41
59	0x800074af	-4.1858e-41
60	0x0002a43c	2.42587e-40
61	0x8002919d	-2.35907e-40
62	0x0001fcc2	1.82508e-40
63	0x0000d31c	7.5732e-41

conv2.lin_l.weight f4 [1, 64]
0	0x00000011	2.4e-44
1	0x80000055	-1.19e-43
2	0x0000002f	6.6e-44
3	0x0000001b	3.8e-44
4	0x80000029	-5.7e-44
5	0x00000024	5e-44
6	0x00000051	1.14e-43
7	0x80000056	-1.2e-43
8	0x8000001c	-3.9e-44
9	0x0000001e	4.2e-44
10	0x80000020	-4.5e-44
11	0x0000000a	1.4e-44
12	0x8000000b	-1.5e-44
13	0x00000004	6e-45
14	0x0000006c	1.51e-43
15	0x00000049	1.02e-43
16	0x8000004c	-1.06e-43
17	0x80000034	-7.3e-44
18	0x80000065	-1.42e-43
19	0x80000023	-4.9e-44
20	0x00000037	7.7e-44
21	0x8000000a	-1.4e-44
22	0x0000004a	1.04e-43
23	0x00000054	1.18e-43
24	0x0000000c	1.7e-44
25	0x80000033	-7.1e-44
26	0x8000004e	-1.1e-43
27	0x80000034	-7.3e-44
28	0x0000002d	6.3e-44
29	0x00000042	9.2e-44
30	0x00000034	7.3e-44
31	0x00000017	3.2e-44
32	0x00000025	5.2e-44
33	0x80000060	-1.35e-43
34	0x0000002c	6.2e-44
35	0x00000046	9.8e-44
36	0x80000032	-7e-44
37	0x00000003	4e-45
38	0x00000043	9.4e-44
39	0x80000007	-1e-44
40	0x80000083	-1.84e-43
41	0x00000010	2.2e-44
42	0x00000020	4.5e-44
43	0x8000006d	-1.53e-43
44	0x8000000b	-1.5e-44
45	0x8000002d	-6.3e-44
46	0x0000002d	6.3e-44
47	0x80000028	-5.6e-44
48	0x00000010	2.2e-44
49	0x0000004f	1.11e-43
50	0x00000016	3.1e-44
51	0x80000004	-6e-45
52	0x80000017	-3.2e-44
53	0x000002b1	9.65e-43
54	0x0000001c	3.9e-44
55	0x80000025	-5.2e-44
56	0x0000000a	1.4e-44
57	0x80000019	-3.5e-44
58	0x0000000b	1.5e-44
59	0x80000017	-3.2e-44
60	0x80000028	-5.6e-44
61	0x00000023	4.9e-44
62	0x0000003d	8.5e-44
63	0x80000061	-1.36e-43

conv2.lin_r.weight f4 [1, 64]
0	0x800125f5	-1.05452e-40
1	0x8000c54f	-7.0781e-41
2	0x8001d5e8	-1.6857e-40
3	0x80016aed	-1.30193e-40
4	0x800211bd	-1.90034e-40
5	0x0000a784	6.0093e-41
6	0x800100dc	-9.2144e-41
7	0x80029549	-2.37224e-40
8	0x000044ad	2.4636e-41
9	0x00024c89	2.11127e-40
10	0x80007a6c	-4.3917e-41
11	0x0000225b	1.2324e-41
12	0x800084c5	-4.7629e-41
13	0x8000d55d	-7.654e-41
14	0x800058a5	-3.18e-41
15	0x80001f36	-1.1196e-41
16	0x8001b5c2	-1.57038e-40
17	0x8001ebc8	-1.76418e-40
18	0x800256a7	-2.14756e-40
19	0x80019167	-1.43996e-40
20	0x800158cd	-1.23691e-40
21	0x8000a4c0	-5.9101e-41
22	0x8000cec7	-7.4178e-41
23	0x8002e194	-2.64593e-40
24	0x8002d44f	-2.59833e-40
25	0x00007801	4.3049e-41
26	0x8001cd4b	-1.65481e-40
27	0x8001d8b0	-1.69568e-40
28	0x8001363e	-1.11294e-40
29	0x80026a88	-2.21887e-40
30	0x8001af9a	-1.5483e-40
31	0x80002250	-1.2309e-41
32	0x800289fa	-2.33168e-40
33	0x8002dc8c	-2.62788e-40
34	0x8000181e	-8.652e-42
35	0x8000e080	-8.0535e-41
36	0x80015896	-1.23614e-40
37	0x80001032	-5.81e-42
38	0x0000dc10	7.8944e-41
39	0x800078a8	-4.3283e-41
40	0x8000cf5d	-7.4388e-41
41	0x000024bc	1.3178e-41
42	0x800106fd	-9.4342e-41
43	0x8001b68b	-1.5732e-40
44	0x80006fbb	-4.0081e-41
45	0x8001a334	-1.50382e-40
46	0x80021ef6	-1.94778e-40
47	0x80010f6f	-9.7372e-41
48	0x8000bcae	-6.7686e-41
49	0x800102ac	-9.2794e-41
50	0x80015a40	-1.24211e-40
51	0x80021f2a	-1.9485e-40
52	0x8001a6e6	-1.51707e-40
53	0x8000cbe5	-7.3144e-41
54	0x00003681	1.9552e-41
55	0x8002180a	-1.92295e-40
56	0x0001b5f4	1.57108e-40
57	0x80014310	-1.15893e-40
58	0x8000a70a	-5.9922e-41
59	0x8000ee98	-8.5591e-41
60	0x0001df0c	1.7185e-40
61	0x80006c18	-3.8777e-41
62	0x8002bc75	-2.51277e-40
63	0x80003afa	-2.1157e-41
