gatv2_fold_9.pt (torch, 10562 bytes, 8 tensors)

conv1.att f4 [1, 8, 8]
2.7055e-41 1.24103e-40 -3.3365e-41 -4.3463e-41 -1.28198e-40 3.8254e-41 -1.15386e-40 1.19047e-40
-1.00271e-40 8.5513e-41 -2.24268e-40 1.69757e-40 7.7116e-41 3.5516e-41 1.59933e-40 1.14608e-40
5.5371e-41 4.2424e-41 2.54434e-40 -2.12499e-40 -1.31066e-40 -1.36887e-40 4.1268e-41 1.60458e-40
5.428e-41 6.8245e-41 6.7362e-41 -2.4737e-41 1.36683e-40 4.5011e-41 1.0574e-40 5.6149e-41
-1.86444e-40 4.5262e-41 -2.67735e-40 -2.60231e-40 -1.26097e-40 -1.00962e-40 1.17996e-40 8.8552e-41
-1.10443e-40 -2.40991e-40 1.6338e-41 -9.1121e-41 5.8887e-41 -8.8856e-41 1.21291e-40 -2.6393e-41
4.978e-41 4.4584e-41 -1.63904e-40 -9.5178e-41 -1.6353e-41 2.48341e-40 -1.53474e-40 3.4116e-41
-2.1824e-40 -1.95781e-40 1.83665e-40 3.9528e-41 1.90449e-40 -5.4533e-41 1.03672e-40 2.27051e-40
00000000: 6b4b 0000 f359 0100 025d 0080 2879 0080
00000010: 5d65 0180 a36a 0000 a641 0180 db4b 0100
00000020: 8417 0180 60ee 0000 2b71 0280 37d9 0100
00000030: f8d6 0000 0163 0000 d4bd 0100 7b3f 0100
00000040: 5a9a 0000 4376 0000 42c5 0200 5c50 0280
00000050: 5c6d 0180 967d 0180 0a73 0000 4bbf 0100
00000060: 5097 0000 3dbe 0000 c7bb 0000 f544 0080
00000070: 047d 0100 797d 0000 c326 0100 859c 0000
00000080: bb07 0280 2c7e 0000 56ea 0280 6bd5 0280
00000090: 825f 0180 7119 0180 ed48 0100 d9f6 0000
000000a0: df33 0180 c99f 0280 8b2d 0000 02fe 0080
000000b0: 27a4 0000 b2f7 0080 1c52 0100 9349 0080
000000c0: c48a 0000 487c 0000 e6c8 0180 5109 0180
000000d0: 962d 0080 46b4 0200 d3ab 0180 1a5f 0000
000000e0: 5d60 0280 c221 0280 fcff 0100 306e 0000
000000f0: e512 0200 0498 0080 ff20 0100 ed78 0200

conv1.bias f4 [64]
1.00128e-40 6.5257e-41 -6.9726e-41 -1.35937e-40 4.9588e-41 -8.876e-42 -1.87327e-40 -1.9227e-41
-1.0731e-40 -8.7826e-41 -9.6402e-41 3.784e-41 -1.7052e-41 2.30376e-40 -7.2383e-41 -2.16777e-40
4.694e-42 2.9633e-41 9.5916e-41 1.6506e-40 -5.0826e-41 -9.3453e-41 -1.40617e-40 -1.60139e-40
3.3085e-41 -8.4372e-41 -9.5703e-41 7.3607e-41 1.2715e-40 -8.5259e-41 -2.4547e-41 4.2116e-41
-1.46538e-40 2.2166e-40 3.8766e-41 5.6701e-41 -1.1768e-40 1.57477e-40 1.99871e-40 1.0019e-41
1.36586e-40 1.08218e-40 4.3177e-41 2.68e-43 -4.1752e-41 1.13827e-40 -1.2249e-41 -6.2642e-41
-7.8127e-41 -6.3157e-41 1.55806e-40 -1.02036e-40 4.158e-41 -7.6992e-41 1.2335e-40 1.24526e-40
9.666e-42 -2.25165e-40 1.07702e-40 3.3759e-41 3.5206e-41 3.9337e-41 -1.13969e-40 8.9561e-41
00000000: 1e17 0100 e9b5 0000 5ec2 0080 f07a 0180
00000010: 3b8a 0000 be18 0080 310a 0280 9935 0080
00000020: 232b 0180 d3f4 0080 bb0c 0180 7c69 0000
00000030: 892f 0080 3282 0200 c6c9 0080 495c 0280
00000040: 160d 0000 9b52 0000 600b 0100 1fcc 0100
00000050: af8d 0080 8204 0180 fc87 0180 67be 0180
00000060: 3a5c 0000 32eb 0080 c80a 0180 30cd 0000
00000070: 7162 0100 abed 0080 6d44 0080 6775 0000
00000080: 7d98 0180 e669 0200 106c 0000 0f9e 0000
00000090: 0b48 0180 fbb6 0100 292d 0200 ee1b 0000
000000a0: bf7c 0100 ab2d 0100 5c78 0000 bf00 0000
000000b0: 6374 0080 4e3d 0100 2522 0080 9fae 0080
000000c0: c9d9 0080 0eb0 0080 53b2 0100 6f1c 0180
000000d0: e873 0000 9fd6 0080 da57 0100 215b 0100
000000e0: f21a 0000 ab73 0280 3b2c 0100 1b5e 0000
000000f0: 2462 0000 a86d 0000 b33d 0180 a9f9 0000

conv1.lin_l.weight f4 [64, 9]
-7.6794e-41 -2.0578e-41 3.7604e-41 -1.31798e-40 5.2155e-41 -6.0893e-41 2.35879e-40 -2.75725e-40
7.0033e-41 2.32572e-40 4.18e-41 3.3785e-41 -1.2767e-41 7.716e-42 9.62e-42 -9.3471e-41
6.1039e-41 7.3862e-41 7.807e-42 -2.44605e-40 7.0041e-41 9.5731e-41 4.91e-42 2.59485e-40
1.75755e-40 3.2147e-41 -2.11837e-40 -8.0192e-41 2.8714e-41 9.7093e-41 2.5943e-40 4.5352e-41
-1.68004e-40 1.08046e-40 2.61891e-40 8.3803e-41 1.64972e-40 -8.5666e-41 8.0412e-41 -6.4615e-41
1.09752e-40 1.0972e-40 1.35873e-40 6.4528e-41 4.7037e-41 -5.9903e-41 1.65356e-40 -6.2421e-41
9.8619e-41 5.9625e-41 6.3114e-41 -2.68689e-40 4.3531e-41 -2.5131e-41 -9.5095e-41 -9.4745e-41
1.9516e-40 8.1619e-41 1.9953e-40 5.9594e-41 -1.18334e-40 -1.28964e-40 9.4389e-41 -8.9721e-41
-2.68112e-40 -3.1014e-41 -7.34e-42 -2.9186e-41 -4.8736e-41 -3.3946e-41 7.5194e-41 -3.3386e-41
1.661e-41 1.86649e-40 6.0173e-41 9.6628e-41 2.11e-41 7.4179e-41 -2.06438e-40 2.56265e-40
-2.8357e-41 1.53434e-40 2.33595e-40 1.6027e-41 2.2405e-41 2.7286e-41 3.4094e-41 -3.4719e-41
1.2456e-40 2.81618e-40 8.527e-42 -1.34288e-40 2.14275e-40 -4.9135e-41 4.2029e-41 -9.9503e-41
-1.75595e-40 -5.311e-41 6.4405e-41 -4.551e-41 1.80702e-40 -2.6717e-41 -7.8143e-41 -9.889e-42
-3.233e-41 -3.126e-42 1.6831e-40 -1.58352e-40 -6.4656e-41 1.92041e-40 1.0933e-41 2.31939e-40
3.5087e-41 -2.10022e-40 -5.97e-43 1.13422e-40 7.74e-42 2.04615e-40 1.5318e-41 2.6475e-41
1.85233e-40 4.4006e-41 2.937e-42 -2.5584e-41 1.86056e-40 2.13597e-40 -1.82344e-40 5.2795e-41
-3.6557e-41 1.2721e-40 1.69133e-40 5.0137e-41 -1.22283e-40 3.5763e-41 2.487e-40 8.0729e-41
2.9024e-41 1.862e-41 -3.7062e-41 2.82189e-40 1.14335e-40 -1.81437e-40 -1.08133e-40 1.8083e-40
8.8037e-41 -7.5625e-41 9.729e-42 -4.4532e-41 3.2661e-41 7.4839e-41 -1.87902e-40 1.48029e-40
1.37424e-40 1.96476e-40 -1.899e-40 1.4792e-41 8.0555e-41 1.4718e-41 5.0109e-41 3.8782e-41
2.4783e-40 -2.21444e-40 -1.9942e-40 5.522e-41 3.6083e-41 -6.094e-42 4.874e-41 2.01612e-40
1.65835e-40 5.9538e-41 -1.77718e-40 -1.0528e-41 -2.71069e-40 2.8608e-41 -4.1274e-41 -4.835e-41
1.37937e-40 2.61034e-40 1.68729e-40 1.7148e-40 1.4836e-41 -2.50681e-40 2.42548e-40 -4.4937e-41
2.8437e-40 2.05457e-40 2.04141e-40 3.4693e-41 2.8963246e-10 -8.0357e-41 -2.03205e-40 9.469e-42
1.67577e-40 4.6648e-41 1.274e-41 6.2153e-41 1.40725e-40 2.44719e-40 1.81677e-40 -6.0905e-41
4.6686e-41 9.1904e-41 5.1358e-41 1.19197e-40 1.67336e-40 5.7197e-41 1.6489e-41 -6.3936e-41
-9.3768e-41 2.1964e-41 4.8144e-41 6.4003e-41 2.19076e-40 -2.65416e-40 -1.00865e-40 -1.15572e-40
8.6146e-41 8.8006e-41 2.299e-41 -6.0233e-41 1.849e-41 2.07e-43 9.5095e-41 2.24924e-40
-2.09425e-40 -9.1098e-41 -5.3835e-41 5.3172e-41 -2.7667e-40 4.7487e-41 8.6707e-41 -9.1435e-41
1.19102e-40 -2.07528e-40 -2.8083e-41 9.7634e-41 5.5639e-41 8.0069e-41 6.6046e-41 8.7647e-41
9.5484e-41 1.03455e-40 4.8303e-41 5.6517e-41 -1.07279e-40 3.8922e-41 -1.5054e-41 -7.4651e-41
9.0465e-41 -1.94615e-40 -2.19351e-40 -5.1138e-41 1.06535e-40 -2.089e-41 4.9113e-41 1.40421e-40
00000000: 12d6 0080 5d39 0080 d368 0000 666f 0180
00000010: 6391 0000 bfa9 0080 8991 0200 9c00 0380
00000020: 39c3 0000 5188 0200 8574 0000 2e5e 0000
00000030: 9723 0080 8215 0000 d11a 0000 8f04 0180
00000040: 27aa 0000 e6cd 0000 c315 0000 dca9 0280
00000050: 3fc3 0000 dc0a 0100 b00d 0000 57d3 0200
00000060: efe9 0100 9d59 0000 844e 0280 8bdf 0080
00000070: 0b50 0000 a80e 0100 2fd3 0200 6c7e 0000
00000080: 54d4 0180 302d 0100 0cda 0200 9ce9 0000
00000090: e0cb 0100 cdee 0080 28e0 0000 1fb4 0080
000000a0: f231 0100 db31 0100 c27a 0100 e1b3 0000
000000b0: 1f83 0000 fca6 0080 f2cc 0100 01ae 0080
000000c0: e912 0100 36a6 0000 f0af 0000 ffec 0280
000000d0: 5979 0000 0e46 0080 1609 0180 1c08 0180
000000e0: 0720 0200 85e3 0000 352c 0200 20a6 0000
000000f0: de49 0180 8067 0180 1e07 0100 1bfa 0080
00000100: 63eb 0280 7456 0080 7614 0080 5c51 0080
00000110: db87 0080 a15e 0080 9cd1 0000 115d 0080
00000120: 4d2e 0000 4d08 0200 bda7 0000 5c0d 0100
00000130: d13a 0000 c8ce 0000 773f 0280 5dca 0200
00000140: 0c4f 0080 b6ab 0100 2b8b 0200 ad2c 0000
00000150: 753e 0000 104c 0000 0a5f 0000 c860 0080
00000160: 395b 0100 0911 0300 c517 0000 5776 0180
00000170: 5055 0200 f888 0080 2975 0000 6015 0180
00000180: 7de9 0180 0d94 0080 89b3 0000 dd7e 0080
00000190: b9f7 0100 7a4a 0080 d5d9 0080 911b 0080
000001a0: 1f5a 0080 b708 0080 2ed5 0100 6cb9 0180
000001b0: 3cb4 0080 5517 0200 7a1e 0000 8d86 0200
000001c0: cf61 0000 7549 0280 aa01 0080 2d3c 0100
000001d0: 9315 0000 623a 0200 b32a 0000 cd49 0000
000001e0: 5b04 0200 ac7a 0000 3008 0000 5147 0080
000001f0: a606 0200 6c53 0200 4dfc 0180 2c93 0000
00000200: e865 0080 9c62 0100 79d7 0100 c38b 0000
00000210: e054 0180 b163 0000 46b5 0200 0ae1 0000
00000220: e850 0000 e833 0000 5067 0080 a112 0300
00000230: b83e 0100 c6f9 0180 6e2d 0180 15f8 0100
00000240: 69f5 0000 d0d2 0080 1f1b 0000 237c 0080
00000250: 0c5b 0000 9fd0 0000 cb0b 0280 a59c 0100
00000260: 157f 0100 b223 0200 5d11 0280 3c29 0000
00000270: 8ee0 0000 0729 0000 af8b 0000 1c6c 0000
00000280: d9b2 0200 4c69 0280 e72b 0280 ee99 0000
00000290: 9664 0000 fd10 0080 de87 0000 0332 0200
000002a0: 48ce 0100 f8a5 0000 68ef 0180 591d 0080
000002b0: a1f3 0280 bf4f 0000 0e73 0080 c886 0080
000002c0: 8380 0100 a8d7 0200 59d6 0100 04de 0100
000002d0: 5b29 0000 ccba 0280 20a4 0200 447d 0080
000002e0: b518 0300 bb3c 0200 1039 0200 b660 0000
000002f0: 253a 9f2f 01e0 0080 7436 0280 651a 0000
00000300: 23d3 0100 0982 0000 8423 0000 42ad 0000
00000310: 4988 0100 2daa 0200 71fa 0100 c7a9 0080
00000320: 2482 0000 3100 0100 2a8f 0000 464c 0100
00000330: 77d2 0100 719f 0000 f72d 0000 3ab2 0080
00000340: 6305 0180 3a3d 0000 3586 0000 6ab2 0000
00000350: b262 0200 dfe3 0280 2c19 0180 2b42 0180
00000360: 24f0 0000 53f5 0000 1640 0000 e8a7 0080
00000370: 8b33 0000 9400 0000 1609 0100 ff72 0200
00000380: cb47 0280 f2fd 0080 1296 0080 3994 0000
00000390: 3e03 0380 6084 0000 b4f1 0000 e2fe 0080
000003a0: 024c 0100 8142 0280 494e 0080 2a10 0100
000003b0: 199b 0000 33df 0000 1cb8 0000 53f4 0000
000003c0: 2c0a 0100 6420 0100 a686 0000 8c9d 0000
000003d0: 0d2b 0180 806c 0000 f729 0080 19d0 0080
000003e0: 2efc 0000 821e 0280 7663 0280 8d8e 0080
000003f0: fa28 0100 3c3a 0080 e888 0000 7087 0100

conv1.lin_l.bias f4 [64]
-5.4054e-41 -1.34114e-40 -3.7259e-41 2.20536e-40 -5.9084e-41 1.79756e-40 2.21461e-40 2.14158e-40
2.18e-42 9.16e-42 2.1326e-41 7.703e-41 7.6528e-41 1.26946e-40 1.82827e-40 5.0776e-41
9.283e-41 1.07667e-40 -1.3105e-41 -8.3705e-41 9e-44 -1.0128e-40 -1.58457e-40 3.9364e-41
1.18414e-40 1.0619e-41 -8.6449e-41 -2.6478e-40 2.75092e-40 -3.0747e-41 1.6836e-40 1.07656e-40
7.3207e-41 -2.8976e-41 -1.3343e-41 1.03122e-40 -2.64121e-40 -1.12245e-40 -5.6137e-41 1.07956e-40
8.3007e-41 1.04394e-40 -7.446e-41 -2.10464e-40 6.9087e-41 -8.1785e-41 7.958e-42 3.1235e-41
-5.45e-43 -8.9393e-41 -2.388e-41 -2.14291e-40 2.162e-42 2.64537e-40 -1.14265e-40 -1.0678e-40
-1.0594e-41 3.5826e-41 1.11257e-40 -1.2489e-40 -3.118e-41 -1.07295e-40 6.009e-42 -2.11314e-40
00000000: ae96 0080 db75 0180 dd67 0080 c466 0200
00000010: b4a4 0080 16f5 0100 5869 0200 fc54 0200
00000020: 1406 0000 8919 0000 733b 0000 bad6 0000
00000030: 54d5 0000 e061 0100 a6fd 0100 8b8d 0000
00000040: c602 0100 222c 0100 8824 0080 56e9 0080
00000050: 4000 0000 541a 0180 b7b9 0180 bb6d 0000
00000060: 174a 0100 9a1d 0000 fcf0 0080 19e2 0280
00000070: d8fe 0200 b655 0080 52d5 0100 1a2c 0100
00000080: 12cc 0000 c650 0080 3225 0080 761f 0100
00000090: 43e0 0280 e538 0180 7d9c 0080 f02c 0100
000000a0: 64e7 0000 0223 0100 90cf 0080 b04a 0280
000000b0: 96c0 0000 fce3 0080 2f16 0000 1257 0000
000000c0: 8501 0080 31f9 0080 9142 0080 5b55 0280
000000d0: 0706 0000 6ce1 0200 863e 0180 a929 0180
000000e0: 881d 0080 de63 0000 2436 0100 245c 0180
000000f0: eb56 0080 182b 0180 c010 0000 0f4d 0280

conv1.lin_r.weight f4 [64, 9]
1.33877e-40 -1.197e-40 5.47e-41 1.29994e-40 5.8506e-41 2.91656e-40 1.7198121e-05 6.1212e-41
-1.5387345e-09 4.624e-42 1.9016e-40 1.47763e-40 -2.37254e-40 -2.08003e-40 6.077e-42 4.1128e-09
-4.9366e-41 -1.33957e-40 -1.54506e-40 -9.242164e-06 3.375e-41 -5.4891913e-10 2.3836e-40 -1.61721e-40
1.0033741e-11 2.13502e-40 -1.376198e-07 -6.1908e-41 -2.395451e-06 -1.1823e-41 -2.6581e-40 -3.2573e-41
-1.11646e-40 2.58638e-40 -2.18705e-40 -9.377501e-10 -1.61948e-40 1.55892e-40 2.67202e-40 8.498e-41
2.11185e-40 -1.34113e-40 -2.1272008e-06 4.3467e-41 -7.2517e-41 6.3707e-41 -8.6637e-41 1.02684e-40
-5.4121e-41 6.5497e-41 2.59932e-40 -5.402231e-12 -2.77397e-40 -1.5821598e-07 2.24041e-40 1.24056e-40
6.3546e-41 1.67962e-40 2.51183e-40 9.275e-42 4.34823e-12 -6.9673e-41 -3.2499525e-10 9.7099e-41
-1.16676e-40 -2.63776e-40 6.886e-41 -1.02057e-40 7.396e-42 -1.4956e-41 -4.7625e-41 -4.8203046e-11
1.95889e-40 2.41888e-40 -7.263e-42 1.72668e-40 -4.9996e-41 2.50907e-40 6.4786e-41 -3.1165e-41
1.9501805e-09 1.80662e-40 1.10347e-40 5.7512e-41 -1.13725e-40 -2.359e-41 2.852e-42 2.6786488e-06
8.1497e-41 -4.131566e-07 -2.1924e-40 2.4004e-41 2.02063e-40 -9.78e-42 1.23021e-40 -2.0568e-41
-2.1844954e-08 -9.8197e-41 -2.5051244e-10 8.9773e-41 -1.72937e-40 -6.577e-41 -1.75381e-40 5.569e-41
4.5423e-41 -3.8051138e-07 1.01612e-40 3.4096376e-10 -6.2058e-41 -1.0046981e-11 2.50484e-40 2.36137e-40
5.5459e-41 -6.6311e-41 -9.15827e-06 1.43029e-40 3.3603492e-10 -2.747e-40 -1.441022e-06 7.8471e-41
1.56218e-40 -1.0344e-40 6.5205e-41 4.042998e-12 -1.47404e-40 -1.2766003e-07 -1.2676e-41 1.10174966e-07
-8.1188e-41 -9.142e-42 6.2942e-41 -1.90734e-40 -1.8480816e-07 -6.5585e-41 1.4942387e-05 5.381e-41
8.321e-42 1.45389e-40 -0.00018213587 -1.95572e-40 2.13782e-40 -0.00022482412 5.3109e-41 -3.0174827e-09
-9.9204e-41 3.4127e-41 9.4232e-41 3.9983e-41 1.802e-40 -2.83605e-40 4.0806e-41 1.93054e-40
-5.8543606e-08 2.10156e-40 1.39847e-40 1.63631e-40 2.80928e-40 -4.7334e-41 -4.473e-42 3.4271533e-13
-1.346e-41 2.035e-41 -1.46649e-40 -2.81679e-40 9.5818e-41 -1.3419e-41 -1.05061e-40 1.31244e-40
6.8969347e-10 -1.27244e-40 0.0002371057 -1.69648e-40 1.71356e-40 -1.19332e-40 9.6363e-41 1.6346e-41
2.19483e-40 -5.531448e-05 -1.16699e-40 -2.23406e-40 -1.41367e-40 -1.7495e-40 5.9025e-41 5.414e-41
5.9265e-41 -7.9315e-41 -3.6318415e-06 1.76894e-40 5.770283e-12 -1.41809e-40 -2.57088e-40 -1.43784e-40
1.82582e-40 1.48699e-40 -2.61869e-40 -1.5624641e-12 1.60657e-40 -5.90699e-11 2.0271e-41 1.6709216e-12
-1.21916e-40 -3.9688e-41 -1.63606e-40 -2.3556e-40 1.1151599e-07 -6.454199e-13 -1.6828948e-13 -1.6307e-41
-2.67542e-40 -8.599e-41 1.4777e-41 -1.53868e-40 -2.65899e-40 -5.9562e-41 -6.2568e-41 -0.0004438163
-1.23372e-40 -4.8313e-41 3.9323e-41 -1.6205e-40 2.36696e-40 2.43916e-40 -1.69142e-40 8.386e-41
4.401171e-11 -2.06969e-40 -7.42852e-11 9.5158e-41 1.06347e-40 1.40085e-40 -9.6217e-41 1.618756e-10
2.73917e-40 -0.00011329574 -9.307e-42 1.9193725e-11 2.10872e-40 -6.5561e-41 1.9315e-40 -3.269e-41
-6.6731e-41 7.9545e-41 -1.90713e-40 2.73473e-40 1.39496e-40 6.7638e-41 1.4148269e-09 2.35138e-40
2.05084e-40 1.1956e-41 3.6361e-41 -2.52423e-40 -2.4008e-41 -9.829524e-12 -3.545e-41 2.85037e-40
00000000: 3275 0100 ad4d 0180 7b98 0000 5f6a 0100
00000010: 17a3 0000 052d 0300 af44 9037 a2aa 0000
00000020: 687b d3b0 e40c 0000 1712 0200 e79b 0100
00000030: 5e95 0280 d443 0280 f110 0000 9250 8d31
00000040: 9d89 0080 6b75 0180 b3ae 0180 cb0e 1bb7
00000050: 155e 0000 c0e2 16b0 7398 0200 d0c2 0180
00000060: f483 302d 2853 0200 a4c4 13b4 93ac 0080
00000070: 89c1 20b6 f520 0080 f8e4 0280 cd5a 0080
00000080: 3937 0180 fad0 0200 a961 0280 26e2 80b0
00000090: 72c3 0180 90b2 0100 dae8 0200 e4ec 0000
000000a0: b34c 0200 da75 0180 08c1 0eb6 2b79 0000
000000b0: 26ca 0080 97b1 0000 82f1 0080 3e1e 0100
000000c0: de96 0080 94b6 0000 96d4 0200 f912 beac
000000d0: 4505 0380 14e2 29b4 8970 0200 d159 0100
000000e0: 24b1 0000 36d4 0100 32bc 0200 db19 0000
000000f0: 60fd 982c 38c2 0080 04ab b2af ac0e 0100
00000100: 3f45 0180 4ddf 0280 f4bf 0000 7e1c 0180
00000110: 9e14 0000 b129 0080 c284 0080 ceff 53ae
00000120: 0f22 0200 49a2 0200 3f14 0080 54e1 0100
00000130: 5e8b 0080 6dbb 0200 99b4 0000 e056 0080
00000140: f003 0631 9df7 0100 9a33 0100 52a0 0000
00000150: 053d 0180 c241 0080 f307 0000 d6c2 3336
00000160: 2ee3 0000 d0cf ddb4 2763 0280 ea42 0000
00000170: 4533 0200 431b 0080 ef56 0100 5639 0080
00000180: 90a5 bbb2 bc11 0180 7eb8 89af 40fa 0000
00000190: 14e2 0180 57b7 0080 e4e8 0180 3e9b 0000
000001a0: 9f7e 0000 1649 ccb4 411b 0100 6272 bb2f
000001b0: feac 0080 94bf 30ad 3fba 0200 4192 0200
000001c0: 999a 0000 d9b8 0080 78a6 19b7 b58e 0100
000001d0: b6bc b82f c0fd 0280 2469 c1b5 bfda 0000
000001e0: 79b3 0100 5920 0180 c4b5 0000 1740 8e2c
000001f0: e79a 0180 ec12 09b4 5623 0080 5499 ec33
00000200: 52e2 0080 7c19 0080 75af 0000 b013 0280
00000210: ae6f 46b4 d3b6 0080 10b1 7a37 0096 0000
00000220: 3217 0000 4995 0100 bafb 3eb9 2d21 0280
00000230: f053 0200 c4be 6bb9 0c94 0000 1e5c 4fb1
00000240: 8a14 0180 225f 0000 ae06 0100 756f 0000
00000250: 53f6 0100 9316 0380 c071 0000 281a 0200
00000260: 6071 7bb3 d449 0200 d685 0100 23c8 0100
00000270: 1d0f 0300 f383 0080 780c 0080 7cee c02a
00000280: 8525 0080 ba38 0000 cc98 0180 3511 0380
00000290: 1a0b 0100 6825 0080 de24 0180 db6d 0100
000002a0: dd94 3d30 b462 0180 949f 7839 e9d8 0180
000002b0: acdd 0100 a64c 0180 9f0c 0100 912d 0000
000002c0: d463 0200 7801 68b8 4f45 0180 c46e 0280
000002d0: 138a 0180 b0e7 0180 8aa4 0000 ec96 0000
000002e0: 35a5 0000 19dd 0080 90ba 73b6 1ced 0100
000002f0: 1706 cb2c 4e8b 0180 a8cc 0280 d090 0180
00000300: f7fc 0100 839e 0100 fcd9 0280 b4e5 dbab
00000310: d9bf 0100 66e5 81ae 8238 0000 4c29 eb2b
00000320: da53 0180 a26e 0080 11c8 0180 a590 0280
00000330: 907a ef33 68ab 35ab 247a 3daa 752d 0080
00000340: cce9 0280 b5ef 0080 3129 0000 ecac 0180
00000350: 38e5 0280 09a6 0080 6aae 0080 04b0 e8b9
00000360: e957 0180 ad86 0080 9e6d 0000 bbc3 0180
00000370: d093 0200 f0a7 0200 80d7 0180 c4e9 0000
00000380: c890 412e f240 0280 da5a a3ae 4309 0100
00000390: 7428 0100 8086 0100 370c 0180 eefb 312f
000003a0: 92fb 0200 3099 edb8 f219 0080 6dd4 a82d
000003b0: d34b 0200 c2b6 0080 6c1a 0200 205b 0080
000003c0: 05ba 0080 bddd 0000 a113 0280 55fa 0200
000003d0: dc84 0100 8cbc 0000 cc73 c230 788f 0200
000003e0: b13b 0200 5421 0000 5c65 0000 a7bf 0280
000003f0: ed42 0080 3eec 2cad d262 0080 911a 0300

conv1.lin_r.bias f4 [64]
2.11893e-40 -2.00893e-40 -8.9701e-41 -1.49042e-40 2.50807e-40 -2.30745e-40 7.9908e-41 -2.35875e-40
5.4078e-41 2.45915e-40 2.1097e-41 4.9592e-41 -2.19375e-40 7.8546e-41 1.69012e-40 -1.84711e-40
-1.55028e-40 -2.72688e-40 2.8046e-41 -2.15764e-40 1.55355e-40 -6.1385e-41 -2.69243e-40 -3.2429703e-09
-2.35612e-40 -2.45552e-40 -1.0644e-40 3.1343816e-06 2.1231e-41 7.735e-42 1.078e-41 1.33198e-40
1.29264e-40 -2.69799e-40 -1.03288e-40 1.35968e-40 3.387e-42 1.5961638e-10 3.7894e-41 2.051654e-12
-2.42741e-40 -2.44354e-40 1.99643e-40 -6.3401245e-08 2.1408636e-10 2.856e-40 9.233417e-08 1.45917e-40
-8.193e-41 -1.6952e-41 2.42579e-40 1.16397e-40 -1.63993e-40 2.62968e-40 2.45781e-40 -4.2609472e-10
2.23873e-40 -1.75733e-40 1.09971e-40 -1.14e-43 -1.3586e-40 -2.5744792e-05 6.3653e-41 9.899223e-08
00000000: ac4e 0200 0230 0280 0dfa 0080 789f 0180
00000010: 26bb 0200 3983 0280 c0de 0000 8691 0280
00000020: bf96 0000 83ad 0200 cf3a 0000 3e8a 0000
00000030: 8763 0280 f4da 0000 23d7 0100 e602 0280
00000040: 28b0 0180 25f8 0280 2e4e 0000 7659 0280
00000050: 11b1 0100 1eab 0080 8aee 0280 f0da 5eb1
00000060: ca90 0280 80ac 0280 b628 0180 4458 5236
00000070: 2f3b 0000 9015 0000 0d1e 0000 4d73 0100
00000080: 5668 0100 17f0 0280 ed1f 0180 067b 0100
00000090: 7109 0000 0480 2f2f a269 0000 505f 102c
000000a0: aaa4 0280 29a9 0280 862c 0200 3427 88b3
000000b0: f463 6b2f 231c 0300 3f49 c633 c296 0100
000000c0: 63e4 0080 412f 0080 36a4 0200 7844 0100
000000d0: 25c9 0180 0cdd 0200 23ad 0200 803f eaaf
000000e0: 1170 0200 dfe9 0180 8e32 0100 5100 0080
000000f0: b97a 0180 85f6 d7b7 70b1 0000 8e95 d433

conv2.lin_l.weight f4 [1, 64]
2.73e-43 -2.8e-44 -3.25e-43 1.46e-43 -1.5e-44 -2.70055e-40 1.5692e-41 4.3e-44
-2.5e-44 4.9e-44 3.9e-44 -1.5e-44 -1.06e-43 -5.2e-44 1.35e-43 1.18e-43
3.6e-44 6e-45 2.8e-44 -2.43383e-40 3.863e-42 3.42e-43 -1e-45 -5e-44
-2.7e-44 -1.1e-44 1.7e-44 -1.9e-43 8e-45 6.2e-44 -8.7e-44 7e-45
2.44e-43 7e-45 2.185e-41 -1.268e-41 2.576e-42 -1e-44 2.4e-44 7e-45
-2.69911e-40 -1.3e-43 1.12e-43 1.67e-43 -1.7e-44 6.3e-43 2.41908e-40 -3.1e-44
9.7e-44 2.4e-44 1.248e-41 -3.74e-43 -2.70334e-40 2.7e-44 3.943e-42 -1.1e-44
-3.5e-44 -6.3e-44 1.14e-43 8e-45 2.1e-44 -4.6e-44 -4e-45 -2.2e-44
00000000: c300 0000 1400 0080 e800 0080 6800 0000
00000010: 0b00 0080 cef0 0280 be2b 0000 1f00 0000
00000020: 1200 0080 2300 0000 1c00 0000 0b00 0080
00000030: 4c00 0080 2500 0080 6000 0000 5400 0000
00000040: 1a00 0000 0400 0000 1400 0000 74a6 0280
00000050: c50a 0000 f400 0000 0100 0080 2400 0080
00000060: 1300 0080 0800 0080 0c00 0000 8800 0080
00000070: 0600 0000 2c00 0000 3e00 0080 0500 0000
00000080: ae00 0000 0500 0000 e93c 0000 5923 0080
00000090: 2e07 0000 0700 0080 1100 0000 0500 0000
000000a0: 67f0 0280 5d00 0080 5000 0000 7700 0000
000000b0: 0c00 0080 c201 0000 57a2 0200 1600 0080
000000c0: 4500 0000 1100 0000 ca22 0000 0b01 0080
000000d0: 95f1 0280 1300 0000 fe0a 0000 0800 0080
000000e0: 1900 0080 2d00 0080 5100 0000 0600 0000
000000f0: 0f00 0000 2100 0080 0300 0080 1000 0080

conv2.lin_r.weight f4 [1, 64]
1.22301e-40 2.42441e-40 -2.22062e-40 6.4285e-41 -2.1126e-41 -4.124e-42 9.725e-41 1.1713e-41
5.7476e-41 6.9275e-41 -1.61465e-40 3.267e-41 2.69251e-40 -5.8245e-41 -7.958e-42 -4.9118e-41
1.6193e-41 -6.3148e-41 9.7083e-41 -4.3522e-41 -2.3189e-41 -1.16462e-40 2.0473e-41 -6.6395e-41
6.2136e-41 2.3358e-41 -1.44028e-40 -5.5078e-41 -2.4682e-41 2.6237e-41 -2.0072e-41 2.9877e-41
1.1578e-41 -1.04793e-40 2.1769e-40 -1.77323e-40 -3.4194e-41 8.0999e-41 6.6175e-41 -1.41081e-40
6.998e-41 8.4903e-41 1.78713e-40 -7.9364e-41 -1.1308e-40 -4.5898e-41 4.5472e-41 -6.3703e-41
1.57212e-40 -7.9375e-41 5.183e-42 1.80437e-40 7.058e-41 9.8485e-41 -3.2381e-41 -4.8647e-41
3.722e-42 -1.03263e-40 -4.5717e-41 2.62224e-40 -7.2017e-41 1.1765e-40 -1.07498e-40 -6.7082e-41
00000000: ed54 0100 d4a3 0200 056b 0280 33b3 0000
00000010: e43a 0080 7f0b 0080 180f 0100 a720 0000
00000020: 38a0 0000 1cc1 0000 19c2 0180 125b 0000
00000030: 90ee 0200 5da2 0080 2f16 0080 ec88 0080
00000040: 242d 0000 08b0 0080 a10e 0100 5279 0080
00000050: a440 0080 a644 0180 1239 0000 15b9 0080
00000060: 36ad 0000 1d41 0000 7e91 0180 8999 0080
00000070: ce44 0080 2349 0000 f437 0080 4953 0000
00000080: 4620 0000 1f24 0180 d55e 0200 4eee 0180
00000090: 525f 0080 cbe1 0000 78b8 0000 4789 0180
000000a0: 13c3 0000 adec 0000 2ef2 0100 3cdd 0080
000000b0: 393b 0180 f27f 0080 c27e 0000 94b1 0080
000000c0: 3eb6 0100 44dd 0080 730e 0000 fcf6 0100
000000d0: c0c4 0000 8912 0100 445a 0080 9c87 0080
000000e0: 600a 0000 db1f 0180 717f 0080 f9da 0200
000000f0: c1c8 0080 f647 0100 a92b 0180 ffba 0080
