gatv2_fold_4.pt (torch, 10562 bytes, 8 tensors)

conv1.att f4 [1, 8, 8]
0	0x8001cad4	-1.64597e-40
1	0x8000a7e6	-6.023e-41
2	0x8000eba5	-8.4533e-41
3	0x80005af4	-3.2628e-41
4	0x0000e6c4	8.2783e-41
5	0x8001419d	-1.15373e-40
6	0x800052b1	-2.9664e-41
7	0x80007f63	-4.5698e-41
8	0x80002923	-1.4757e-41
9	0x80019f87	-1.49063e-40
10	0x800126c0	-1.05736e-40
11	0x000070a2	4.0405e-41
12	0x80005cdb	-3.331e-41
13	0x0000cf86	7.4445e-41
14	0x00018305	1.38836e-40
15	0x0002ee45	2.69146e-40
16	0x8002ad44	-2.45827e-40
17	0x8000ec09	-8.4673e-41
18	0x0000e0bb	8.0618e-41
19	0x00005b04	3.265e-41
20	0x0000fbf7	9.0388e-41
21	0x0002e56b	2.6597e-40
22	0x8001bc4d	-1.59385e-40
23	0x0000cc0c	7.3198e-41
24	0x8002ba75	-2.50559e-40
25	0x80025dec	-2.17364e-40
26	0x00018a58	1.41464e-40
27	0x8002c6b6	-2.54955e-40
28	0x00010c6b	9.629e-41
29	0x8000664c	-3.6697e-41
30	0x8000e9f5	-8.3928e-41
31	0x800046f2	-2.545e-41
32	0x80015a1f	-1.24165e-40
33	0x8000b190	-6.3697e-41
34	0x0002431d	2.07747e-40
35	0x0001f400	1.79366e-40
36	0x00006a73	3.8187e-41
37	0x0002aa8f	2.44856e-40
38	0x0000dabb	7.8466e-41
39	0x80011439	-9.909e-41
40	0x8000b378	-6.4381e-41
41	0x8000ba89	-6.6916e-41
42	0x00011730	1.00154e-40
43	0x80001b62	-9.823e-42
44	0x00008c08	5.0234e-41
45	0x800066dc	-3.6899e-41
46	0x8000635a	-3.564e-41
47	0x8000a742	-6.0001e-41
48	0x0001f733	1.80514e-40
49	0x0000612b	3.4857e-41
50	0x000043fe	2.4391e-41
51	0x8000ab32	-6.1413e-41
52	0x80021df9	-1.94423e-40
53	0x0000bac0	6.6993e-41
54	0x800227f4	-1.98003e-40
55	0x80002c10	-1.5807e-41
56	0x8001842c	-1.3925e-40
57	0x80003d92	-2.2087e-41
58	0x80029b9a	-2.3949e-40
59	0x80016f59	-1.3178e-40
60	0x000224c5	1.96861e-40
61	0x8001f6ce	-1.80372e-40
62	0x8001c8b2	-1.63831e-40
63	0x0000c4d6	7.0611e-41

conv1.bias f4 [64]
0	0x00006fa1	4.0045e-41
1	0x8000e57f	-8.2328e-41
2	0x00008d1e	5.0623e-41
3	0x0002d307	2.59373e-40
4	0x80006c9d	-3.8963e-41
5	0x800171a0	-1.32596e-40
6	0x0001f094	1.78139e-40
7	0x8000b9fd	-6.672e-41
8	0x00000ce3	4.623e-42
9	0x00017772	1.34684e-40
10	0x8001b9e6	-1.58523e-40
11	0x8000df73	-8.0158e-41
12	0x8002a8cf	-2.44228e-40
13	0x0000d497	7.6263e-41
14	0x00012625	1.05519e-40
15	0x00032c31	2.9136e-40
16	0x80014ab2	-1.18631e-40
17	0x80023d27	-2.05608e-40
18	0x80013a26	-1.12695e-40
19	0x80002427	-1.2969e-41
20	0x80013df8	-1.14066e-40
21	0x80015170	-1.2105e-40
22	0x000011db	6.405e-42
23	0x00000bb2	4.195e-42
24	0x80006d9a	-3.9318e-41
25	0x00024558	2.08547e-40
26	0x0002e905	2.67263e-40
27	0x00013aa2	1.12869e-40
28	0x8000c2f5	-6.9937e-41
29	0x80027f8b	-2.29425e-40
30	0x800092ae	-5.2619e-41
31	0x00014791	1.17509e-40
32	0x000151f4	1.21235e-40
33	0x0002f07e	2.69943e-40
34	0x00018ca7	1.42292e-40
35	0x800100f7	-9.2182e-41
36	0x00019490	1.4513e-40
37	0x00007359	4.1379e-41
38	0x800028c5	-1.4625e-41
39	0x80019471	-1.45086e-40
40	0x0001f03a	1.78013e-40
41	0x8000c471	-7.047e-41
42	0x8001f662	-1.80221e-40
43	0x80019ded	-1.48489e-40
44	0x80022835	-1.98095e-40
45	0x800204b3	-1.85357e-40
46	0x800222c3	-1.96141e-40
47	0x0000002b	6e-44
48	0x0001d7bc	1.69226e-40
49	0x8002adc4	-2.46006e-40
50	0x0000507b	2.8871e-41
51	0x8002ab89	-2.45206e-40
52	0x80012940	-1.06633e-40
53	0x8000eda6	-8.5252e-41
54	0x00003b9f	2.1388e-41
55	0x8002e88b	-2.67092e-40
56	0x00009fea	5.7366e-41
57	0x800056d1	-3.1144e-41
58	0x80014688	-1.17137e-40
59	0x0002cb2c	2.56555e-40
60	0x80010645	-9.4085e-41
61	0x00004a3a	2.6627e-41
62	0x80011eb8	-1.02855e-40
63	0x0000c469	7.0459e-41

conv1.lin_l.weight f4 [64, 9]
0	0x8001193e	-1.0089e-40
1	0x00003386	1.8483e-41
2	0x00013b04	1.13006e-40
3	0x0000f120	8.65e-41
4	0x00003b08	2.1176e-41
5	0x00016b32	1.3029e-40
6	0x00011201	9.8294e-41
7	0x80016198	-1.26846e-40
8	0x80014f42	-1.20268e-40
9	0x8000e036	-8.0432e-41
10	0x80027ca4	-2.28384e-40
11	0x00017c40	1.36408e-40
12	0x00001b8c	9.882e-42
13	0x0000be64	6.8299e-41
14	0x000031fc	1.7931e-41
15	0x0003234b	2.88167e-40
16	0x80021488	-1.91036e-40
17	0x0000f508	8.79e-41
18	0x8000acd9	-6.2006e-41
19	0x80009151	-5.213e-41
20	0x0001a17c	1.49765e-40
21	0x0000f5c2	8.8161e-41
22	0x0000fd42	9.0852e-41
23	0x000202da	1.84694e-40
24	0x80017c80	-1.36498e-40
25	0x0000985b	5.4655e-41
26	0x00013f8a	1.14629e-40
27	0x80000603	-2.157e-42
28	0x80026ea3	-2.2336e-40
29	0x0002b6ad	2.49203e-40
30	0x80032aec	-2.90904e-40
31	0x0000e358	8.1556e-41
32	0x00004aa9	2.6783e-41
33	0x80010c41	-9.6231e-41
34	0x0000da70	7.836e-41
35	0x80016ad9	-1.30165e-40
36	0x80011a6d	-1.01315e-40
37	0x00001e70	1.0919e-41
38	0x000077ea	4.3017e-41
39	0x8000a64e	-5.9659e-41
40	0x00010345	9.3008e-41
41	0x8001154b	-9.9474e-41
42	0x8000cab1	-7.2712e-41
43	0x8000a040	-5.7487e-41
44	0x00026e66	2.23274e-40
45	0x8000c044	-6.8972e-41
46	0x800136b7	-1.11463e-40
47	0x00025d3e	2.1712e-40
48	0x000201d2	1.84324e-40
49	0x00021aa2	1.93225e-40
50	0x80019225	-1.44262e-40
51	0x0001e441	1.73718e-40
52	0x0001c9ff	1.64298e-40
53	0xae8e205e	-6.463162e-11
54	0x0000a04a	5.7501e-41
55	0x8001c677	-1.63031e-40
56	0x0001e4b4	1.73879e-40
57	0x0000105c	5.869e-42
58	0x0002e9dd	2.67565e-40
59	0x0000a6ec	5.988e-41
60	0x8000e9ce	-8.3873e-41
61	0x00007ec1	4.5471e-41
62	0x8000f565	-8.8031e-41
63	0x00007077	4.0345e-41
64	0x00010376	9.3077e-41
65	0x0000a5f9	5.954e-41
66	0x8002515f	-2.12861e-40
67	0x00026d58	2.22896e-40
68	0x8000411d	-2.3358e-41
69	0x80006515	-3.6261e-41
70	0x8001f5d6	-1.80025e-40
71	0x800069bc	-3.793e-41
72	0x00020b7b	1.8779e-40
73	0x800192ba	-1.44471e-40
74	0x00005f05	3.4087e-41
75	0x800119b0	-1.0105e-40
76	0x00001aca	9.61e-42
77	0x0000f8a1	8.9191e-41
78	0x00006712	3.6975e-41
79	0x8000bbdf	-6.7395e-41
80	0x00016e50	1.31408e-40
81	0x80015fee	-1.26249e-40
82	0x00005e37	3.3798e-41
83	0x0000c224	6.9645e-41
84	0x80001e86	-1.095e-41
85	0x00018e85	1.42962e-40
86	0x80008387	-4.7183e-41
87	0x8001f10a	-1.78304e-40
88	0x000085ba	4.7972e-41
89	0x00029b12	2.393e-40
90	0x00006d5d	3.9232e-41
91	0x8001fbe3	-1.82195e-40
92	0x00028f04	2.34975e-40
93	0x0001c7d6	1.63523e-40
94	0x000149f0	1.18359e-40
95	0x80006d3b	-3.9185e-41
96	0x80007b20	-4.4169e-41
97	0x00024748	2.09242e-40
98	0x80016446	-1.27807e-40
99	0x00002b8d	1.5623e-41
100	0x00018304	1.38835e-40
101	0x0001924d	1.44318e-40
102	0x00008fab	5.1538e-41
103	0x0000ee0c	8.5395e-41
104	0x800269a3	-2.21566e-40
105	0x00016bc2	1.30492e-40
106	0x8000d6d3	-7.7064e-41
107	0x80022e09	-2.00185e-40
108	0x80017b66	-1.36103e-40
109	0x000294fe	2.3712e-40
110	0x00011514	9.9397e-41
111	0x000184b8	1.39446e-40
112	0x8001cd20	-1.6542e-40
113	0x8002ae63	-2.46229e-40
114	0x0000a59f	5.9414e-41
115	0x0002b7dd	2.49629e-40
116	0x80019414	-1.44956e-40
117	0x0001ea1d	1.7582e-40
118	0x0001fa63	1.81657e-40
119	0x00007216	4.0926e-41
120	0x00001960	9.103e-42
121	0x00006920	3.7712e-41
122	0x800255a2	-2.1439e-40
123	0x80004873	-2.599e-41
124	0x0000f0b7	8.6352e-41
125	0x00010e83	9.7041e-41
126	0x8001176a	-1.00235e-40
127	0x8000b7fc	-6.6001e-41
128	0x0000e2f9	8.1422e-41
129	0x80027e1e	-2.28913e-40
130	0x00009cff	5.632e-41
131	0x00007676	4.2496e-41
132	0x80021d11	-1.94098e-40
133	0x80016fa5	-1.31886e-40
134	0x000054b7	3.039e-41
135	0x8001ada5	-1.54127e-40
136	0x8001d127	-1.66865e-40
137	0x8000ed9f	-8.5242e-41
138	0x80003518	-1.9046e-41
139	0x0000d51a	7.6446e-41
140	0x80013a76	-1.12807e-40
141	0x00013e6b	1.14227e-40
142	0x00001a03	9.331e-42
143	0x8001277f	-1.06004e-40
144	0x000131e8	1.09738e-40
145	0x8000fc2b	-9.0461e-41
146	0x0000290b	1.4723e-41
147	0x800071a9	-4.0774e-41
148	0x0000a022	5.7445e-41
149	0x80028061	-2.29725e-40
150	0x00029bb0	2.39521e-40
151	0x00002c7f	1.5962e-41
152	0x80003bf7	-2.1511e-41
153	0x80023434	-2.02398e-40
154	0x00001533	7.605e-42
155	0x0000e124	8.0765e-41
156	0x8000cdc5	-7.3816e-41
157	0x80012e79	-1.08507e-40
158	0x8000f1c4	-8.6729e-41
159	0x8002ee27	-2.69104e-40
160	0x8002ba4e	-2.50505e-40
161	0x00002575	1.3437e-41
162	0x0000bedd	6.8469e-41
163	0x0000f575	8.8053e-41
164	0x0000634c	3.5621e-41
165	0x80007203	-4.09e-41
166	0x00009faa	5.7277e-41
167	0x8000d0a1	-7.4842e-41
168	0x000151f9	1.21242e-40
169	0x80010f20	-9.7261e-41
170	0x800004cf	-1.725e-42
171	0x0000d1c7	7.5254e-41
172	0x00013d78	1.13886e-40
173	0x0000647b	3.6046e-41
174	0x00013158	1.09537e-40
175	0x00013c52	1.13474e-40
176	0x0000f6c9	8.853e-41
177	0x00013a97	1.12854e-40
178	0x00025e11	2.17416e-40
179	0x0000b2ee	6.4188e-41
180	0x80028716	-2.3213e-40
181	0x000151f3	1.21233e-40
182	0x8000e2d2	-8.1368e-41
183	0x8000ddf1	-7.9618e-41
184	0x800067a5	-3.718e-41
185	0x0000b31e	6.4255e-41
186	0x00025b0b	2.16331e-40
187	0x00019c1e	1.4784e-40
188	0x80024c61	-2.1107e-40
189	0x00016013	1.263e-40
190	0x80030833	-2.78448e-40
191	0x000195e0	1.456e-40
192	0x8001040b	-9.3286e-41
193	0x000139a9	1.1252e-40
194	0x80020865	-1.86682e-40
195	0x800080e6	-4.624e-41
196	0x8000f21e	-8.6855e-41
197	0x80016fef	-1.3199e-40
198	0x000025d1	1.3566e-41
199	0x0002338b	2.02161e-40
200	0x000099ab	5.5126e-41
201	0x000215fa	1.91555e-40
202	0x0000832d	4.7057e-41
203	0x0000b23c	6.3938e-41
204	0x8001025f	-9.2686e-41
205	0x0001c352	1.61903e-40
206	0x80009181	-5.2197e-41
207	0x80002b99	-1.564e-41
208	0x0000dcdb	7.9228e-41
209	0x000062e7	3.548e-41
210	0x000180a4	1.37983e-40
211	0x00007bba	4.4385e-41
212	0x8002e267	-2.64889e-40
213	0x80012869	-1.06332e-40
214	0x0001eef2	1.77553e-40
215	0x0002cdc0	2.5748e-40
216	0x00008c97	5.0434e-41
217	0x80029a1e	-2.38958e-40
218	0x0000fc1d	9.0441e-41
219	0x80024330	-2.07773e-40
220	0x00009f41	5.713e-41
221	0x0001507d	1.20709e-40
222	0x80023511	-2.02708e-40
223	0x8000868f	-4.827e-41
224	0x800297ab	-2.38079e-40
225	0x0000c5ae	7.0914e-41
226	0x00008fbc	5.1562e-41
227	0x0002a225	2.41837e-40
228	0x0000ab3f	6.1432e-41
229	0x00012a6d	1.07055e-40
230	0x0000e6ab	8.2748e-41
231	0x000001e7	6.82e-43
232	0x00031b39	2.85272e-40
233	0x00007485	4.18e-41
234	0x000031c2	1.785e-41
235	0x8000f502	-8.7892e-41
236	0x0002ae44	2.46186e-40
237	0x00022203	1.95872e-40
238	0x0000882b	4.8848e-41
239	0x0000884d	4.8896e-41
240	0x00000fb9	5.64e-42
241	0x0000f821	8.9012e-41
242	0x8000a779	-6.0078e-41
243	0x80022204	-1.95873e-40
244	0x8000cc53	-7.3298e-41
245	0x00011dcf	1.02529e-40
246	0x800015b3	-7.784e-42
247	0x00013e6e	1.14231e-40
248	0x00005e65	3.3862e-41
249	0x800237ef	-2.03736e-40
250	0x0002432e	2.0777e-40
251	0x8001b5ba	-1.57027e-40
252	0x80010adf	-9.5735e-41
253	0x80018395	-1.39038e-40
254	0x0000595c	3.2056e-41
255	0x800024e9	-1.3241e-41

conv1.lin_l.bias f4 [64]
0	0x00003f87	2.279e-41
1	0x000289af	2.33063e-40
2	0x800051dd	-2.9367e-41
3	0x0001098d	9.5262e-41
4	0x00006ffb	4.0171e-41
5	0x00020e6b	1.88843e-40
6	0x800024b0	-1.3161e-41
7	0x00009547	5.355e-41
8	0x80009a73	-5.5406e-41
9	0x800125cf	-1.05399e-40
10	0x80016e82	-1.31478e-40
11	0x8002488b	-2.09695e-40
12	0x8002ca95	-2.56344e-40
13	0x8002889f	-2.32681e-40
14	0x00008b56	4.9984e-41
15	0x80000a8c	-3.784e-42
16	0x00013405	1.10497e-40
17	0x0000c373	7.0114e-41
18	0x0001d9a4	1.6991e-40
19	0x000077d0	4.298e-41
20	0x8002a661	-2.43356e-40
21	0x000120ee	1.03648e-40
22	0x00012771	1.05984e-40
23	0x80006437	-3.595e-41
24	0x0001a5f2	1.51365e-40
25	0x0000c15f	6.9368e-41
26	0x800120cd	-1.03602e-40
27	0x0000fa3a	8.9764e-41
28	0x80008dc3	-5.0855e-41
29	0x80002109	-1.1851e-41
30	0x00018fa9	1.43371e-40
31	0x0001d138	1.66889e-40
32	0x0002f1dd	2.70435e-40
33	0x000301b9	2.76124e-40
34	0x8001d248	-1.6727e-40
35	0x0002865d	2.31871e-40
36	0x80029a58	-2.39039e-40
37	0x00029313	2.36431e-40
38	0x000029e6	1.503e-41
39	0x80004b37	-2.6982e-41
40	0x0001bfd7	1.60655e-40
41	0x8000128f	-6.658e-42
42	0x00008d4b	5.0686e-41
43	0x80028afe	-2.33532e-40
44	0x8001462b	-1.17007e-40
45	0x0000470f	2.5491e-41
46	0x0000b219	6.389e-41
47	0x0001a673	1.51546e-40
48	0x0000757b	4.2144e-41
49	0x80002a4f	-1.5177e-41
50	0x8002d567	-2.60225e-40
51	0x000249c4	2.10133e-40
52	0x0000dc6b	7.9071e-41
53	0x80016a6b	-1.30011e-40
54	0x8000270e	-1.401e-41
55	0x00024d2d	2.11356e-40
56	0x8000e4f4	-8.2133e-41
57	0x8001c42c	-1.62209e-40
58	0x0003217b	2.87517e-40
59	0x800088cb	-4.9072e-41
60	0x8000c849	-7.1849e-41
61	0x8000baf2	-6.7063e-41
62	0x000273a6	2.25158e-40
63	0x80021b1a	-1.93393e-40

conv1.lin_r.weight f4 [64, 9]
0	0x8001db7b	-1.7057e-40
1	0x3714e0f0	8.87386e-06
2	0x00009d53	5.6437e-41
3	0x8000ac87	-6.1891e-41
4	0x80019035	-1.43567e-40
5	0x00012b7b	1.07433e-40
6	0x800023ad	-1.2798e-41
7	0x80021b1f	-1.934e-40
8	0x2e5b8070	4.990891e-11
9	0x00026405	2.19551e-40
10	0x0002abb2	2.45264e-40
11	0x8002d6a3	-2.60668e-40
12	0x0000e64c	8.2615e-41
13	0x0000ac80	6.1881e-41
14	0x80022d76	-1.9998e-40
15	0x00013fb0	1.14682e-40
16	0x80026040	-2.18199e-40
17	0x31002568	1.8647714e-09
18	0x000309b6	2.7899e-40
19	0xb4a76bfe	-3.118475e-07
20	0x00005120	2.9102e-41
21	0x34dd8bb1	4.1266097e-07
22	0x8002b528	-2.48658e-40
23	0x0000b1c6	6.3773e-41
24	0x0000e281	8.1254e-41
25	0x00023381	2.02147e-40
26	0x2d9078e2	1.6424587e-11
27	0x80011873	-1.00606e-40
28	0x8000d1f6	-7.532e-41
29	0x00012b51	1.07374e-40
30	0x00023802	2.03763e-40
31	0x000024d1	1.3207e-41
32	0x000051f3	2.9398e-41
33	0x2b749a46	8.690031e-13
34	0x80015c19	-1.24874e-40
35	0x2d0cc33d	8.00143e-12
36	0x00011226	9.8346e-41
37	0x80001f3b	-1.1203e-41
38	0x80012ae4	-1.07222e-40
39	0xb3046f4e	-3.0834876e-08
40	0x00017cf9	1.36667e-40
41	0x000175e8	1.34132e-40
42	0x0000a264	5.8255e-41
43	0x2fac76f6	3.1371145e-10
44	0x2b8f572e	1.0184958e-12
45	0x0002d271	2.59163e-40
46	0x800034c1	-1.8925e-41
47	0x0000991f	5.493e-41
48	0x3584488b	9.855879e-07
49	0x000059a2	3.2154e-41
50	0x0002621a	2.18863e-40
51	0x0000514c	2.9164e-41
52	0x8001212e	-1.03738e-40
53	0xafed382c	-4.314996e-10
54	0x000026aa	1.387e-41
55	0xadb9c1f2	-2.1118194e-11
56	0x0000e112	8.074e-41
57	0x3797c171	1.809068e-05
58	0x0000cd14	7.3568e-41
59	0x0001df1d	1.71873e-40
60	0xacdb49f0	-6.232563e-12
61	0xb2c60fca	-2.3057414e-08
62	0x34cb8754	3.791016e-07
63	0x0000858b	4.7906e-41
64	0xae2096e6	-3.6513813e-11
65	0x000030c8	1.75e-41
66	0x0001e753	1.74819e-40
67	0x80018c46	-1.42156e-40
68	0x800102a0	-9.2777e-41
69	0xb40e2df8	-1.3241504e-07
70	0x80026f86	-2.23678e-40
71	0xb6625022	-3.3723268e-06
72	0x800091b7	-5.2273e-41
73	0xb88e7008	-6.791955e-05
74	0x000195c7	1.45565e-40
75	0x2cdb1564	6.226729e-12
76	0x0000dedf	7.9951e-41
77	0x8000644c	-3.598e-41
78	0x0002d47f	2.599e-40
79	0x8001130e	-9.8671e-41
80	0x8000deda	-7.9944e-41
81	0x80014644	-1.17042e-40
82	0x00022d28	1.9987e-40
83	0x0002e4aa	2.657e-40
84	0x00011b5a	1.01647e-40
85	0x0001257f	1.05287e-40
86	0x80030278	-2.76392e-40
87	0xb39f5051	-7.418624e-08
88	0x8000dd3e	-7.9367e-41
89	0xac9430d1	-4.2118327e-12
90	0x0000c60d	7.1047e-41
91	0x80011677	-9.9894e-41
92	0x8000f4ad	-8.7773e-41
93	0x0001350f	1.1087e-40
94	0x00009fa0	5.7263e-41
95	0x0001ec0f	1.76517e-40
96	0x800111e9	-9.826e-41
97	0x80014943	-1.18117e-40
98	0x0002debe	2.63576e-40
99	0x0000de4f	7.9749e-41
100	0x344ee283	1.926765e-07
101	0x00003997	2.066e-41
102	0x8000c2fb	-6.9946e-41
103	0x8002debf	-2.63577e-40
104	0x000176c6	1.34443e-40
105	0x386798c8	5.521698e-05
106	0x362b2cb6	2.550701e-06
107	0xaf8e11f8	-2.5842417e-10
108	0x0000553f	3.058e-41
109	0x385be1be	5.2423908e-05
110	0x00021e69	1.9458e-40
111	0x80003665	-1.9513e-41
112	0x8001f2ae	-1.78893e-40
113	0x8002d20e	-2.59024e-40
114	0x80023739	-2.03481e-40
115	0x0000325b	1.8064e-41
116	0x8001b447	-1.56507e-40
117	0x8000a79d	-6.0128e-41
118	0xb7ad4140	-2.0653591e-05
119	0x8003097a	-2.78906e-40
120	0x29ca2d44	8.9784544e-14
121	0x800319cf	-2.84765e-40
122	0x8001fa35	-1.81593e-40
123	0x00019e27	1.4857e-40
124	0x0002b540	2.48691e-40
125	0xac0dc9d8	-2.014935e-12
126	0x80007b86	-4.4312e-41
127	0x334dbea2	4.790366e-08
128	0x80004079	-2.3128e-41
129	0x80004274	-2.3839e-41
130	0x000039d9	2.0752e-41
131	0x000121f5	1.04017e-40
132	0x391cdf83	0.00014960584
133	0x39088130	0.00013018097
134	0xabfffa2c	-1.8188276e-12
135	0x00030bb7	2.79709e-40
136	0x800244b1	-2.08313e-40
137	0x00024a75	2.10381e-40
138	0x8000417c	-2.3491e-41
139	0x0001a086	1.4942e-40
140	0x80022a3a	-1.98819e-40
141	0x31a6c2e6	4.8533932e-09
142	0x80007646	-4.2429e-41
143	0xab2214fc	-5.7583083e-13
144	0x0000c7c7	7.1667e-41
145	0x2c263115	2.3617265e-12
146	0x8001ef59	-1.77697e-40
147	0x0002c00b	2.52563e-40
148	0x80022b73	-1.99258e-40
149	0x00015ec9	1.25838e-40
150	0x0000b3c2	6.4485e-41
151	0x000303eb	2.76912e-40
152	0xb220e0e0	-9.364356e-09
153	0x0001cd1b	1.65413e-40
154	0x8003062c	-2.7772e-40
155	0x0000c102	6.9238e-41
156	0x80010e60	-9.6992e-41
157	0x80015b52	-1.24595e-40
158	0x00029c39	2.39713e-40
159	0x32e8a99e	2.7085488e-08
160	0x0001d863	1.6946e-40
161	0x2ec53b86	8.969096e-11
162	0x80007581	-4.2152e-41
163	0xb520dcfe	-5.992623e-07
164	0x00013d0f	1.13739e-40
165	0x00024543	2.08517e-40
166	0x00005d91	3.3565e-41
167	0x80007c08	-4.4494e-41
168	0xb52614f6	-6.187032e-07
169	0xb7280b16	-1.00161615e-05
170	0x2cbdaa32	5.3905986e-12
171	0x8000acce	-6.199e-41
172	0x2f16db40	1.3720314e-10
173	0x0000f1e8	8.678e-41
174	0x32b634dc	2.1211626e-08
175	0x00003f63	2.2739e-41
176	0x00017768	1.3467e-40
177	0x8001a161	-1.49727e-40
178	0xb8aa8460	-8.1308885e-05
179	0x2c8a95fe	3.9388484e-12
180	0x8000f9f8	-8.9672e-41
181	0xb080c53d	-9.369284e-10
182	0x00002c49	1.5887e-41
183	0x80031f95	-2.86836e-40
184	0x0001960c	1.45662e-40
185	0x00001ee0	1.1076e-41
186	0xb09c48fc	-1.1371237e-09
187	0x8002a77e	-2.43756e-40
188	0x301605bc	5.457783e-10
189	0x00027dd4	2.2881e-40
190	0xb47e04e0	-2.3657367e-07
191	0x8002a4ef	-2.42838e-40
192	0x8003136c	-2.82474e-40
193	0x00021a81	1.93179e-40
194	0x80019bc0	-1.47708e-40
195	0x80017583	-1.33991e-40
196	0x8001522d	-1.21315e-40
197	0x2c1e49d1	2.2494127e-12
198	0x00016e98	1.31509e-40
199	0x0002079e	1.86404e-40
200	0x80009fec	-5.7369e-41
201	0x0000b5ba	6.5191e-41
202	0x000046c4	2.5386e-41
203	0x8000613d	-3.4883e-41
204	0x8001c0ef	-1.61047e-40
205	0x80000712	-2.536e-42
206	0x00018b41	1.4179e-40
207	0x80010972	-9.5224e-41
208	0xae039b2c	-2.9923772e-11
209	0x8002f168	-2.70271e-40
210	0x0003004d	2.75614e-40
211	0x0000ccad	7.3424e-41
212	0x00032d49	2.91752e-40
213	0x38a05fc0	7.647229e-05
214	0x000094ea	5.342e-41
215	0xb9aedee4	-0.00033353933
216	0x80012808	-1.06196e-40
217	0xabe9341b	-1.6570108e-12
218	0x8001fd1e	-1.82637e-40
219	0x800026e7	-1.3956e-41
220	0x8000d43e	-7.6138e-41
221	0x8000b600	-6.5289e-41
222	0xb1a41e2e	-4.7764592e-09
223	0x0002f2b4	2.70736e-40
224	0x0001212e	1.03738e-40
225	0x800233e9	-2.02293e-40
226	0x800120f8	-1.03662e-40
227	0x80007154	-4.0654e-41
228	0x80005c52	-3.3118e-41
229	0x8000830f	-4.7015e-41
230	0x0000e4e6	8.2113e-41
231	0x2f9724ad	2.74928e-10
232	0x80001e18	-1.0796e-41
233	0xb7fd4644	-3.019267e-05
234	0x00002578	1.3441e-41
235	0x8001a0c8	-1.49513e-40
236	0x8000d8a7	-7.772e-41
237	0x8001db55	-1.70517e-40
238	0x80001bcc	-9.972e-42
239	0x000221fe	1.95865e-40
240	0xb82d980e	-4.1388026e-05
241	0x0000d0df	7.4929e-41
242	0xb516a2c4	-5.611621e-07
243	0x80028fc2	-2.35242e-40
244	0x0002fb0d	2.73731e-40
245	0x800285bd	-2.31647e-40
246	0x00015349	1.21713e-40
247	0x8001d028	-1.66508e-40
248	0x8001b476	-1.56573e-40
249	0x8001c24a	-1.61533e-40
250	0x80000e0b	-5.038e-42
251	0x30973c9a	1.100392e-09
252	0x0000eba1	8.4528e-41
253	0xb787ae0c	-1.6174301e-05
254	0x00008dae	5.0825e-41
255	0x337a4a40	5.827519e-08

conv1.lin_r.bias f4 [64]
0	0x8001da8c	-1.70235e-40
1	0x8002fcbb	-2.74334e-40
2	0x8001e81b	-1.75099e-40
3	0x80002a38	-1.5145e-41
4	0x0001bdfd	1.5999e-40
5	0x0000b509	6.4943e-41
6	0x2fb7464a	3.333745e-10
7	0x3891476b	6.9274414e-05
8	0x0000436f	2.419e-41
9	0x800301ab	-2.76105e-40
10	0x80001bf8	-1.0033e-41
11	0xb2b3fb2e	-2.0952566e-08
12	0x8001629c	-1.2721e-40
13	0x339a8797	7.1958475e-08
14	0x00015722	1.23093e-40
15	0x3a81ba04	0.0009897356
16	0x0000a4cb	5.9117e-41
17	0x800145d5	-1.16887e-40
18	0x308536b2	9.692569e-10
19	0xb3f2abc4	-1.1300247e-07
20	0x31213dcf	2.3463718e-09
21	0x8000e01b	-8.0394e-41
22	0x0000b582	6.5113e-41
23	0x35a97726	1.2626158e-06
24	0x2dd1ff4c	2.3873924e-11
25	0x800316d4	-2.83696e-40
26	0x35c06b40	1.4336329e-06
27	0x0002e322	2.65151e-40
28	0x00014977	1.1819e-40
29	0x8001230c	-1.04408e-40
30	0xac0535f8	-1.8930395e-12
31	0xac2cfd3e	-2.4583248e-12
32	0x8001d6e3	-1.68922e-40
33	0x00013a1b	1.1268e-40
34	0x34cc1470	3.801283e-07
35	0xb739d09a	-1.1075428e-05
36	0x321893d0	8.881173e-09
37	0x8001380f	-1.11946e-40
38	0x00015a16	1.24152e-40
39	0x00012f28	1.08752e-40
40	0x80012332	-1.04461e-40
41	0xacd10298	-5.9404252e-12
42	0x8000990d	-5.4904e-41
43	0x33454cc8	4.593747e-08
44	0x80017965	-1.35384e-40
45	0x000292fe	2.36402e-40
46	0x00015141	1.20984e-40
47	0x2b27de31	5.963867e-13
48	0x80032980	-2.90394e-40
49	0x800175f2	-1.34146e-40
50	0x8000a4d6	-5.9132e-41
51	0x0001a594	1.51234e-40
52	0x8002dffd	-2.64023e-40
53	0x38bc9d03	8.993784e-05
54	0x8002c70a	-2.55073e-40
55	0x8002485b	-2.09627e-40
56	0xacc9f146	-5.7395503e-12
57	0xb78ae860	-1.655909e-05
58	0xb603432c	-1.955962e-06
59	0x00027bdc	2.28103e-40
60	0x321c13b1	9.084872e-09
61	0x328a3558	1.6089572e-08
62	0x33992b16	7.132455e-08
63	0x8001412b	-1.15213e-40

conv2.lin_l.weight f4 [1, 64]
0	0x0000002b	6e-44
1	0x00000085	1.86e-43
2	0x8000065c	-2.281e-42
3	0x8002ef43	-2.69502e-40
4	0x80000018	-3.4e-44
5	0x8002e632	-2.6625e-40
6	0x0002ebc0	2.68242e-40
7	0x0000002c	6.2e-44
8	0x00000086	1.88e-43
9	0x80000105	-3.66e-43
10	0x800011f4	-6.44e-42
11	0x0000047e	1.611e-42
12	0x800238d9	-2.04064e-40
13	0x80000015	-3e-44
14	0x80000016	-3.1e-44
15	0x80029f52	-2.40824e-40
16	0x800262d8	-2.1913e-40
17	0x8002a07f	-2.41246e-40
18	0x00000012	2.5e-44
19	0x0000002f	6.6e-44
20	0x00000066	1.43e-43
21	0x000003b3	1.327e-42
22	0x0002a8bf	2.44206e-40
23	0x00000045	9.7e-44
24	0x00000063	1.39e-43
25	0x0000023a	7.99e-43
26	0x00023fe8	2.06596e-40
27	0x00000141	4.5e-43
28	0x80000054	-1.18e-43
29	0x0000003c	8.4e-44
30	0x8002a717	-2.43612e-40
31	0x00000006	8e-45
32	0x0002a32e	2.42209e-40
33	0x0002b8d6	2.49978e-40
34	0x000004d4	1.732e-42
35	0x0000002a	5.9e-44
36	0x80015afc	-1.24475e-40
37	0x800000bd	-2.65e-43
38	0x000000ea	3.28e-43
39	0x8002ee97	-2.69261e-40
40	0x80000aa2	-3.814e-42
41	0x80000057	-1.22e-43
42	0x80000ecf	-5.312e-42
43	0x0000156c	7.685e-42
44	0x80000012	-2.5e-44
45	0x000260bf	2.18377e-40
46	0x8002611e	-2.1851e-40
47	0x0000009d	2.2e-43
48	0x0002a21d	2.41826e-40
49	0x0002a72f	2.43645e-40
50	0x0002a013	2.41095e-40
51	0x800000f3	-3.4e-43
52	0x800000bc	-2.63e-43
53	0x8000002e	-6.4e-44
54	0x8002ed98	-2.68904e-40
55	0x8002f063	-2.69905e-40
56	0x8000001d	-4e-44
57	0x00000054	1.18e-43
58	0x8002a9fa	-2.44647e-40
59	0x8000005f	-1.33e-43
60	0x00000013	2.7e-44
61	0x80000068	-1.46e-43
62	0x8002d231	-2.59073e-40
63	0x00000038	7.8e-44

conv2.lin_r.weight f4 [1, 64]
0	0x80013247	-1.09872e-40
1	0x8001419a	-1.15369e-40
2	0x00004720	2.5515e-41
3	0x80000c2b	-4.365e-42
4	0x000080d4	4.6215e-41
5	0x00028313	2.30692e-40
6	0x8000e849	-8.3328e-41
7	0x00024736	2.09217e-40
8	0x800018e3	-8.928e-42
9	0x8002738a	-2.25119e-40
10	0x80003289	-1.8129e-41
11	0x800008d5	-3.168e-42
12	0x00026ca4	2.22644e-40
13	0x0000c59b	7.0887e-41
14	0x800163a0	-1.27574e-40
15	0x00012803	1.06189e-40
16	0x00014a5c	1.1851e-40
17	0x0002d306	2.59372e-40
18	0x8001e9c2	-1.75692e-40
19	0x0000cda9	7.3777e-41
20	0x80024436	-2.0814e-40
21	0x8001700a	-1.32028e-40
22	0x8000ffca	-9.176e-41
23	0x8000befc	-6.8512e-41
24	0x80016eff	-1.31653e-40
25	0x000194a9	1.45165e-40
26	0x00029935	2.38631e-40
27	0x0000b189	6.3688e-41
28	0x000020e5	1.18e-41
29	0x00012168	1.0382e-40
30	0x00004fa6	2.8572e-41
31	0x00002b8e	1.5624e-41
32	0x80005f9d	-3.43e-41
33	0x80002d89	-1.6335e-41
34	0x0001ca43	1.64393e-40
35	0x00000854	2.988e-42
36	0x8000cc78	-7.335e-41
37	0x00009fe7	5.7362e-41
38	0x8000cf90	-7.446e-41
39	0x80000cfc	-4.658e-42
40	0x80019c8f	-1.47998e-40
41	0x800003e3	-1.394e-42
42	0x8001785b	-1.35011e-40
43	0x0000e957	8.3707e-41
44	0x00022960	1.98514e-40
45	0x00007bb0	4.4371e-41
46	0x80023c13	-2.05222e-40
47	0x80005f16	-3.411e-41
48	0x00021ecf	1.94723e-40
49	0x0001dffd	1.72187e-40
50	0x00004b5e	2.7037e-41
51	0x000159ff	1.2412e-40
52	0x0002c7cb	2.55343e-40
53	0x0000f878	8.9134e-41
54	0x8003232b	-2.88122e-40
55	0x8000e854	-8.3344e-41
56	0x8000f2fc	-8.7166e-41
57	0x80008d94	-5.0789e-41
58	0x80011999	-1.01018e-40
59	0x0001df2b	1.71893e-40
60	0x80017be5	-1.3628e-40
61	0x80006d0d	-3.912e-41
62	0x8001a9ce	-1.5275e-40
63	0x80025a0e	-2.15977e-40
