gatv2_fold_5.pt (torch, 10562 bytes, 8 tensors)

conv1.att f4 [1, 8, 8]
1.0111e-40 -7.6748e-41 -2.8532e-41 2.361e-41 -2.685e-42 -3.859e-41 1.13734e-40 -4.007e-41
6.3196e-41 -2.29524e-40 6.9205e-41 2.1378e-40 2.1385e-41 3.7272e-41 -8.7497e-41 -7.8718e-41
-7.361e-41 -1.01175e-40 6.7251e-41 -1.67716e-40 -2.17346e-40 -8.7207e-41 -1.38619e-40 1.882e-41
-1.84873e-40 3.9608e-41 -2.30655e-40 -1.02403e-40 -1.26354e-40 -1.28569e-40 -3.0352e-41 3.3193e-41
-2.0692e-41 -2.56345e-40 -3.346e-42 -1.62174e-40 2.44068e-40 1.55368e-40 1.19424e-40 1.97013e-40
-1.0936e-41 -3.9752e-41 -1.87089e-40 -9.0765e-41 -2.5893e-41 5.5728e-41 -2.42088e-40 -8.7473e-41
-2.5211e-40 5.5828e-41 2.0244e-40 -2.27745e-40 6.4255e-41 -9.7439e-41 -1.7455e-40 6.8976e-41
-2.3761e-40 -1.65097e-40 3.5527e-41 1.00446e-40 -2.05052e-40 4.2012e-41 -2.26053e-40 9.9694e-41
00000000: db19 0100 f1d5 0080 894f 0080 d141 0000
00000010: 7c07 0080 936b 0080 0b3d 0100 b36f 0080
00000020: 2ab0 0000 d27f 0280 eac0 0000 ef53 0200
00000030: 9d3b 0000 e667 0000 e8f3 0080 6fdb 0080
00000040: 32cd 0080 091a 0180 78bb 0000 86d3 0180
00000050: df5d 0280 19f3 0080 6a82 0180 7634 0000
00000060: 5a03 0280 696e 0000 f982 0280 751d 0180
00000070: 3960 0180 6666 0180 9c54 0080 875c 0000
00000080: ae39 0080 96ca 0280 5409 0080 13c4 0180
00000090: 5da8 0200 1ab1 0100 e84c 0100 3125 0200
000000a0: 7c1e 0080 d06e 0080 8709 0280 04fd 0080
000000b0: 2e48 0080 599b 0000 d8a2 0280 d7f3 0080
000000c0: c8be 0280 a09b 0000 5234 0200 dc7a 0280
000000d0: 1eb3 0000 9f0f 0180 93e6 0180 47c0 0000
000000e0: 5c96 0280 39cc 0180 0963 0000 0118 0100
000000f0: 9a3b 0280 1d75 0000 2576 0280 e815 0100

conv1.bias f4 [64]
2.1502e-41 -1.06808e-40 8.7306e-41 -1.93965e-40 2.16623e-40 -8.598e-42 -2.9675e-41 9.0905e-41
-5.8569e-41 1.14518e-40 -5.8978e-41 -4.2374e-41 6.054e-42 -2.81629e-40 4.6718e-41 2.69419e-40
5.6914e-41 -1.91061e-40 -1.03227e-40 -7.0017e-41 -1.92309e-40 2.7337e-41 1.769e-41 1.94241e-40
-2.48681e-40 6.583e-41 2.69685e-40 1.6581e-40 -4.9219e-41 -2.5436e-41 2.46853e-40 -1.481e-40
2.05282e-40 -2.39789e-40 -1.34379e-40 1.84886e-40 -8.8627e-41 -1.93071e-40 1.62772e-40 2.71087e-40
-4.6139e-41 1.094e-42 1.04425e-40 -6.6339e-41 8.327e-42 2.6005e-41 1.71955e-40 -5.4547e-41
2.28784e-40 3.6469e-41 8.1606e-41 -9.9394e-41 -8.7542e-41 1.4604e-41 2.47856e-40 3.4613e-41
1.95333e-40 -1.18031e-40 -2.40592e-40 -5.5362e-41 7.279e-41 -2.40365e-40 5.9743e-41 8.377e-42
00000000: f03b 0000 bd29 0180 60f3 0000 b21c 0280
00000010: db5b 0200 f817 0080 b952 0080 68fd 0000
00000020: 44a3 0080 3b3f 0100 68a4 0080 1f76 0080
00000030: e010 0000 1111 0380 3b82 0000 08ef 0200
00000040: a79e 0000 9a14 0280 c11f 0180 2ec3 0080
00000050: 1418 0280 344c 0000 5031 0000 771d 0200
00000060: 39b5 0280 82b7 0000 c6ef 0200 36ce 0100
00000070: 3489 0080 e846 0080 20b0 0200 d89c 0180
00000080: 3e3c 0200 6f9c 0280 9876 0180 6303 0200
00000090: 0ef7 0080 341a 0280 bec5 0100 aef3 0200
000000a0: 9e80 0080 0d03 0000 1823 0100 edb8 0080
000000b0: 3617 0000 7e48 0000 57df 0100 0e98 0080
000000c0: c27d 0200 a965 0000 7ce3 0000 1215 0180
000000d0: 08f4 0080 b628 0000 ecb2 0200 7d60 0000
000000e0: 8220 0200 0649 0180 ac9e 0280 549a 0080
000000f0: e9ca 0000 0a9e 0280 8aa6 0000 5a17 0000

conv1.lin_l.weight f4 [64, 9]
-7.6731e-41 -1.61382e-40 1.9489e-40 2.61248e-40 -6.2417e-41 9.2351e-41 1.63342e-40 2.6675e-41
-1.19693e-40 -5.3235e-41 -2.18071e-40 7.8862e-41 8.628e-42 9.4536e-41 8.1696e-41 1.8659e-40
-8.5387e-41 1.2781e-40 9.2802e-41 1.57765e-40 2.60176e-40 1.64071e-40 1.32686e-40 -8.8884e-41
-4.2552e-41 -3.0282e-41 -2.1645118e-12 1.95705e-40 -1.34062e-40 1.23358e-40 1.89157e-40 2.26212e-40
-7.864e-42 -1.64882e-40 7.894e-41 -3.2618896e-06 -8.04e-42 -3.8099e-41 5.7306e-41 2.54542e-40
9.1128e-41 1.18466e-40 6.8535e-41 -1.398e-41 -5.3178e-41 -2.64805e-40 -6.208e-42 2.25702e-40
5.854e-41 1.08053e-40 2.57987e-40 -1.25226e-40 -4.459e-41 2.21833e-40 6.3228e-41 2.2027e-40
8.9666e-41 -1.38332e-40 1.72732e-40 9.0028e-41 -2.08623e-40 3.2065e-41 -1.2576087e-10 2.09777e-40
1.74058e-40 9.405e-41 1.50841e-40 7.0501e-41 -7.787e-42 -7.4524e-41 -2.19745e-40 1.64982e-40
-1.65835e-40 1.35326e-40 -5.237e-41 1.66184e-40 2.6214e-41 2.7847e-41 7.53e-41 6.236e-42
-2.19368e-40 -1.508e-42 -3.5683e-41 4.0107e-41 -4.7505e-41 -1.0492e-41 2.16932e-40 1.20583e-40
1.19751e-40 -2.02835e-40 -1.19682e-40 -1.70148e-40 -2.6773e-41 2.34879e-40 -4.1131e-41 2.07978e-40
-1.90648e-40 -1.67511e-40 6.613e-42 -3.7104e-41 -2.2917e-41 2.6199e-41 -8.5209e-41 4.49e-42
6.4278e-41 1.04215e-40 1.04998e-40 -1.38814e-40 1.00376e-40 9.2773e-41 4.1115e-41 -1.3231e-41
1.5989e-41 1.80283e-40 -7.8724e-41 2.7245e-41 -2.0288e-41 1.84383e-40 -2.0368e-41 9.843e-42
6.2233e-41 3.9121e-41 7.7573e-41 -1.87806e-40 1.17633e-40 8.9546e-41 -2.5354e-41 1.3273e-40
1.1617e-40 7.2023e-41 1.47382e-40 -6.694e-41 -1.09294e-40 9.2064e-41 1.24418e-40 -1.43859e-40
2.36382e-40 1.94482e-40 1.91836e-40 7.2722e-41 -1.36995e-40 -1.48838e-40 -2.27156e-40 1.07021e-40
-1.0078e-40 4.1691e-41 7.8931e-41 -2.12116e-40 6.9359e-41 2.30847e-40 -1.5323e-41 5.344e-41
-1.1404e-40 3.781e-42 7.5527e-41 5.537e-42 -2.02451e-40 9.2626e-41 -1.40993e-40 -4.0503e-41
-1.7711e-41 -2.32108e-40 -2.7359e-41 5.9586e-41 2.5837e-41 -7.5314e-41 3.608e-41 -1.14132e-40
4.4634e-41 -5.4637e-41 1.94937e-40 2.62092e-40 1.41747e-40 8.7222e-41 1.0109e-40 -4.3936e-41
6.782e-41 2.37266e-40 1.43123e-40 2.32e-41 -4.7015e-41 1.67032e-40 1.31335e-40 1.1225e-40
9.3773e-41 -2.58551e-40 -2.7062e-41 -1.4317e-41 1.49188e-40 -4.0999e-41 -2.89505e-40 2.0076e-41
-5.9044e-41 -2.6633e-41 -1.14448e-40 4.8e-43 1.1847e-40 -5.0699e-41 1.05812e-40 -4.8767e-41
2.03286e-40 2.8411e-41 8.2293e-41 -1.078e-40 -1.6274e-40 -5.7383e-41 1.09904e-40 4.1477e-41
2.0538e-40 3.9448e-41 -6.2712e-41 7.8848e-41 3.4129e-41 -1.30911e-40 -2.6078e-41 -2.779e-42
1.4744e-41 1.48259e-40 2.0058e-40 -1.20439e-40 6.8854e-41 -1.05975e-40 -1.52858e-40 -1.0703e-40
1.35602e-40 -2.6162e-40 -6.7883e-41 3.4536e-41 8.5946e-41 3.1688e-41 1.63764e-40 6.563e-41
4.7054e-41 2.14581e-40 1.9266e-41 -1.52519e-40 1.41831e-40 -1.44276e-40 1.90734e-40 8.996e-42
8.468e-41 7.395e-41 1.39407e-40 -6.0065e-41 1.36639e-40 3.3663e-41 -6.9412e-41 1.20662e-40
2.609e-42 1.08595e-40 2.06945e-40 -2.86336e-40 5.1782e-41 2.11903e-40 5.9227e-41 3.9987e-41
00000000: e5d5 0080 dec1 0180 461f 0200 41d8 0200
00000010: fead 0080 7001 0100 55c7 0100 5c4a 0000
00000020: a84d 0180 6694 0080 e55f 0280 d6db 0000
00000030: 0d18 0000 8707 0100 bce3 0000 2308 0200
00000040: 06ee 0080 4864 0100 b202 0100 c9b7 0100
00000050: 44d5 0200 5dc9 0100 e071 0100 c6f7 0080
00000060: 9e76 0080 6a54 0080 6150 18ac 8c21 0200
00000070: b675 0180 df57 0100 4b0f 0200 9676 0200
00000080: ec15 0080 a0cb 0180 0ddc 0000 d6e6 5ab6
00000090: 6a16 0080 346a 0080 bf9f 0000 8fc5 0200
000000a0: 07fe 0000 3c4a 0100 0cbf 0000 f826 0080
000000b0: 3d94 0080 2be2 0280 4e11 0080 2a75 0200
000000c0: 30a3 0000 352d 0100 2acf 0200 145d 0180
000000d0: 4c7c 0080 616a 0200 41b0 0000 0666 0200
000000e0: f4f9 0000 9d81 0180 82e1 0100 f6fa 0000
000000f0: 8e45 0280 6259 0000 8a46 0aaf c648 0200
00000100: 34e5 0100 2c06 0100 7ca4 0100 87c4 0000
00000110: b515 0080 becf 0080 8f64 0280 e7cb 0100
00000120: 48ce 0180 3c79 0100 fc91 0080 41cf 0100
00000130: 1349 0000 a04d 0000 e8d1 0000 6211 0000
00000140: 8263 0280 3404 0080 7863 0080 cd6f 0000
00000150: 6d84 0080 3f1d 0080 b85c 0200 2350 0100
00000160: d14d 0100 6c35 0280 a04d 0180 4eda 0180
00000170: a24a 0080 bf8e 0200 a872 0080 c243 0200
00000180: 7313 0280 f4d2 0180 6f12 0000 6e67 0080
00000190: e23f 0080 0849 0000 87ed 0080 840c 0000
000001a0: 2eb3 0000 8222 0100 b124 0100 f582 0180
000001b0: cf17 0100 9d02 0100 9d72 0000 e224 0080
000001c0: 922c 0000 8ef6 0100 73db 0080 f34b 0000
000001d0: 8e38 0080 fc01 0200 c738 0080 701b 0000
000001e0: 7bad 0000 0e6d 0000 3ed8 0000 870b 0280
000001f0: ea47 0100 9ef9 0000 ad46 0080 ff71 0100
00000200: d643 0100 c5c8 0000 d79a 0100 9aba 0080
00000210: ab30 0180 a300 0100 d45a 0100 0591 0180
00000220: f092 0200 231e 0200 c316 0200 b8ca 0000
00000230: e37d 0180 e69e 0180 3879 0280 552a 0100
00000240: ef18 0180 3874 0000 07dc 0000 4b4f 0280
00000250: 58c1 0000 8283 0200 b72a 0080 f894 0000
00000260: e63d 0180 8a0a 0000 8ad2 0000 6f0f 0000
00000270: 5a34 0280 3402 0100 0889 0180 e870 0080
00000280: 5f31 0080 0687 0280 444c 0080 1aa6 0000
00000290: 0648 0000 f2d1 0080 9464 0000 273e 0180
000002a0: 6c7c 0000 4e98 0080 681f 0200 9bda 0200
000002b0: 228b 0100 24f3 0000 cc19 0100 7a7a 0080
000002c0: 0ebd 0000 6795 0200 f88e 0100 ac40 0000
000002d0: 0f83 0080 9ed1 0100 1c6e 0100 e838 0100
000002e0: 6705 0100 bcd0 0280 704b 0080 e927 0080
000002f0: e09f 0100 4a72 0080 0627 0380 f737 0000
00000300: 97a4 0080 3e4a 0080 093f 0180 5701 0000
00000310: 3f4a 0100 548d 0080 f626 0100 f187 0080
00000320: ae36 0200 334f 0000 66e5 0000 812c 0180
00000330: a7c5 0180 f69f 0080 5e32 0100 9f73 0000
00000340: 843c 0200 f76d 0000 d1ae 0080 ccdb 0000
00000350: 235f 0000 ed6c 0180 b248 0080 bf07 0080
00000360: 1a29 0000 499d 0100 232f 0200 bc4f 0180
00000370: f0bf 0000 6a27 0180 1baa 0180 5b2a 0180
00000380: 017a 0100 4ad9 0280 3bbd 0080 4660 0000
00000390: 95ef 0000 5558 0000 82c8 0100 f3b6 0000
000003a0: 2b83 0000 2a56 0200 b535 0000 29a9 0180
000003b0: 5e8b 0100 2f92 0180 b013 0200 1419 0000
000003c0: 0eec 0000 24ce 0000 9c84 0100 70a7 0080
000003d0: e57c 0100 d75d 0000 7ec1 0080 5b50 0100
000003e0: 4607 0000 b82e 0100 e140 0200 301e 0380
000003f0: 5990 0000 b34e 0200 1aa5 0000 786f 0000

conv1.lin_l.bias f4 [64]
1.3292e-40 1.9102e-40 -1.57698e-40 8.6798e-41 2.31852e-40 8.3191e-41 3.4216e-41 -1.6599e-40
2.41945e-40 1.14192e-40 -2.70182e-40 -8.036e-42 7.8965e-41 1.59084e-40 7.827e-41 1.71062e-40
2.07071e-40 1.48975e-40 -7.8019e-41 -1.51168e-40 -3.9665e-41 -2.49699e-40 6.2477e-41 -6.3723e-41
6.5033e-41 -1.15737e-40 4.2049e-41 1.99253e-40 -8.9715e-41 2.80457e-40 -1.98605e-40 -5.4148e-41
2.82563e-40 -2.014e-40 1.04942e-40 9.4456e-41 1.89705e-40 4.0387e-41 2.3358e-41 9.4274e-41
1.57034e-40 -3.5523e-41 -1.10142e-40 -9.655e-41 7.3256e-41 1.85194e-40 -3.254e-42 1.18434e-40
1.57404e-40 -2.82086e-40 -6.3297e-41 5.9646e-41 8.0079e-41 -9.0894e-41 -2.01701e-40 -1.3206e-41
-7.1846e-41 -8.602e-41 -7.0815e-41 -1.21312e-40 9.1735e-41 -3.715e-41 -6.7314e-41 7.6155e-41
00000000: 8772 0100 7c14 0200 99b7 0180 f5f1 0000
00000010: 4f86 0200 e7e7 0000 615f 0000 b6ce 0180
00000020: 72a2 0200 523e 0100 28f1 0280 6716 0080
00000030: 1fdc 0000 76bb 0100 2fda 0000 dadc 0100
00000040: 3b41 0200 489f 0100 7cd9 0080 65a5 0180
00000050: 926e 0080 0fb8 0280 29ae 0000 a2b1 0080
00000060: 49b5 0000 a142 0180 3775 0000 702b 0200
00000070: 17fa 0080 cd0d 0300 a129 0280 f196 0080
00000080: ac13 0300 6c31 0280 8924 0100 4e07 0100
00000090: d210 0200 9570 0000 1d41 0000 cc06 0100
000000a0: bfb5 0100 0663 0080 0833 0180 240d 0180
000000b0: 35cc 0000 3f04 0200 1209 0080 254a 0100
000000c0: c7b6 0100 5712 0380 72b0 0080 45a6 0000
000000d0: 3adf 0000 60fd 0080 4332 0280 d024 0080
000000e0: 47c8 0080 caef 0080 67c5 0080 2b52 0180
000000f0: b8ff 0000 8f67 0080 a5bb 0080 4ad4 0000

conv1.lin_r.weight f4 [64, 9]
-2.40485e-40 1.1640375e-10 -1.1688e-41 -2.09577e-40 -2.59033e-40 2.02698e-40 1.6433903e-12 7.5154e-41
-0.0005048335 -2.0225e-40 -1.32065325e-05 8.3349e-41 -4.986618e-10 -2.06453e-40 7.1999e-41 7.798152e-12
1.44138e-40 -4.048582e-06 1.61814e-40 -1.1722319e-10 -1.04757e-40 2.46177e-40 -2.35165e-40 -1.44547e-40
1.9526577e-12 -2.35016e-40 2.8675413e-05 -2.45928e-40 -3.585469e-07 2.3522e-41 0.00033246144 3.874e-41
1.95668e-40 1.1784922e-12 2.31856e-40 -3.135341e-08 -1.2973e-41 -9.4297235e-08 1.19531e-40 -2.37266e-40
2.12314e-40 8.1998e-41 3.2878724e-13 2.49412e-40 3.7698705e-10 -2.31133e-40 1.34443e-40 -3.1923e-41
1.83572e-40 -2.14373e-40 2.18046e-40 8.5052e-41 -1.21774e-40 -1.01504e-40 1.309e-40 -2.16784e-40
2.24808e-40 1.41915e-40 2.06172e-40 1.62403e-40 -2.8703956e-11 2.00412e-40 8.6453506e-13 1.59325e-40
-1.6178404e-07 5.2791e-41 -6.8252575e-08 1.24435e-40 -1.3127e-41 5.1197674e-07 -3.1483978e-05 6.147373e-05
6.9402e-41 -5.3433e-41 1.04095e-40 -1.96709e-40 -1.0539e-41 2.09503e-40 -4.0995e-41 -2.4449e-40
2.6026863e-09 -7.529e-41 -2.45252e-40 -1.12904e-40 -7.863e-42 -2.9895e-41 2.25071e-40 -5.6258864e-07
1.22814e-40 6.045269e-08 1.76418e-40 2.91617e-40 1.32696e-40 -2.51658e-40 1.91461e-40 -5.2372e-41
1.85159e-40 -4.2965e-41 -2.9322519e-12 2.63785e-40 -1.02366e-40 -7.8843e-41 7.9164e-41 -2.90772e-40
1.99632e-40 -2.54238e-40 5.0954e-41 2.81158e-40 1.12842e-40 2.69976e-40 -2.2482e-41 -1.8933e-41
1.245e-40 -2.56604e-40 -8.448797e-12 2.16387e-40 -1.9532263e-07 2.55852e-40 2.11554e-40 1.8461e-40
-1.66498e-40 6e-41 1.48854e-40 2.1873e-40 -1.50368e-40 -1.3603315e-07 -1.72515e-40 -2.3548353e-08
1.08999e-40 -4.0371e-41 -2.8551e-41 2.87545e-40 -2.5237892e-07 1.24435e-40 1.0622956e-05 -6.1287e-41
7.6643e-41 -1.26244e-40 9.4918e-41 2.65976e-40 -2.73679e-40 -2.64171e-40 -1.0656e-40 -6.2126426e-10
-1.12656e-40 -1.49758e-40 1.72329e-40 1.27168e-40 1.36569e-40 -1.0344e-40 3.9709915e-09 2.6479e-40
-1.371726e-08 5.5365e-41 9.877739e-10 1.49278e-40 7.877e-42 1.49894e-40 -2.04543e-40 1.7107466e-12
5.3448e-41 3.7129733e-10 -1.45312e-40 -1.994219e-09 -1.31826e-40 -9.18e-43 2.27931e-40 4.025e-41
-2.4576836e-13 2.88299e-40 1.1826295e-10 7.2617e-41 3.1575055e-08 4.8621e-41 2.427e-40 -1.20023e-40
2.1218e-40 -3.8862e-41 1.7892e-41 -2.59623e-40 2.26866e-40 -2.78121e-40 8.7957e-41 -1.02124e-40
-9.206e-41 2.83044e-40 -6.4813e-41 1.9105e-41 1.5321e-40 -2.73409e-40 -1.1017527e-06 1.5393e-41
-3.7140587e-08 -1.55588e-40 -2.69004e-40 -1.9285389e-07 4.9105097e-08 6.9129324e-10 -8.3035e-41 -2.317875e-12
2.06072e-40 -1.54006e-40 -2.39758e-40 2.18163e-40 2.16124e-40 -3.078e-41 2.0119063e-12 -1.96801e-40
-1.0691989e-06 -1.6929e-41 1.22136e-40 -1.6731e-40 -1.12691e-40 -2.606825e-12 -8.4452e-41 6.525141e-10
6.9174e-41 1.1194838e-09 4.8768e-41 -1.4076e-40 1.5773e-41 2.40325e-40 -2.113365e-07 -1.52094e-40
4.6267665e-09 -1.84555e-40 -1.1169196e-08 -8.321e-42 -3.9051453e-12 2.2749e-40 2.90877e-40 -4.214467e-07
3.2917e-41 2.2490473e-14 -1.9519e-40 4.7348e-41 1.4287e-40 1.30455e-40 5.3195e-41 -3.0023e-41
4.143208e-10 -1.9312e-40 -6.077585e-08 1.82948e-40 9.2563e-41 -2.2765e-41 -3.8816e-41 -1.10463e-40
-2.70113e-40 -7.7248e-41 -2.1409e-41 -1.076329e-08 2.7688e-40 1.49046e-40 2.521e-42 1.9538e-41
00000000: 609e 0280 7cf9 ff2e 9520 0080 3748 0280
00000010: 14d2 0280 0a35 0200 6049 e72b 80d1 0000
00000020: cd56 04ba ca33 0280 a091 5db7 58e8 0000
00000030: 3412 09b0 823f 0280 b4c8 0000 c12f 092d
00000040: cc91 0100 0ed9 87b6 12c3 0100 65e3 00af
00000050: 0524 0180 3eae 0200 8b8f 0280 f092 0180
00000060: f467 092c 218f 0280 fb8b f037 8cad 0280
00000070: 507e c0b4 9241 0000 384e ae39 fe6b 0000
00000080: 7121 0200 a8db a52b 5286 0200 70a9 06b3
00000090: 2a24 0080 7480 cab3 344d 0100 6795 0280
000000a0: d84f 0200 94e4 0000 3c17 b92a 42b7 0200
000000b0: 3640 cf2f 4e84 0280 c676 0100 fd58 0080
000000c0: b9ff 0100 9655 0280 d35f 0200 17ed 0000
000000d0: 7553 0180 f41a 0180 e56c 0100 4e5c 0280
000000e0: ac72 0200 9a8b 0100 b93e 0200 b7c4 0100
000000f0: 907b fcad ab2e 0200 5158 732b 22bc 0100
00000100: dcb6 2db4 2993 0000 4092 92b3 e05a 0100
00000110: 9824 0080 c66e 0935 aa0d 04b8 75eb 8038
00000120: 77c1 0000 f394 0080 2d22 0100 5824 0280
00000130: 611d 0080 0248 0200 4772 0080 8aa9 0280
00000140: f1da 3231 e1d1 0080 aaab 0280 bb3a 0180
00000150: eb15 0080 5653 0080 6873 0200 cc04 17b5
00000160: 5b56 0100 38d2 8133 c8eb 0100 e92c 0300
00000170: e771 0100 85bd 0280 b715 0200 fe91 0080
00000180: 2604 0200 c577 0080 c156 4eac 53df 0200
00000190: 5b1d 0180 c8db 0080 addc 0000 8e2a 0380
000001a0: 7e2c 0200 b6c4 0280 0a8e 0000 c10f 0300
000001b0: 8f3a 0100 95f0 0200 ac3e 0080 c734 0080
000001c0: 0e5b 0100 4fcb 0280 00a2 14ad 335b 0200
000001d0: e0b9 51b4 36c9 0200 ba4d 0200 9e02 0200
000001e0: 21d0 0180 41a7 0000 f29e 0100 bb61 0200
000001f0: 2aa3 0180 8210 12b4 e7e0 0180 6047 cab2
00000200: d82f 0100 8a70 0080 974f 0080 8f21 0300
00000210: b27e 87b4 e05a 0100 4039 3237 d8aa 0080
00000220: a6d5 0000 eb5f 0180 9808 0100 6fe5 0200
00000230: e8fa 0280 67e0 0280 0c29 0180 96c5 2ab0
00000240: 0a3a 0180 77a1 0180 62e0 0100 7e62 0100
00000250: b37c 0100 5920 0180 3671 8831 20e2 0200
00000260: 26a9 6bb2 569a 0000 34c2 8730 20a0 0100
00000270: f515 0000 d8a1 0100 2f3a 0280 24c4 f02b
00000280: fe94 0000 741f cc2f 1295 0180 ac0a 09b1
00000290: 7a6f 0180 8f02 0080 617b 0200 3370 0000
000002a0: f45a 8aaa a923 0300 1008 022f 6dca 0000
000002b0: 249d 0733 8987 0000 8da4 0200 934e 0180
000002c0: 794f 0200 556c 0080 e031 0000 b9d3 0280
000002d0: 6978 0200 4a07 0380 30f5 0000 ae1c 0180
000002e0: a000 0180 0315 0300 acb4 0080 4235 0000
000002f0: 16ab 0100 27fa 0280 efdf 93b5 e92a 0000
00000300: 8284 1fb3 b7b1 0180 e0ed 0280 4613 4fb4
00000310: a0e7 5233 7005 3e30 78e7 0080 201b 23ac
00000320: 723e 0200 4ead 0180 599c 0280 2660 0200
00000330: 775a 0200 cd55 0080 4893 0d2c 9a24 0280
00000340: 6581 8fb5 312f 0080 7754 0100 64d2 0180
00000350: 233a 0180 6270 37ac 6beb 0080 995c 3330
00000360: d4c0 0000 56dc 9930 f287 0000 6288 0180
00000370: f82b 0000 ee9d 0200 bceb 62b4 faa7 0180
00000380: 78f9 9e31 7702 0280 a5e2 3fb2 3217 0080
00000390: 6c66 89ac 267a 0200 d92a 0300 3243 e2b4
000003a0: c25b 0000 8093 ca28 1c20 0280 fd83 0000
000003b0: 438e 0100 a86b 0100 4994 0000 b153 0080
000003c0: 78c6 e32f 571a 0280 e083 82b3 fcfd 0100
000003d0: 0702 0100 763f 0080 346c 0080 ed33 0180
000003e0: f7f0 0280 56d7 0080 ae3b 0080 73e9 38b2
000003f0: d403 0300 7b9f 0100 0707 0000 7736 0000

conv1.lin_r.bias f4 [64]
-3.5440303e-07 1.54433e-40 -2.44059e-40 -5.4896915e-08 -2.32637e-40 1.11014e-40 5.7204e-41 1.2807112e-12
1.99092e-40 7.5695e-41 -1.13679e-40 -1.3154e-40 2.55489e-40 1.71586e-40 5.6147e-41 3.8768e-41
-1.73359e-40 0.0008545697 -0.00084952835 -5.7452e-41 1.66103e-40 -4.907313e-07 -2.9454e-41 -2.3757373e-08
-2.7744e-41 1.2552523e-10 -3.3935e-41 -5.9613e-41 -7.4496e-41 -8.5213e-41 1.6769e-40 2.05697e-40
-6.1217e-41 5.4627e-41 -2.91068e-40 -3.6368e-41 1.8079e-40 -1.15034e-40 6.8177e-41 7.7356e-41
-5.156e-41 -4.9892e-41 -1.20666e-40 3.045e-42 9.9391e-41 1.23984e-40 5.5382e-41 -1.06025e-40
-2.0063e-40 1.15225e-40 -2.11156e-40 -2.733e-42 -1.77516e-40 -2.30259e-40 1.0887e-40 -5.5977237e-11
-9.1611e-41 1.60882e-40 -3.4796e-41 -2.64944e-40 1.30717e-40 7.117e-41 3.642e-42 1.4657e-40
00000000: c844 beb4 7fae 0100 56a8 0280 ccc7 6bb3
00000010: 7f88 0280 7635 0100 769f 0000 7c3e b42b
00000020: fd2a 0200 02d3 0000 e43c 0180 ae6e 0180
00000030: 33c8 0200 50de 0100 849c 0000 126c 0000
00000040: 41e3 0180 3405 603a e2b2 5eba 27a0 0080
00000050: 07cf 0100 ccba 03b5 1b52 0080 0413 ccb2
00000060: 574d 0080 3604 0a2f 995e 0080 2da6 0080
00000070: aacf 0080 8aed 0080 74d3 0100 663d 0200
00000080: a6aa 0080 4798 0000 612b 0380 6165 0080
00000090: f8f7 0100 ab40 0180 0dbe 0000 a3d7 0000
000000a0: ba8f 0080 148b 0080 5e50 0180 7d08 0000
000000b0: 1015 0100 9e59 0100 629a 0000 8e27 0180
000000c0: 462f 0280 3341 0100 9e4c 0280 9e07 0080
000000d0: d8ee 0180 de81 0280 7c2f 0100 c430 76ae
000000e0: 60ff 0080 79c0 0100 ff60 0080 8ee2 0280
000000f0: 636c 0100 65c6 0000 270a 0000 9498 0100

conv2.lin_l.weight f4 [1, 64]
2.70025e-40 9.4e-44 -2.70337e-40 -9.4e-43 -1.01e-43 -2.22303e-40 2.73e-43 -6.3e-44
-1.3e-44 1.14e-43 8.1e-44 2.2e-44 -1.18e-43 -1.4e-44 1.32e-43 9.39e-43
-2.44154e-40 -6.1e-43 3e-45 -9.2e-44 1.816e-42 -1.22e-43 2.6932e-40 -6.4e-44
1.12037e-40 -5.7e-44 -1.128e-42 4.6e-43 1.96e-43 2.69816e-40 3.31e-43 -6e-45
-2.70006e-40 -6.7515e-41 -2.70228e-40 -1.32e-43 7.3e-44 9.4e-44 -1.32e-43 2e-44
1.3e-44 3e-44 2.16e-43 -1.11e-43 5.5e-44 -1.77e-43 -1.25e-43 -3.1e-44
2.606e-42 1e-44 -5.3e-44 -8.83e-43 1e-44 7.4e-44 -2.70305e-40 -1.7e-44
3.55e-43 -1.5105e-41 -3.9e-44 5e-44 -5.6e-44 -5.5e-44 -8.324e-42 -4.5e-44
00000000: b8f0 0200 4300 0000 97f1 0280 9f02 0080
00000010: 4800 0080 b16b 0280 c300 0000 2d00 0080
00000020: 0900 0080 5100 0000 3a00 0000 1000 0000
00000030: 5400 0080 0a00 0080 5e00 0000 9e02 0000
00000040: 9aa8 0280 b301 0080 0200 0000 4200 0080
00000050: 1005 0000 5700 0080 c1ee 0200 2e00 0080
00000060: 5038 0100 2900 0080 2503 0080 4801 0000
00000070: 8c00 0000 23f0 0200 ec00 0000 0400 0080
00000080: abf0 0280 34bc 0080 49f1 0280 5e00 0080
00000090: 3400 0000 4300 0000 5e00 0080 0e00 0000
000000a0: 0900 0000 1500 0000 9a00 0000 4f00 0080
000000b0: 2700 0000 7e00 0080 5900 0080 1600 0080
000000c0: 4407 0000 0700 0000 2600 0080 7602 0080
000000d0: 0700 0000 3500 0000 80f1 0280 0c00 0080
000000e0: fd00 0000 1b2a 0080 1c00 0080 2400 0000
000000f0: 2800 0080 2700 0080 3417 0080 2000 0080

conv2.lin_r.weight f4 [1, 64]
-1.2488e-41 1.22995e-40 -2.26555e-40 -3.7471e-41 -2.37273e-40 -2.5054e-41 1.4719e-40 1.33268e-40
-5.11e-43 -3.8621e-41 1.6017e-41 -1.16807e-40 -2.43484e-40 -3.4839e-41 -2.79853e-40 -9.7607e-41
-7.9051e-41 -1.64255e-40 -1.03538e-40 6.4495e-41 1.89627e-40 -3.1521e-41 -5.7746e-41 4.4395e-41
1.35287e-40 -2.37517e-40 -9.1318e-41 -1.9469e-40 -1.67548e-40 -2.09399e-40 6.99e-42 2.0511e-41
2.5735e-40 6.7136e-41 6.402e-41 5.5477e-41 -8.0212e-41 -8.8859e-41 -2.61719e-40 -2.143e-42
-8.6e-41 4.4005e-41 -2.72435e-40 2.66307e-40 6.9425e-41 -6.9559e-41 7.6651e-41 -2.56208e-40
-2.51009e-40 1.08515e-40 2.10895e-40 2.3413e-41 -1.51008e-40 2.89985e-40 -2.4562e-40 -6.9814e-41
2.02653e-40 1.31659e-40 1.25074e-40 -1.81345e-40 -1.44e-42 -2.54645e-40 1.00945e-40 6.0127e-41
00000000: d022 0080 dc56 0100 8b77 0280 7468 0080
00000010: 6c95 0280 d745 0080 4e9a 0100 7f73 0100
00000020: 6d01 0080 a96b 0080 a62c 0000 9c45 0180
00000030: bca6 0280 1e61 0080 1e0c 0380 1710 0180
00000040: 5ddc 0080 e0c9 0180 9f20 0180 c9b3 0000
00000050: 9a10 0200 de57 0080 f9a0 0080 c17b 0000
00000060: 2079 0100 1a96 0280 8ffe 0080 b71e 0280
00000070: 0ed3 0180 b847 0280 7c13 0000 2d39 0000
00000080: 63cd 0200 26bb 0000 76b2 0000 a69a 0000
00000090: 99df 0080 b4f7 0080 91d9 0280 f905 0080
000000a0: bcef 0080 ab7a 0000 70f7 0280 5be6 0200
000000b0: 87c1 0000 e7c1 0080 acd5 0000 34ca 0280
000000c0: b6bb 0280 7f2e 0100 e44b 0200 4441 0000
000000d0: f3a4 0180 5c28 0300 b0ac 0280 9dc2 0080
000000e0: ea34 0200 036f 0100 a85c 0100 84f9 0180
000000f0: 0404 0080 d9c5 0280 6519 0100 9ca7 0000
