gatv2_fold_8.pt (torch, 10562 bytes, 8 tensors)

conv1.att f4 [1, 8, 8]
000000 5a 93 00 00 66 5c 02 80 9a b1 01 00 35 24 03 80
       5.286e-41 -2.16817e-40 1.55547e-40 -2.88495e-40
000010 c6 e7 02 80 1f de 02 80 6a fd 00 00 f4 29 02 80
       -2.66816e-40 -2.63353e-40 9.0908e-41 -1.98721e-40
000020 7d ab 02 80 d1 79 02 80 3b 98 01 80 c4 9c 01 80
       -2.4519e-40 -2.2737e-40 -1.46445e-40 -1.48072e-40
000030 80 6c 01 00 ce 1c 01 80 5d 98 00 00 d7 ae 02 80
       1.30758e-40 -1.02169e-40 5.4658e-41 -2.46392e-40
000040 2e 73 02 80 18 04 01 80 2f 20 02 80 96 ac 00 00
       -2.2499e-40 -9.3304e-41 -1.95216e-40 6.1912e-41
000050 07 39 02 00 35 f2 02 80 ff c7 01 00 7a 18 00 00
       2.04129e-40 -2.70559e-40 1.6358e-40 8.78e-42
000060 a5 36 01 00 56 99 01 80 c0 6f 00 00 96 c1 02 80
       1.11438e-40 -1.46842e-40 4.0088e-41 -2.53117e-40
000070 ca 22 00 80 6b 2a 02 80 f8 23 03 80 7a 1e 01 00
       -1.248e-41 -1.98888e-40 -2.8841e-40 1.02768e-40
000080 02 58 00 80 2d 5f 00 80 80 92 00 80 e3 ec 00 80
       -3.1571e-41 -3.4143e-41 -5.2554e-41 -8.4979e-41
000090 bd ee 01 00 11 6c 01 80 68 ac 00 00 6d f6 00 80
       1.77479e-40 -1.30602e-40 6.1848e-41 -8.8401e-41
0000a0 d7 3e 00 00 5c e3 00 80 cf a8 01 80 5e b8 02 80
       2.2543e-41 -8.1561e-41 -1.52393e-40 -2.4981e-40
0000b0 22 3d 01 80 c3 ed 00 80 bf de 00 00 6a 6c 02 80
       -1.13766e-40 -8.5293e-41 7.9906e-41 -2.22563e-40
0000c0 c9 e7 00 80 4e 10 01 80 42 de 00 80 c3 a4 01 80
       -8.3149e-41 -9.7685e-41 -7.9731e-41 -1.50941e-40
0000d0 ab 5a 00 00 7a 94 01 80 a0 fd 00 80 0c 92 00 00
       3.2526e-41 -1.45099e-40 -9.0984e-41 5.2392e-41
0000e0 a8 6b 00 00 16 f7 00 00 b9 af 02 00 da f4 02 80
       3.862e-41 8.8638e-41 2.46708e-40 -2.71507e-40
0000f0 67 f5 00 00 43 99 02 80 1c 77 00 00 86 a1 00 00
       8.8034e-41 -2.38651e-40 4.2728e-41 5.7944e-41

conv1.bias f4 [64]
000000 c7 41 01 80 1c 8c 00 00 04 ce 01 80 ad d4 00 00
       -1.15432e-40 5.0262e-41 -1.6574e-40 7.6294e-41
000010 96 da 00 00 3b 2e 02 80 af 7b 00 80 65 0a 00 80
       7.8414e-41 -2.00255e-40 -4.437e-41 -3.729e-42
000020 dd cd 01 00 b1 7c 00 80 9e 39 00 00 4e 5a 00 80
       1.65685e-40 -4.4731e-41 2.0669e-41 -3.2395e-41
000030 b4 de 00 00 f0 ab 00 00 3b 89 00 00 75 c1 01 80
       7.9891e-41 6.168e-41 4.9229e-41 -1.61235e-40
000040 52 86 00 00 99 fc 01 80 fc b8 00 00 d7 2a 01 00
       4.8185e-41 -1.8245e-40 6.636e-41 1.07204e-40
000050 9a 7c 00 80 11 dc 00 00 1c 30 00 00 c7 0f 00 80
       -4.4699e-41 7.8945e-41 1.7258e-41 -5.66e-42
000060 53 d2 02 00 f3 98 00 80 48 6e 02 00 56 90 00 00
       2.59121e-40 -5.4868e-41 2.23232e-40 5.1778e-41
000070 e8 83 01 80 8b 8b 00 80 9e 43 00 80 02 24 00 80
       -1.39155e-40 -5.0059e-41 -2.4256e-41 -1.2917e-41
000080 c1 9b 02 80 2b 31 02 80 65 26 01 80 e3 26 03 00
       -2.39545e-40 -2.01309e-40 -1.05609e-40 2.89456e-40
000090 ee 3a 01 80 9b a4 00 00 02 81 00 00 80 7d 01 00
       -1.12975e-40 5.905e-41 4.6279e-41 1.36856e-40
0000a0 06 13 00 00 82 9a 02 80 28 cb 01 00 b5 a2 00 80
       6.824e-42 -2.39098e-40 1.64714e-40 -5.8368e-41
0000b0 68 11 02 00 bf 82 01 00 39 19 00 80 96 34 00 00
       1.89915e-40 1.38738e-40 -9.048e-42 1.8864e-41
0000c0 f8 2f 03 00 a3 8c 00 80 48 c1 00 80 51 17 01 00
       2.92714e-40 -5.0451e-41 -6.9336e-41 1.002e-40
0000d0 52 16 01 80 37 82 00 80 ae e4 01 00 cd 1e 01 80
       -9.9843e-41 -4.6712e-41 1.7387e-40 -1.02885e-40
0000e0 3f 12 01 80 d4 1e 00 00 9d 7f 02 80 ec a0 01 80
       -9.8381e-41 1.1059e-41 -2.2945e-40 -1.49563e-40
0000f0 38 55 00 00 8b 09 01 00 6f 3f 00 80 b2 98 00 00
       3.0571e-41 9.5259e-41 -2.2756e-41 5.4777e-41

conv1.lin_l.weight f4 [64, 9]
000000 3d 46 01 80 1b 12 01 00 03 4b 00 00 cf 72 00 80
       -1.17032e-40 9.833e-41 2.6909e-41 -4.1186e-41
000010 2d 52 00 00 4c 1e 01 80 7e c2 01 80 6d 1a 00 80
       2.9479e-41 -1.02704e-40 -1.61606e-40 -9.48e-42
000020 2a fa 02 80 98 71 00 00 a2 60 01 80 e3 25 03 00
       -2.73413e-40 4.075e-41 -1.26501e-40 2.89098e-40
000030 0e 02 01 80 38 d2 00 00 51 c6 02 00 ea 46 00 80
       -9.2573e-41 7.5412e-41 2.54814e-40 -2.5439e-41
000040 f4 f1 00 00 ee d5 01 80 6b a8 00 00 9d 94 00 00
       8.6796e-41 -1.68579e-40 6.0417e-41 5.3312e-41
000050 83 f2 00 00 da 5a 01 80 9d ba 00 00 4b f3 00 00
       8.6997e-41 -1.24427e-40 6.6944e-41 8.7277e-41
000060 3f 13 00 80 2e 84 00 80 4a c1 01 00 2b ba 00 80
       -6.904e-42 -4.7417e-41 1.61175e-40 -6.6784e-41
000070 b2 6e 02 00 af 57 00 00 f7 37 01 80 1d 62 00 00
       2.23381e-40 3.1455e-41 -1.11912e-40 3.5196e-41
000080 81 23 00 80 83 d2 00 80 6b 9d 00 80 f6 3e 01 80
       -1.2736e-41 -7.5517e-41 -5.6471e-41 -1.14422e-40
000090 53 01 01 80 96 dd 01 80 94 ce 02 00 a0 5e 00 00
       -9.231e-41 -1.71326e-40 2.57777e-40 3.3945e-41
0000a0 e1 43 01 00 e8 53 01 00 5b a3 00 80 3d 46 00 80
       1.16186e-40 1.21935e-40 -5.8601e-41 -2.5197e-41
0000b0 4f 5e 01 00 91 96 00 00 07 62 00 00 3a 50 00 00
       1.25667e-40 5.4013e-41 3.5166e-41 2.878e-41
0000c0 8c 8c 00 00 63 78 00 00 4b 0a 01 00 5a c9 01 00
       5.0419e-41 4.3187e-41 9.5528e-41 1.64067e-40
0000d0 8d 96 01 80 90 a5 01 00 ea f5 00 00 7e 7b 01 80
       -1.45843e-40 1.51228e-40 8.8217e-41 -1.36136e-40
0000e0 88 a8 00 00 64 be 00 00 55 cd 00 00 91 8b 00 00
       6.0458e-41 6.8299e-41 7.3659e-41 5.0067e-41
0000f0 b9 5f 00 00 64 14 03 00 ce b1 00 00 d1 8a 00 80
       3.4339e-41 2.82821e-40 6.3784e-41 -4.9798e-41
000100 7c 4f 02 80 1c c6 02 00 ef de 00 80 2d ea 00 00
       -2.12185e-40 2.54739e-40 -7.9974e-41 8.4006e-41
000110 21 db 02 00 35 03 00 80 f1 b2 00 00 aa 0d 01 00
       2.6228e-40 -1.15e-42 6.4192e-41 9.6737e-41
000120 35 7a 00 00 ea 69 01 80 56 f5 02 00 db ae 01 80
       4.384e-41 -1.2983e-40 2.71681e-40 -1.54562e-40
000130 06 85 02 00 b1 77 00 80 5b 4d 00 00 e3 bb 00 80
       2.31391e-40 -4.2937e-41 2.775e-41 -6.7401e-41
000140 19 17 01 80 4f 97 00 80 78 5f 00 80 02 43 00 00
       -1.00121e-40 -5.4279e-41 -3.4248e-41 2.4038e-41
000150 1d ca 00 80 94 41 00 00 d2 c8 00 00 e2 ad 02 80
       -7.2505e-41 2.3525e-41 7.2041e-41 -2.46048e-40
000160 3e c3 02 80 3b 38 02 00 48 a6 01 00 65 a2 01 00
       -2.5371e-40 2.03843e-40 1.51486e-40 1.50092e-40
000170 8e 84 00 00 cb 1f 03 80 22 fa 02 00 23 5f 01 80
       4.7552e-41 -2.86912e-40 2.73402e-40 -1.25964e-40
000180 3a 9c 02 80 27 42 01 80 6a 7c 44 b1 6d 34 02 00
       -2.39715e-40 -1.15566e-40 -2.8592475e-09 2.02478e-40
000190 10 9d 00 80 85 ad 00 00 22 8e 02 80 2a 1d 01 00
       -5.6343e-41 6.2247e-41 -2.34659e-40 1.02298e-40
0001a0 b1 e8 00 00 cf b0 02 80 f5 1c 01 80 3c 56 00 80
       8.3474e-41 -2.47098e-40 -1.02223e-40 -3.0935e-41
0001b0 56 d1 01 00 17 39 01 80 28 d9 02 00 35 6b 00 80
       1.66931e-40 -1.12315e-40 2.61572e-40 -3.8459e-41
0001c0 d4 f1 00 80 29 7e 00 00 ba fb 01 00 24 da 02 80
       -8.6752e-41 4.5258e-41 1.82138e-40 -2.61925e-40
0001d0 b3 c7 00 80 97 a2 01 80 42 13 03 80 ce 6c 00 00
       -7.1639e-41 -1.50162e-40 -2.82415e-40 3.9032e-41
0001e0 ff f8 00 00 32 b4 00 00 a7 32 02 80 a6 28 02 80
       8.9323e-41 6.4642e-41 -2.01842e-40 -1.98253e-40
0001f0 cc 9b 00 80 89 a2 01 80 e6 c6 00 80 21 91 01 00
       -5.589e-41 -1.50142e-40 -7.1351e-41 1.43898e-40
000200 1d 42 00 00 a9 36 00 00 02 39 00 00 e9 9e 01 00
       2.3717e-41 1.9608e-41 2.045e-41 1.48842e-40
000210 62 d9 00 00 a5 16 00 00 8f 28 01 00 71 7c 00 80
       7.7982e-41 8.123e-42 1.06385e-40 -4.4641e-41
000220 96 13 02 80 51 46 00 00 9b 35 00 00 11 1e 00 00
       -1.90697e-40 2.5225e-41 1.923e-41 1.0786e-41
000230 3e d6 00 00 e8 35 01 00 11 c7 02 00 04 39 02 00
       7.6856e-41 1.11173e-40 2.55083e-40 2.04124e-40
000240 90 40 00 80 3c ac 00 80 d4 d4 02 00 1a 43 01 00
       -2.316e-41 -6.1786e-41 2.6002e-40 1.15907e-40
000250 70 22 00 00 e1 10 02 00 42 a8 02 80 1b 70 02 00
       1.2354e-41 1.89726e-40 -2.4403e-40 2.23887e-40
000260 42 ca 02 80 2e d9 00 00 85 06 01 80 a1 3a 01 00
       -2.56227e-40 7.791e-41 -9.4174e-41 1.12868e-40
000270 55 93 01 80 67 ee 02 00 df 36 01 00 8d 7b 00 00
       -1.44688e-40 2.69194e-40 1.1152e-40 4.4322e-41
000280 e5 90 02 00 6a 15 02 00 ea 96 01 00 ea 06 00 80
       2.3565e-40 1.91353e-40 1.45973e-40 -2.48e-42
000290 cc 5f 01 00 86 af 00 80 58 cc 01 00 99 52 00 80
       1.26201e-40 -6.2966e-41 1.6514e-40 -2.963e-41
0002a0 ca 3d 00 80 b9 15 00 80 93 07 02 80 36 81 01 80
       -2.2166e-41 -7.793e-42 -1.86388e-40 -1.38188e-40
0002b0 4c e7 01 80 29 1a 00 00 b4 e3 01 00 66 70 00 00
       -1.74809e-40 9.384e-42 1.7352e-40 4.0321e-41
0002c0 54 ac 02 00 00 00 01 00 c4 b0 00 00 0f 89 02 80
       2.4549e-40 9.1835e-41 6.3412e-41 -2.32838e-40
0002d0 79 24 01 00 30 33 00 00 d6 6d 01 00 2e ef 00 00
       1.0492e-40 1.8363e-41 1.31237e-40 8.5802e-41
0002e0 9c 8a 00 00 92 24 00 00 d5 58 01 00 6e 54 01 80
       4.9724e-41 1.3119e-41 1.23702e-40 -1.22123e-40
0002f0 9d 8c 00 80 73 68 01 80 09 25 00 00 e2 a9 02 00
       -5.0443e-41 -1.29305e-40 1.3286e-41 2.44613e-40
000300 a9 c9 00 00 dd 29 00 00 dc 1d 01 00 00 0c 02 80
       7.2342e-41 1.5018e-41 1.02547e-40 -1.87976e-40
000310 94 72 00 80 c9 e2 01 00 89 da 00 00 a6 af 01 80
       -4.1103e-41 1.7319e-40 7.8396e-41 -1.54846e-40
000320 22 1c 00 00 4e 6b 00 80 05 5c 00 80 8b 28 01 00
       1.0092e-41 -3.8494e-41 -3.301e-41 1.0638e-40
000330 65 0e 01 80 04 22 00 00 08 d3 02 80 f9 b0 00 00
       -9.6999e-41 1.2203e-41 -2.59375e-40 6.3486e-41
000340 dd 26 00 00 a3 4b 00 00 ef 3b 00 00 14 6d 00 00
       1.3942e-41 2.7133e-41 2.15e-41 3.913e-41
000350 bf 05 01 80 41 41 01 80 3d 43 02 80 8c 7b 01 00
       -9.3897e-41 -1.15244e-40 -2.07792e-40 1.36156e-40
000360 28 67 02 00 5e a1 00 80 46 49 00 00 77 16 01 80
       2.20676e-40 -5.7888e-41 2.6286e-41 -9.9894e-41
000370 50 0b 00 00 80 b6 01 00 44 e5 01 00 46 1f 00 00
       4.058e-42 1.57304e-40 1.7408e-40 1.1219e-41
000380 fc e3 01 00 6d 58 01 80 35 c1 02 80 fb 19 00 00
       1.73621e-40 -1.23557e-40 -2.5298e-40 9.32e-42
000390 69 d1 00 00 a1 bf 02 00 7f b3 00 00 e2 39 01 00
       7.5122e-41 2.52414e-40 6.4391e-41 1.126e-40
0003a0 34 26 02 00 f8 bf 02 00 e6 5a 02 00 a2 4a 00 00
       1.97376e-40 2.52536e-40 2.16279e-40 2.6773e-41
0003b0 e6 55 00 00 a1 20 01 00 63 8d 00 00 af 61 01 00
       3.0815e-41 1.0354e-40 5.072e-41 1.26878e-40
0003c0 ab 3f 01 80 7d 92 00 00 6b ad 01 00 97 f0 00 80
       -1.14675e-40 5.255e-41 1.54046e-40 -8.6307e-41
0003d0 3b 0f 01 80 1f b0 02 00 c2 26 00 00 89 24 01 00
       -9.7299e-41 2.46851e-40 1.3904e-41 1.04942e-40
0003e0 99 39 01 00 c5 7a 00 80 c0 bd 00 00 87 a5 02 80
       1.12498e-40 -4.4041e-41 6.807e-41 -2.43051e-40
0003f0 cf cc 02 80 06 7d 01 00 25 f5 00 00 f1 ba 02 80
       -2.57142e-40 1.36685e-40 8.7941e-41 -2.50733e-40

conv1.lin_l.bias f4 [64]
000000 dc 16 01 80 99 3d 02 80 15 84 00 80 97 29 01 00
       -1.00036e-40 -2.05768e-40 -4.7382e-41 1.06755e-40
000010 55 fd 01 80 cc d8 01 00 af 10 01 00 8c ef 00 00
       -1.82714e-40 1.69608e-40 9.782e-41 8.5933e-41
000020 31 fb 01 80 0a 77 00 00 ea 59 02 00 9f 01 01 00
       -1.81946e-40 4.2703e-41 2.15926e-40 9.2417e-41
000030 3e 56 01 80 71 66 02 00 63 24 01 00 d3 92 00 00
       -1.22773e-40 2.2042e-40 1.04889e-40 5.267e-41
000040 a7 27 00 00 33 1e 00 80 db 19 00 80 d0 7e 00 80
       1.4225e-41 -1.0833e-41 -9.275e-42 -4.5492e-41
000050 07 31 00 00 99 09 00 00 8a 0a 03 00 39 4f 00 80
       1.7588e-41 3.443e-42 2.79287e-40 -2.842e-41
000060 1f 8e 00 80 60 38 02 00 db 04 00 00 b2 0f 00 00
       -5.0983e-41 2.03895e-40 1.742e-42 5.63e-42
000070 0b 21 01 00 91 51 02 00 7e fe 01 80 3f b0 01 80
       1.03689e-40 2.12932e-40 -1.8313e-40 -1.5506e-40
000080 af 91 01 80 0d 26 00 80 1b cc 02 80 f8 8f 01 00
       -1.44097e-40 -1.365e-41 -2.5689e-40 1.43482e-40
000090 4a 1c 01 00 4b 67 02 80 65 64 00 00 f6 e2 01 80
       1.01984e-40 -2.20726e-40 3.6015e-41 -1.73254e-40
0000a0 34 00 00 80 6b 7b 01 80 5b 07 00 00 8a 9c 01 80
       -7.3e-44 -1.3611e-40 2.639e-42 -1.47991e-40
0000b0 b0 ca 02 80 fc ca 00 00 dd e3 00 80 e3 0a 00 00
       -2.56382e-40 7.2817e-41 -8.1742e-41 3.905e-42
0000c0 c3 a4 02 80 2f 15 00 80 ac 70 02 80 16 20 03 00
       -2.42776e-40 -7.599e-42 -2.2409e-40 2.87017e-40
0000d0 9b e7 01 80 e2 4e 00 80 a6 36 02 80 a1 2a 02 80
       -1.7492e-40 -2.8298e-41 -2.03275e-40 -1.98963e-40
0000e0 c6 1b 01 00 52 98 00 80 d1 97 00 00 60 b7 00 80
       1.01799e-40 -5.4642e-41 5.4461e-41 -6.5783e-41
0000f0 72 a1 01 00 ed 57 01 00 34 76 00 80 b4 52 01 00
       1.49751e-40 1.23377e-40 -4.2403e-41 1.21504e-40

conv1.lin_r.weight f4 [64, 9]
000000 dc 1a 01 00 f2 1d 03 80 f8 60 02 00 32 c4 00 00
       1.01471e-40 -2.86249e-40 2.18457e-40 7.0382e-41
000010 ca 4b 00 00 30 00 02 80 5f 17 9c 38 ae b2 00 80
       2.7188e-41 -1.83738e-40 7.443013e-05 -6.4098e-41
000020 93 5b 01 80 53 98 00 00 56 38 06 2c 43 99 00 80
       -1.24686e-40 5.4644e-41 1.9073818e-12 -5.498e-41
000030 1f 13 00 80 af df 02 00 43 58 02 00 42 2f 02 80
       -6.86e-42 2.63914e-40 2.15333e-40 -2.00624e-40
000040 ce 68 02 80 38 ea 16 ae 3c c3 01 80 0d a9 01 80
       -2.21268e-40 -3.431408e-11 -1.61872e-40 -1.5248e-40
000050 44 76 00 80 35 73 00 80 71 1d 00 00 2f 7c 00 80
       -4.2426e-41 -4.1328e-41 1.0562e-41 -4.4549e-41
000060 4c 08 d0 2c 60 83 01 80 40 5c 15 35 a3 2b 02 80
       5.9126367e-12 -1.38964e-40 5.5641067e-07 -1.99325e-40
000070 08 88 02 80 36 54 02 00 ab 86 01 80 4d 23 02 00
       -2.3247e-40 2.1388e-40 -1.40145e-40 1.96335e-40
000080 fb ed 01 80 64 57 01 80 45 36 02 80 14 d2 d5 b2
       -1.77207e-40 -1.23185e-40 -2.03139e-40 -2.4891996e-08
000090 1b d0 02 00 11 ff 01 80 c1 7c 01 80 14 86 00 80
       2.58325e-40 -1.83336e-40 -1.36589e-40 -4.8098e-41
0000a0 31 1f 01 80 28 6d 01 00 42 b8 00 00 2a ac 01 80
       -1.03025e-40 1.30993e-40 6.6099e-41 -1.53596e-40
0000b0 8c 07 9e 2b 00 8c 00 80 3a e4 ed ab f8 01 00 80
       1.122867e-12 -5.0223e-41 -1.6903208e-12 -7.06e-43
0000c0 68 44 00 80 c0 1f 02 80 aa 2d 02 80 13 89 5d ac
       -2.454e-41 -1.95061e-40 -2.00052e-40 -3.148208e-12
0000d0 88 3a 02 00 ee 00 1c 2b a3 61 01 80 1c b0 3a b6
       2.04668e-40 5.5423624e-13 -1.26861e-40 -2.781867e-06
0000e0 9d 37 00 00 3f 72 00 00 ee f0 00 80 ea e5 01 80
       1.995e-41 4.0984e-41 -8.6429e-41 -1.74313e-40
0000f0 25 5d b9 ae 63 37 02 00 39 5a 18 2b a8 7a 00 80
       -8.429372e-11 2.0354e-40 5.4126457e-13 -4.4001e-41
000100 a0 c6 01 00 70 d0 00 80 53 5a 02 00 5e f7 00 80
       1.63089e-40 -7.4773e-41 2.16073e-40 -8.8739e-41
000110 23 85 00 00 16 1a 00 00 d7 1d 02 80 8d cd 01 80
       4.776e-41 9.358e-42 -1.94376e-40 -1.65573e-40
000120 3e 85 01 00 92 a4 01 00 45 a0 00 00 a7 20 00 80
       1.39634e-40 1.50872e-40 5.7494e-41 -1.1713e-41
000130 e2 52 00 00 84 aa 00 00 d0 b4 02 80 a5 71 02 00
       2.9733e-41 6.117e-41 -2.48534e-40 2.24439e-40
000140 62 05 03 3a 29 84 02 80 51 76 02 80 9a df 02 00
       0.00049980555 -2.31081e-40 -2.26115e-40 2.63884e-40
000150 f3 8c e3 b1 dd 01 01 80 51 eb 02 80 6a e5 b7 2c
       -6.6225936e-09 -9.2504e-41 -2.68087e-40 5.226643e-12
000160 fb 16 00 00 03 d3 42 ae 56 1b 02 80 da 5d 8e b7
       8.244e-42 -4.429791e-11 -1.93477e-40 -1.6971422e-05
000170 f4 63 01 00 55 a9 01 80 b3 8a 01 80 b9 7c 02 80
       1.27692e-40 -1.5258e-40 -1.41591e-40 -2.28413e-40
000180 83 51 00 80 96 b2 01 80 1c e7 28 ac b5 f5 2e 38
       -2.9241e-41 -1.559e-40 -2.4002527e-12 4.1713665e-05
000190 d2 51 00 00 fd 7f 00 80 51 1a 82 b9 06 ed 00 00
       2.9352e-41 -4.5914e-41 -0.0002481514 8.5028e-41
0001a0 36 94 00 80 27 ca 9f b2 f6 25 01 00 4a e3 a1 39
       -5.3168e-41 -1.8601964e-08 1.05453e-40 0.00030877657
0001b0 1b aa 01 80 87 ca 02 00 0d ce 01 00 4c 02 11 ab
       -1.52858e-40 2.56324e-40 1.65753e-40 -5.1517536e-13
0001c0 ea 75 01 00 3e ea 00 80 13 29 90 b1 b3 b7 99 b3
       1.34135e-40 -8.403e-41 -4.195621e-09 -7.1580324e-08
0001d0 57 88 22 b1 dc 3a 01 00 d8 22 02 00 54 4a 02 00
       -2.3651603e-09 1.1295e-40 1.9617e-40 2.10335e-40
0001e0 ac b1 01 00 12 4a 01 00 2a c0 00 80 d0 d3 71 b2
       1.55572e-40 1.18407e-40 -6.8935e-41 -1.4076207e-08
0001f0 ab 89 02 00 62 0a 37 38 eb a3 00 00 a9 92 00 00
       2.33057e-40 4.364027e-05 5.8803e-41 5.2612e-41
000200 03 40 01 80 32 ba 93 2f c7 ec 02 00 7b d0 01 80
       -1.14799e-40 2.6871444e-10 2.6861e-40 -1.66624e-40
000210 37 17 ae b6 5c b3 9f b2 23 ef 4a b3 48 04 02 80
       -5.1883067e-06 -1.85916e-08 -4.7249284e-08 -1.85207e-40
000220 6c ad 00 00 67 0f 01 00 4c fb 90 2f 2d b9 02 80
       6.2212e-41 9.7361e-41 2.6372005e-10 -2.501e-40
000230 0f 45 01 80 b6 39 b1 ab 3d 18 01 00 c4 11 bd 32
       -1.16609e-40 -1.2592624e-12 1.0053e-40 2.2010575e-08
000240 f8 21 03 00 d2 38 a1 2f 28 12 00 80 1b 13 00 00
       2.87692e-40 2.9326103e-10 -6.513e-42 6.854e-42
000250 3e bf 01 00 81 c3 00 00 92 5c b1 ae e4 e8 00 80
       1.6044e-40 7.0134e-41 -8.065472e-11 -8.3545e-41
000260 02 21 0c ae 4c 23 02 00 e6 46 67 2f d4 08 00 00
       -3.186163e-11 1.96333e-40 2.1034516e-10 3.167e-42
000270 90 8e 02 00 ec 0a 02 80 75 d0 00 80 96 b2 61 b9
       2.34813e-40 -1.87589e-40 -7.478e-41 -0.000215242
000280 fa 4b 01 00 7c 7f 11 ad 54 ef 02 00 b0 1f 01 00
       1.19091e-40 -8.270603e-12 2.69526e-40 1.03203e-40
000290 27 27 01 00 b4 b1 01 00 93 62 00 00 58 27 00 80
       1.05881e-40 1.55583e-40 3.5362e-41 -1.4114e-41
0002a0 2d 80 02 00 cb 3e 01 00 56 b3 4e b2 e3 db 00 00
       2.29652e-40 1.14361e-40 -1.2031554e-08 7.888e-41
0002b0 25 2b 02 00 c8 b3 02 00 ae cc 4c af 54 49 00 00
       1.99148e-40 2.48164e-40 -1.8626409e-10 2.6305e-41
0002c0 c7 25 01 80 3e cd 3e 2d fe 21 00 80 d4 e7 a8 ae
       -1.05387e-40 1.08458225e-11 -1.2194e-41 -7.6809364e-11
0002d0 74 d0 00 00 c0 ab d0 b3 fc d9 00 80 42 b5 01 80
       7.4779e-41 -9.716996e-08 -7.8198e-41 -1.56859e-40
0002e0 e2 b2 00 80 46 86 02 00 a0 b7 63 b7 7e 9f 01 00
       -6.4171e-41 2.31839e-40 -1.3573008e-05 1.4905e-40
0002f0 bc 5f 59 ac 22 6d 01 80 a0 60 02 00 65 75 00 00
       -3.0890698e-12 -1.30985e-40 2.18334e-40 4.2113e-41
000300 2a 83 00 00 3a 1f 01 00 4d 86 00 80 22 17 52 b2
       4.7053e-41 1.03037e-40 -4.8178e-41 -1.2228869e-08
000310 3d 96 01 80 c8 87 40 2e 41 6e 00 00 ac dd 00 00
       -1.45731e-40 4.3776344e-11 3.9552e-41 7.9521e-41
000320 65 0e 01 80 65 a2 01 00 cb 19 02 80 4a 70 00 00
       -9.6999e-41 1.50092e-40 -1.92924e-40 4.0282e-41
000330 d4 b8 4f 34 fd 30 01 80 de 60 34 ae 82 8f 01 00
       1.9345617e-07 -1.09409e-40 -4.1013297e-11 1.43316e-40
000340 57 93 ca b7 4b 81 02 00 70 22 03 80 e7 99 02 00
       -2.4148887e-05 2.30053e-40 -2.8786e-40 2.38881e-40
000350 e1 b7 01 00 f6 e8 86 ae e6 ac 01 80 ba 6e 02 00
       1.57799e-40 -6.134997e-11 -1.5386e-40 2.23392e-40
000360 81 a8 00 80 df d5 4d ac a0 5e 02 80 8c 1d 03 80
       -6.0448e-41 -2.9250974e-12 -2.17616e-40 -2.86106e-40
000370 39 3a 00 00 a5 dc 00 00 44 04 8b b4 bb 7b 00 80
       2.0886e-41 7.9152e-41 -2.589387e-07 -4.4386e-41
000380 bc 24 1d b3 4c b3 01 80 76 4b 1e ac 40 19 02 00
       -3.658782e-08 -1.56155e-40 -2.249504e-12 1.92729e-40
000390 d6 00 00 80 22 be 01 00 25 90 02 80 7b 37 00 00
       -3e-43 1.60042e-40 -2.3538e-40 1.9903e-41
0003a0 72 35 02 80 5c 76 3a 36 7f 3d 02 00 31 fa 93 b7
       -2.02844e-40 2.7785054e-06 2.05732e-40 -1.764027e-05
0003b0 41 cf 02 00 09 b2 37 b1 6d 5f 01 00 03 00 00 80
       2.5802e-40 -2.6731206e-09 1.26068e-40 -4e-45
0003c0 54 a8 02 00 76 b4 01 00 0c 6e dc 33 c6 0b 00 80
       2.44056e-40 1.56573e-40 1.0264566e-07 -4.224e-42
0003d0 8a c7 00 00 a4 cc 02 80 22 c5 02 80 38 69 01 80
       7.1581e-41 -2.57082e-40 -2.54389e-40 -1.29581e-40
0003e0 93 df 00 00 fb 71 01 80 12 db 02 80 20 09 1a 2e
       8.0203e-41 -1.32724e-40 -2.62259e-40 3.502365e-11
0003f0 64 8f 02 80 ef 2d 03 80 b0 1e 01 80 77 0a 03 80
       -2.3511e-40 -2.91984e-40 -1.02844e-40 -2.7926e-40

conv1.lin_r.bias f4 [64]
000000 e3 6a 02 80 99 fe 01 00 b6 68 b4 b8 78 88 3d af
       -2.22015e-40 1.83168e-40 -8.602573e-05 -1.7237933e-10
000010 7c 07 00 80 9e 18 01 80 a7 17 03 00 9a e8 00 00
       -2.685e-42 -1.00666e-40 2.83991e-40 8.3442e-41
000020 83 36 02 80 36 a8 01 80 0b aa 01 00 94 d2 02 00
       -2.03226e-40 -1.52178e-40 1.52835e-40 2.59212e-40
000030 4e 6e f6 ad ff eb 01 80 40 ae 2c 30 3f 16 03 00
       -2.8015947e-11 -1.76495e-40 6.282086e-10 2.83487e-40
000040 10 ff 00 00 7c 06 34 ba 80 3a 01 80 25 0c 00 00
       9.1499e-41 -0.00068674213 -1.12821e-40 4.357e-42
000050 2e 93 00 00 8e b7 02 80 f5 6c ae 2c 68 e1 01 00
       5.2798e-41 -2.49518e-40 4.957474e-12 1.72696e-40
000060 54 01 01 80 0b 6d 02 80 ff ad 01 00 33 5f 01 80
       -9.2312e-41 -2.22788e-40 1.54254e-40 -1.25987e-40
000070 91 1d 7b 2a 85 ed 00 00 51 a2 01 80 c2 d5 8c b3
       2.2303536e-13 8.5206e-41 -1.50064e-40 -6.55814e-08
000080 76 bc 00 00 ac 41 01 00 bb db 01 00 0e 52 01 00
       6.7607e-41 1.15394e-40 1.7066e-40 1.21271e-40
000090 6b 19 00 80 6a f3 02 80 a6 94 a8 36 f0 c5 01 80
       -9.118e-42 -2.70992e-40 5.024095e-06 -1.62842e-40
0000a0 6e b8 35 30 09 17 a1 ac a8 2b 01 00 2a 21 03 80
       6.6109507e-10 -4.5784526e-12 1.07496e-40 -2.87404e-40
0000b0 5c 91 02 80 48 5d 01 00 98 09 bd ab d3 c9 ad ab
       -2.35816e-40 1.25299e-40 -1.343192e-12 -1.2348407e-12
0000c0 9c 02 01 80 3d 76 38 b2 3d cd 00 80 6e f7 01 00
       -9.2772e-41 -1.0737094e-08 -7.3626e-41 1.80597e-40
0000d0 17 bf 02 00 c3 30 00 80 bc 64 01 80 13 60 87 31
       2.52221e-40 -1.7492e-41 -1.27972e-40 3.9399395e-09
0000e0 40 3f d0 b4 4d 1c 01 80 80 77 9f ae 9d 3e 02 00
       -3.878904e-07 -1.01988e-40 -7.25171e-11 2.06132e-40
0000f0 6b 6f 0f ac 50 15 01 80 8f ad 02 80 28 50 00 80
       -2.0383372e-12 -9.9481e-41 -2.45932e-40 -2.8755e-41

conv2.lin_l.weight f4 [1, 64]
000000 03 00 00 80 f4 00 00 80 11 00 00 00 55 00 00 00
       -4e-45 -3.42e-43 2.4e-44 1.19e-43
000010 4a 00 00 80 24 00 00 80 14 00 00 00 37 00 00 00
       -1.04e-43 -5e-44 2.8e-44 7.7e-44
000020 4e 00 00 80 2a 00 00 00 22 00 00 00 6d 00 00 80
       -1.1e-43 5.9e-44 4.8e-44 -1.53e-43
000030 23 00 00 80 1a 00 00 00 0d 00 00 80 2f 00 00 00
       -4.9e-44 3.6e-44 -1.8e-44 6.6e-44
000040 1d 00 00 00 0a 00 00 00 2f 00 00 80 01 00 00 80
       4e-44 1.4e-44 -6.6e-44 -1e-45
000050 1b 00 00 80 03 00 00 00 41 00 00 80 05 00 00 80
       -3.8e-44 4e-45 -9.1e-44 -7e-45
000060 14 00 00 00 35 00 00 00 1c 00 00 80 89 00 00 80
       2.8e-44 7.4e-44 -3.9e-44 -1.92e-43
000070 12 00 00 00 b3 00 00 00 19 00 00 80 1a 00 00 80
       2.5e-44 2.51e-43 -3.5e-44 -3.6e-44
000080 7f 00 00 80 0a 00 00 80 01 00 00 80 1f 00 00 00
       -1.78e-43 -1.4e-44 -1e-45 4.3e-44
000090 20 00 00 80 74 00 00 00 1f 00 00 00 25 00 00 80
       -4.5e-44 1.63e-43 4.3e-44 -5.2e-44
0000a0 13 00 00 80 3c 00 00 80 22 00 00 00 1f 00 00 80
       -2.7e-44 -8.4e-44 4.8e-44 -4.3e-44
0000b0 55 00 00 00 0a 00 00 80 1e 00 00 80 07 00 00 00
       1.19e-43 -1.4e-44 -4.2e-44 1e-44
0000c0 0c 00 00 00 20 00 00 00 72 04 00 80 2c 00 00 00
       1.7e-44 4.5e-44 -1.595e-42 6.2e-44
0000d0 53 00 00 00 15 00 00 00 25 00 00 00 18 00 00 00
       1.16e-43 3e-44 5.2e-44 3.4e-44
0000e0 2a 02 00 80 14 00 00 80 13 00 00 80 34 00 00 80
       -7.76e-43 -2.8e-44 -2.7e-44 -7.3e-44
0000f0 07 00 00 80 29 00 00 00 4d 00 00 00 21 00 00 00
       -1e-44 5.7e-44 1.08e-43 4.6e-44

conv2.lin_r.weight f4 [1, 64]
000000 33 ad 00 00 43 28 00 80 4c be 00 00 b1 21 01 00
       6.2132e-41 -1.4443e-41 6.8266e-41 1.03922e-40
000010 60 1f 00 00 31 f9 00 00 dd 76 02 00 e1 97 02 00
       1.1255e-41 8.9393e-41 2.26311e-40 2.38155e-40
000020 0e 17 00 80 59 99 00 80 92 55 01 80 ca 64 01 80
       -8.27e-42 -5.5011e-41 -1.22532e-40 -1.27992e-40
000030 1d 75 01 80 5b 71 00 00 29 bd 00 80 b4 34 00 00
       -1.33848e-40 4.0664e-41 -6.7858e-41 1.8906e-41
000040 2a 39 00 00 32 8f 02 00 99 59 00 80 2b 01 01 80
       2.0507e-41 2.3504e-40 -3.2142e-41 -9.2254e-41
000050 12 74 00 00 c6 53 00 00 bc 2b 02 80 64 e4 01 80
       4.1638e-41 3.0052e-41 -1.9936e-40 -1.73767e-40
000060 b6 17 01 80 9c c6 02 80 93 ac 01 80 46 50 00 00
       -1.00341e-40 -2.54919e-40 -1.53743e-40 2.8797e-41
000070 95 35 00 00 83 c7 00 80 66 d8 00 00 a3 01 01 80
       1.9222e-41 -7.1571e-41 7.7629e-41 -9.2423e-41
000080 a2 29 00 00 6f dd 02 00 ac aa 00 00 04 21 00 80
       1.4935e-41 2.63106e-40 6.1226e-41 -1.1844e-41
000090 b6 2a 00 80 39 48 01 80 f7 ee 00 00 c6 2c 00 80
       -1.5322e-41 -1.17744e-40 8.5724e-41 -1.6062e-41
0000a0 91 1b 01 80 e3 49 00 00 01 fa 01 80 88 27 02 00
       -1.01724e-40 2.6506e-41 -1.8152e-40 1.97852e-40
0000b0 28 8b 02 80 7b 70 00 80 86 27 01 80 ff d9 00 00
       -2.33591e-40 -4.035e-41 -1.06014e-40 7.8202e-41
0000c0 fa f6 00 80 99 9e 01 00 fd 2f 00 00 01 1f 03 80
       -8.8598e-41 1.4873e-40 1.7215e-41 -2.86629e-40
0000d0 78 3a 02 00 3e c6 00 00 a1 7e 00 80 e6 56 00 80
       2.04646e-40 7.1116e-41 -4.5426e-41 -3.1173e-41
0000e0 7d 52 00 80 ef 7c 01 80 f2 d2 00 80 b8 c1 00 00
       -2.9591e-41 -1.36653e-40 -7.5673e-41 6.9493e-41
0000f0 6d 8c 02 00 87 41 00 80 77 c6 00 80 a4 6c 00 00
       2.34046e-40 -2.3507e-41 -7.1196e-41 3.8973e-41
